results/ppo/Seek/Seek-19961.pt (torch, 446946 bytes, 42 tensors)

network_body._body_endoder.seq_layers.0.weight f4 [128, 6]
-0.69727963 0.26272494 0.4308561 0.0036196222 -0.029078977 -0.823985 0.37420705 0.7357519
-0.38939074 0.1518414 -0.6531592 0.14636168 0.48138022 0.3696665 -0.7556445 0.3787358
0.08558066 -0.47422066 0.2789258 -0.0929307 0.26707944 -0.4244503 -0.12160748 -0.0073958244
-0.05937457 0.39823216 -0.1358364 -0.4098538 0.18365005 -0.7233267 -0.19369465 -0.22513096
-0.08875706 -0.8410151 -0.25527388 -0.60454464 -0.5702606 -0.1863179 -0.0073016672 0.42824724
-0.21355063 0.34609511 0.19196206 0.3435164 -0.08741432 -0.03633311 -0.38022533 -0.5229257
-0.098086305 0.22442856 -0.015145054 -0.23348899 0.15304258 -0.3986397 0.2690263 0.21119438
0.026022442 0.7718589 0.26889884 0.089953095 -0.12504932 -0.1509396 0.12187383 -0.025991555
0.0732676 -0.54721475 -0.03098198 -0.2996632 -0.0024539058 0.2939326 -0.5785666 0.60438657
0.8085354 0.14959127 0.2687207 0.4587549 0.29816204 0.5512151 -0.040026985 0.19117303
0.0020522822 -0.22275238 0.76602787 -0.11532426 -0.0599083 -0.052043963 0.28828305 0.7776191
-0.32268313 0.05225163 -0.21537063 0.6336909 -0.3447817 -0.3089714 -0.1340773 -0.028055428
-0.19873102 -0.20279813 -0.14075296 -0.07337589 0.73711675 -0.60539806 -0.5338229 0.18609226
-0.90429366 -0.39700037 -0.44150174 -0.89056575 0.3918826 0.8071098 -0.034321688 0.39507854
-0.42089 0.24926458 0.5156267 0.32464707 0.15923433 0.044425163 0.24772036 0.030927448
0.079533875 -0.43547973 0.23532394 0.13423589 -0.53288376 0.53213644 0.46201098 -0.51934373
-0.4061325 -0.3192603 -0.33306554 0.32159102 -0.39173138 0.19680122 0.114016205 -0.3428038
0.053760663 -0.1662601 0.39261732 0.12992981 -0.6160811 -0.2368795 0.49490458 -0.1182398
0.1684405 -0.17376381 -0.25797743 0.14421122 0.03625385 -0.087248065 0.28859097 0.50096166
-0.05151502 -0.30144116 0.8653178 -0.046003066 0.16122223 -0.17098291 0.4611253 0.47803494
-0.08565031 0.022249313 0.45253187 0.19112924 0.14361231 -0.4570641 -0.16200331 0.47528115
0.0059066974 -0.10702952 -0.31034067 -0.694733 0.018357186 -0.010341831 0.78668433 0.7441386
0.2929317 0.26532465 1.0442921 0.17379595 -0.31487846 -0.2472583 0.299777 -0.3771137
-0.54007757 -0.017614802 0.12957662 -0.16644824 0.12876286 0.20579404 -0.13567083 -0.7310874
-0.2447711 -0.30783537 -0.25193805 -0.10009128 0.43442586 0.1677111 -0.07097187 -0.2578901
0.06527601 0.5932612 0.9982876 0.20984152 -0.062027477 0.47049937 -0.09659705 0.03515966
0.24213585 -0.881869 0.63488317 -0.1505407 0.13971639 0.05228028 -0.11561229 0.31614882
-0.06920483 1.0734968 -0.45170787 0.106178805 0.12132142 0.6987462 -0.15405135 0.23955016
0.19138432 0.13988529 -0.6901839 0.122865446 0.30089998 -0.7109994 0.7886122 -0.08480357
0.13473517 -0.33531842 -0.8389176 -0.37478727 -0.26480168 0.16428395 -0.8040528 0.110518344
0.020265553 -0.02519993 0.018603444 -0.25226867 0.124313615 -0.28931504 -0.099161856 -0.20928684
0.19676395 -0.19094314 -0.3225751 -0.04569012 -0.026215967 -0.49629796 -0.28558588 0.15844442
00000000: eb80 32bf e283 863e 2c99 dc3e 2f37 6d3b
00000010: 0937 eebc aef0 52bf 1198 bf3e 3d5a 3c3f
00000020: 395e c7be 507c 1b3e 7135 27bf d6df 153e
00000030: 7877 f63e ed44 bd3e eb71 41bf a9e9 c13e
00000040: ea44 af3d 0dcd f2be 5dcf 8e3e 7352 bebd
00000050: a3be 883e 8d51 d9be 580d f9bd ac58 f2bb
00000060: c032 73bd 16e5 cb3e b218 0bbe 5bd8 d1be
00000070: c20e 3c3e f02b 39bf e457 46be bb88 66be
00000080: 43c6 b5bd c44c 57bf 42b3 82be 70c3 1abf
00000090: 99fc 11bf 1fca 3ebe d342 efbb 3943 db3e
000000a0: 04ad 5abe 6133 b13e b491 443e 62e1 af3e
000000b0: 4706 b3bd 07d2 14bd e5ac c2be 75de 05bf
000000c0: 79e1 c8bd 9ad0 653e f622 78bc bd17 6fbe
000000d0: 32b7 1c3e 811a ccbe d1bd 893e 5743 583e
000000e0: 042d d53c 8b98 453f 1cad 893e 5439 b83d
000000f0: ee0c 00be e98f 1abe fd98 f93d 3eec d4bc
00000100: 530d 963d 4416 0cbf eccd fdbc 746d 99be
00000110: b5d1 20bb 557e 963e f11c 14bf 14b9 1a3f
00000120: 2dfc 4e3f 742e 193e c295 893e ece1 ea3e
00000130: b2a8 983e 6f1c 0d3f 56f3 23bd ddc2 433e
00000140: 957f 063b 3319 64be 671a 443f 202f ecbd
00000150: 6862 75bd 0d2c 55bd d699 933e 0c12 473f
00000160: b936 a5be ce05 563d 1e8a 5cbe 9139 223f
00000170: 3a87 b0be 8031 9ebe 8f4b 09be 7fd4 e5bc
00000180: 2580 4bbe 50aa 4fbe 8b21 10be 1946 96bd
00000190: afb3 3c3f 5efb 1abf 9ea8 08bf f88e 3e3e
000001a0: ca7f 67bf a243 cbbe 840c e2be 1efc 63bf
000001b0: d6a4 c83e bf9e 4e3f e694 0cbd bc47 ca3e
000001c0: e57e d7be 373f 7f3e 1d00 043f 2438 a63e
000001d0: 530e 233e 29f7 353d 68aa 7d3e 8f5b fd3c
000001e0: a8e2 a23d 33f7 debe c2f8 703e 2275 093e
000001f0: 126b 08bf 183a 083f b48c ec3e b6f3 04bf
00000200: 99f0 cfbe 1676 a3be 9187 aabe 94a7 a43e
00000210: 0491 c8be 4286 493e 5481 e93d fb83 afbe
00000220: 2434 5c3d 1640 2abe 2305 c93e 520c 053e
00000230: 7eb7 1dbf 8a90 72be 2264 fd3e b527 f2bd
00000240: ab7b 2c3e 24ef 31be 9e15 84be 1bac 133e
00000250: eb7e 143d 1daf b2bd 32c2 933e 063f 003f
00000260: 6a01 53bd 7f56 9abe 7885 5d3f b66d 3cbd
00000270: 7117 253e 2516 2fbe 9e18 ec3e ffc0 f43e
00000280: 6e69 afbd 3144 b63c 42b2 e73e 62b7 433e
00000290: 1b0f 133e 4e04 eabe 32e4 25be 0d58 f33e
000002a0: f88c c13b 4b32 dbbd f9e4 9ebe 06da 31bf
000002b0: cf61 963c c870 29bc 2564 493f de7f 3e3f
000002c0: 25fb 953e a2d8 873e 5dab 853f 91f7 313e
000002d0: c037 a1be 4831 7dbe 5f7c 993e 0c15 c1be
000002e0: 8642 0abf eb4c 90bc bcaf 043e 6871 2abe
000002f0: 69da 033e acbb 523e 4bed 0abe 8b28 3bbf
00000300: 46a5 7abe 999c 9dbe 06fe 80be a8fc ccbd
00000310: 116d de3e 75bc 2b3e b359 91bd 2c0a 84be
00000320: 6eaf 853d f7df 173f c78f 7f3f b2e0 563e
00000330: 8610 7ebd 4be5 f03e add4 c5bd 9303 103d
00000340: 76f2 773e 2bc2 61bf b487 223f 5727 1abe
00000350: d011 0f3e d923 563d 23c6 ecbd 42de a13e
00000360: 43bb 8dbd 5868 893f 4146 e7be 4674 d93d
00000370: 5d77 f83d 08e1 323f a3bf 1dbe a34c 753e
00000380: 40fa 433e 173e 0f3e e4af 30bf e1a0 fb3d
00000390: 900f 9a3e 0f04 36bf 7de2 493f 7ead adbd
000003a0: 04f8 093e dbae abbe 4ec3 56bf 1ee4 bfbe
000003b0: 1694 87be 0d3a 283e 68d6 4dbf 7157 e23d
000003c0: f203 a63c 1570 cebc 4066 983c 5c29 81be
000003d0: 2398 fe3d 1a21 94be 5f15 cbbd 4a4f 56be
000003e0: 7d7c 493e 9986 43be 9028 a5be 9025 3bbd
000003f0: dec2 d6bc c41a febe 5038 92be 413f 223e

network_body._body_endoder.seq_layers.0.bias f4 [128]
0.004031072 -0.0040144217 -0.0019152344 -0.0014904127 0.00066867133 -0.004489669 0.003227254 0.0002219239
-0.0022285378 -0.0052376245 0.0030155545 0.0027025281 0.004200753 -0.0041624135 -0.003903802 0.0034652548
0.005411822 0.002854033 0.0017058094 -0.0033854234 0.003940433 -0.0035215598 0.0036384175 0.0036290612
0.000404835 0.0009956483 -0.003723423 0.0012839843 -0.002489724 0.00018186966 0.0044012363 0.0036021464
0.003612989 0.0015490735 -0.0038390134 0.0012786997 -0.0017779437 -0.0014142204 0.0027902115 0.0055138427
0.0043942146 -0.001694651 -0.0023477545 -0.0038445124 -0.0024158952 0.0029019068 0.0045448523 0.0012701936
-0.0036399998 0.0025064487 0.0007267843 -0.00093554566 -0.0041444837 -0.0012739775 -0.001242746 -0.003756413
0.00032918138 -0.004356447 0.0046353796 0.00470005 0.004012104 -0.0036731095 -0.0017816864 -0.004096652
-0.004667808 0.0040787715 0.0034432395 -0.0031696174 -0.001606899 0.001328765 0.003627986 -0.0036990342
0.005689136 -0.004322064 0.0010695164 0.0011551355 0.0037324955 -0.0012546894 0.001787648 -0.0021499181
-0.0022776036 -0.0039938604 0.0022173515 0.0041206116 0.004646725 -0.0029438438 -0.001495786 0.0027343798
-0.0011049007 -0.0019396823 -0.0021581138 -0.003973703 -0.004024162 -0.0033336047 0.004110549 0.0034723822
0.00040837203 -0.0028990107 -0.0034045689 0.003277788 -0.0026680166 0.003914467 -0.0033675528 0.0033517557
0.0038429494 -0.0024179504 -0.0010206075 0.005037235 0.0053366157 0.005181081 0.0019109073 0.0033964324
-0.0009848482 0.004368571 0.005865597 0.002390626 -0.0045805257 0.0034436493 0.00025347839 -0.003232728
0.0023074963 0.00299029 0.003864182 0.002180731 -0.0005047533 0.0034511837 -0.0012152806 0.00037347578
00000000: 1517 843b 698b 83bb 9a08 fbba f459 c3ba
00000010: c649 2f3a 131e 93bb 5680 533b 3eb4 6839
00000020: a90c 12bb 61a0 abbb 9ca0 453b e61c 313b
00000030: 78a6 893b db64 88bb eed6 7fbb 5419 633b
00000040: a755 b13b ba0a 3b3b 7795 df3a fbdd 5dbb
00000050: bf1e 813b f8c9 66bb 8472 6e3b 8bd5 6d3b
00000060: 0940 d439 6a80 823a ac04 74bb 5d4b a83a
00000070: a32a 23bb 44b4 3e39 3f38 903b fd11 6c3b
00000080: e6c7 6c3b 480a cb3a f597 7bbb 0b9a a73a
00000090: e409 e9ba 5d5d b9ba fbdb 363b 77ad b43b
000000a0: 58fd 8f3b 0d1f deba c9dc 19bb 37f4 7bbb
000000b0: ff53 1ebb eb2d 3e3b fcec 943b a07c a63a
000000c0: 108d 6ebb 3b43 243b ab85 3e3a 683f 75ba
000000d0: 73ce 87bb 97fb a6ba a3e3 a2ba 272e 76bb
000000e0: fa95 ac39 87c0 8ebb 62e4 973b e102 9a3b
000000f0: f877 833b 8db8 70bb 7a87 e9ba 353d 86bb
00000100: 69f4 98bb 37a7 853b f9a7 613b 5bb9 4fbb
00000110: 959e d2ba f429 ae3a 81c3 6d3b 7f6b 72bb
00000120: ef6b ba3b 1aa0 8dbb 042f 8c3a ea67 973a
00000130: e29c 743b 6474 a4ba 834f ea3a a4e5 0cbb
00000140: d943 15bb eede 82bb fc50 113b 3206 873b
00000150: 8e43 983b 81ed 40bb 400e c4ba 4833 333b
00000160: 51d2 90ba f03c feba 246f 0dbb d635 82bb
00000170: 1edd 83bb 9b78 5abb c9b1 863b e890 633b
00000180: c41a d639 54fd 3dbb 301f 5fbb 28d0 563b
00000190: e4d9 2ebb ee44 803b 29b2 5cbb 21a9 5b3b
000001a0: fed9 7b3b 7a76 1ebb e8c5 85ba 640f a53b
000001b0: c7de ae3b 0fc6 a93b 6977 fa3a ae96 5e3b
000001c0: 0616 81ba 3b26 8f3b 3234 c03b 0cac 1c3b
000001d0: 3c18 96bb d9ae 613b 4be5 8439 2ddc 53bb
000001e0: 5d39 173b bef8 433b 373e 7d3b 98ea 0e3b
000001f0: 6c51 04ba 412d 623b 0d4a 9fba 12cf c339

network_body._body_endoder.seq_layers.2.weight f4 [128, 128]
-0.0049406067 -0.20902273 -0.14065896 0.11060856 0.061288685 0.025478056 -0.04656083 -0.089158386
-0.101197004 -0.112875424 0.05823523 -0.15649134 -0.13016646 -0.15106535 0.05077121 0.023253715
0.020344697 0.07188812 -0.08772076 -0.18417554 -0.043872718 -0.08284374 -0.07310303 -0.0047613685
-0.13294753 0.0089076925 0.1640346 -0.092532374 -0.015612979 -0.032291874 0.06773646 0.03645526
0.11940373 0.09582475 -0.030531416 -0.08063325 0.010941203 0.09349271 -0.015507903 0.0078000003
-0.02937234 0.10780544 -0.04921572 0.11948557 0.061951857 0.018033465 -0.014375364 0.062528335
0.0629001 -0.031083398 0.12940107 -0.18262407 0.061189473 -0.0019481332 0.050171763 0.040465433
-0.013741875 0.028077912 -0.05060839 0.16593881 0.0294111 0.21392417 -0.049230225 -0.0016533029
-0.055584993 0.07034179 -0.10675604 0.15709506 -0.01928759 0.16777478 -0.03794535 0.04803343
-0.07631828 0.010135909 0.15078528 0.022837382 0.08396176 -0.00634603 0.06220197 0.011811904
0.08132046 0.04068929 0.2530776 -0.072083086 -0.11481327 -0.18045524 0.07222327 0.018335575
-0.05976663 -0.048728 0.069096275 -0.12570372 -0.03750599 0.12710375 -0.0659518 0.007296976
0.021893937 -0.19849801 0.19080961 0.03016946 -0.11907888 0.06670738 0.033058506 0.119039826
-0.046738036 -0.003049292 -0.0020254706 0.06703272 0.13141444 0.11896369 -0.019589387 -0.060019188
-0.15606008 0.051571425 0.10278216 -0.09216392 -0.014118522 0.046049707 0.13191868 0.05508618
0.12214667 -0.09089019 0.122918226 -0.07749085 -0.051995248 0.07805029 -0.053271774 -0.110675186
-0.06889588 0.07256052 -0.020533575 -0.021911265 0.12520888 -0.15810761 0.051519115 0.032892782
0.06664478 0.094319165 -0.025192596 -0.052627932 -0.093208954 0.0690319 0.018451791 -0.00732842
-0.055753525 0.06902177 0.06890261 -0.0653604 0.02878511 0.14375123 0.12899515 -0.037190355
0.19338584 0.04982923 -0.1737856 0.113297194 -0.15009083 -0.056792375 -0.12692085 -0.0108318785
0.1064798 0.020629996 -0.040244225 0.10060042 -0.025321206 -0.117066704 0.038253628 -0.02700144
0.062422533 0.13921028 0.16142878 0.09974992 -0.016825708 -0.007629883 0.0064131715 0.050402895
0.010783748 -0.07208589 -0.07914079 -0.0138703855 0.020419171 -0.08425169 0.028933706 0.018328616
0.011138615 0.022401946 -0.0024117748 -0.07963982 -0.110936515 -0.07639988 -0.0301321 -0.021398313
0.20680276 0.1961842 -0.07657589 -0.07974768 -0.104714565 0.038995665 0.16361998 -0.08504344
0.08125699 0.07699558 0.07615748 -0.10055097 -0.010180031 -0.024940845 0.24070589 0.057274625
0.09122345 -0.022905432 0.13228388 0.010539227 0.07462022 0.024142697 -0.039354816 -0.094436534
0.17200245 -0.07064486 -0.017953385 0.1642363 -0.1411211 -0.14849366 0.10570798 0.064071864
0.06350648 1.7442922e-05 -0.005319896 0.07574284 -0.016142512 0.016813336 -0.0058745104 -0.10326169
0.0057791085 0.028176494 -0.03448162 -0.16279711 0.14117262 0.03514773 -0.10272596 0.13495664
0.0901033 0.04980667 -0.023564015 0.028433096 -0.070394255 -0.015290761 0.030139614 0.002047584
0.027138945 0.011014425 0.10824531 0.01120433 0.08118642 0.048802115 0.16481446 -0.010341092
00000000: d0e4 a1bb 0e0a 56be e708 10be be86 e23d
00000010: d809 7b3d 5bb7 d03c 92b6 3ebd ac98 b6bd
00000020: 6040 cfbd 3b2b e7bd 1188 6e3d 443f 20be
00000030: 5b4a 05be e0b0 1abe 79f5 4f3d 937e be3c
00000040: eca9 a63c 143a 933d f1a6 b3bd 8398 3cbe
00000050: e1b3 33bd fba9 a9bd 0bb7 95bd 4105 9cbb
00000060: 6623 08be 92f1 113c b0f8 273e 9d81 bdbd
00000070: 95cd 7fbc 7c44 04bd 6ab9 8a3d 1c52 153d
00000080: f189 f43d c43f c43d 051d fabc 0c23 a5bd
00000090: bb42 333c 1b79 bf3d dc14 7ebc 2597 ff3b
000000a0: 439e f0bc 19c9 dc3d 6c96 49bd dab4 f43d
000000b0: 3bc1 7d3d ebba 933c a686 6bbc db0e 803d
000000c0: c5d1 803d 9ca2 febc b781 043e ce01 3bbe
000000d0: d0a1 7a3d 8158 ffba e880 4d3d 15bf 253d
000000e0: 9a25 61bc a603 e63c be4a 4fbd ddeb 293e
000000f0: 8cef f03c f00e 5b3e a2a5 49bd a4b3 d8ba
00000100: 17ad 63bd 5b0f 903d e9a2 dabd 87dd 203e
00000110: 0201 9ebc 27cd 2b3e 956c 1bbd b4be 443d
00000120: c24c 9cbd 1511 263c 7567 1a3e 7615 bb3c
00000130: 25f4 ab3d 5cf2 cfbb 7ec7 7e3d b786 413c
00000140: 578b a63d d0a9 263d 6393 813e 4ca0 93bd
00000150: 3823 ebbd 42c9 38be cbe9 933d 7d34 963c
00000160: dbcd 74bd 0397 47bd 5982 8d3d 7ab8 00be
00000170: e29f 19bd 7c27 023e bd11 87bd 791b ef3b
00000180: ea5a b33c 1043 4bbe 9863 433e f225 f73c
00000190: a1df f3bd e19d 883d 5b68 073d 27cb f33d
000001a0: 6270 3fbd a1d6 47bb c2bd 04bb 7348 893d
000001b0: 8291 063e 3ca3 f33d ec79 a0bc aed6 75bd
000001c0: 37ce 1fbe 8f3c 533d 747f d23d 70c0 bcbd
000001d0: 6051 67bc 9e9e 3c3d b115 073e 0ca2 613d
000001e0: 0928 fa3d a324 babd 8dbc fb3d 86b3 9ebd
000001f0: f8f8 54bd d5d8 9f3d 8133 5abd aca9 e2bd
00000200: 4819 8dbd 9c9a 943d 0736 a8bc 417f b3bc
00000210: c236 003e f6e6 21be b505 533d 95ba 063d
00000220: 0f7d 883d 682a c13d b460 cebc 6390 57bd
00000230: 56e4 bebd 9960 8d3d 3628 973c 3e23 f0bb
00000240: cf5d 64bd 495b 8d3d d01c 8d3d acdb 85bd
00000250: c0ce eb3c 8633 133e 4e17 043e ea54 18bd
00000260: f006 463e bc19 4c3d daf4 31be 5c08 e83d
00000270: 69b1 19be 1f9f 68bd 8af7 01be 3178 31bc
00000280: 1512 da3d 3d00 a93c 21d7 24bd 9807 ce3d
00000290: 6b6e cfbc abc0 efbd d6af 1c3d 2032 ddbc
000002a0: c5ae 7f3d 248d 0e3e 964d 253e b049 cc3d
000002b0: 11d6 89bc 1904 fabb 9525 d23b 4473 4e3d
000002c0: 51ae 303c c4a1 93bd 9114 a2bd 9d40 63bc
000002d0: 1b46 a73c 268c acbd 6106 ed3c e525 963c
000002e0: bd7e 363c 4984 b73c de0e 1ebb 341a a3bd
000002f0: af32 e3bd 8a77 9cbd 98d7 f6bc 844b afbc
00000300: 1ac4 533e 83e4 483e d2d3 9cbd c052 a3bd
00000310: 9774 d6bd ebb9 1f3d ff8b 273e 412b aebd
00000320: 116a a63d dcaf 9d3d 74f8 9b3d abed cdbd
00000330: 25ca 26bc be50 ccbc 9b7b 763e cc98 6a3d
00000340: 5cd3 ba3d 2ca4 bbbc 6d75 073e b9ac 2c3c
00000350: 7cd2 983d e8c6 c53c 8432 21bd f167 c1bd
00000360: 6921 303e 41ae 90bd fa12 93bc 902d 283e
00000370: 0d82 10be b90e 18be 6d7d d83d 1c38 833d
00000380: af0f 823d 6452 9237 8652 aebb 101f 9b3d
00000390: 4d3d 84bc 1fbc 893c f77e c0bb dd7a d3bd
000003a0: ad5e bd3b 64d2 e63c 993c 0dbd 49b4 26be
000003b0: 8e8f 103e 11f7 0f3d fd61 d2bd 1332 0a3e
000003c0: 1488 b83d 1402 4c3d 5209 c1bc 86ec e83c
000003d0: dd2a 90bd 1a86 7abc 5ae7 f63c c230 063b
000003e0: 7e52 de3c d975 343c b8af dd3d 5e92 373c
000003f0: 1145 a63d bae4 473d 1fc5 283e af6d 29bc

network_body._body_endoder.seq_layers.2.bias f4 [128]
-0.0028492988 -0.0036637418 0.0013653253 0.0037413912 -0.0035842445 -0.0039875787 -0.0029642056 0.003632533
0.002657028 0.0039466894 0.0021847785 -0.0042038225 0.0015673148 -0.0039964654 0.0023037891 -0.0029425626
0.0024630765 -0.004200474 -0.0032294483 -0.0022076478 -0.004084347 -0.004632804 0.0032161286 -0.0030256629
0.004338831 -0.0019106452 0.004401767 -0.0051536574 -0.001386199 0.0034826936 -0.005039119 -0.003773641
-0.0015814152 0.003980303 -0.00011515035 0.004002269 0.0042095874 0.0031446824 -0.0041015884 0.0025533447
-0.0049904324 0.0038782544 -0.0017660919 -0.0037694243 0.005636156 0.00083831185 -0.0018053533 -0.0042674146
-0.0042683017 -0.0011582812 -0.003548563 -0.0042273374 -0.0033591469 0.002584464 0.0037985172 0.0034748663
-0.004264019 -0.0032155062 -0.0035138978 -0.0044837934 -0.0036589464 0.0036853428 0.0059905103 -0.0039221924
0.0053300983 -0.0040449933 0.0043425 -0.0042773006 0.0031727958 0.004420893 -0.0037000834 0.0011362545
-0.00406945 0.0043141823 -0.0023569986 0.003384232 0.0021318817 -0.0042766496 -0.0037675523 0.0021540646
0.0032996247 -0.0043994966 0.00093970535 -0.0030268044 -0.0004083868 -0.0033192888 -0.0041548507 0.0043215225
-0.003830289 0.0047221542 -0.003098234 0.0035968872 -0.004701349 0.0034553402 -0.0013902134 -0.001994897
0.0027563677 -0.0034189306 -0.0049150498 -0.0035629584 -0.0025903913 -0.0033763384 -0.00065935217 0.0033965812
-0.0020146808 -0.002314882 0.0008250215 -0.0033301227 0.004675308 -0.0042199586 0.0035295044 -0.004133342
-0.0006869577 0.0016918988 0.00408178 -0.0028217116 -0.005022321 -0.0008056949 0.002141993 0.005412274
-0.0006106621 -0.0046914043 0.0028236697 0.003917973 -0.0033835305 0.0026475363 0.0042066094 -0.002351797
00000000: 4dbb 3abb 631b 70bb b7f4 b23a 2132 753b
00000010: a5e5 6abb 3caa 82bb 1e43 42bb ca0f 6e3b
00000020: 8821 2e3b 3b53 813b 802e 0f3b 38c0 89bb
00000030: 5c6e cd3a c8f4 82bb 2bfb 163b 02d8 40bb
00000040: 916b 213b 21a4 89bb 27a5 53bb 2fae 10bb
00000050: fcd5 85bb c7ce 97bb afc5 523b 334a 46bb
00000060: c12c 8e3b 9d6e faba b33c 903b 03e0 a8bb
00000070: 1fb1 b5ba e73d 643b 321f a5bb 314f 77bb
00000080: 7d47 cfba 346d 823b e07c f1b8 7725 833b
00000090: 94f0 893b 0417 4e3b 9e66 86bb 0456 273b
000000a0: c886 a3bb 502a 7e3b 367c e7ba 7208 77bb
000000b0: 81af b83b 28c2 5b3a 9ba1 ecba abd5 8bbb
000000c0: 1cdd 8bbb 78d1 97ba 028f 68bb 7a85 8abb
000000d0: 2225 5cbb 1c60 293b 8bf0 783b 95ba 633b
000000e0: 2fb9 8bbb 3ebb 52bb 6c49 66bb c9ec 92bb
000000f0: efca 6fbb cb85 713b 0b4c c43b bc85 80bb
00000100: 1ba8 ae3b dd8b 84bb 884b 8e3b 9928 8cbb
00000110: aeee 4f3b 23dd 903b 197d 72bb 60ee 943a
00000120: 0559 85bb fc5d 8d3b e077 1abb fec9 5d3b
00000130: 0ab7 0b3b 2323 8cbb 0ae9 76bb 352b 0d3b
00000140: 843e 583b a729 90bb 8f56 763a 5a5d 46bb
00000150: c01c d6b9 6d88 59bb 6a25 88bb 8f9b 8d3b
00000160: 9605 7bbb 4dbc 9a3b be0b 4bbb c1b9 6b3b
00000170: c60d 9abb fd72 623b d237 b6ba d1bc 02bb
00000180: 2da4 343b 2310 60bb 6d0e a1bb 8680 69bb
00000190: 8ec3 29bb 8f45 5dbb 60d8 2cba 2d99 5e3b
000001a0: bc08 04bb 46b5 17bb 4146 583a 303e 5abb
000001b0: 5333 993b 9447 8abb 424f 673b fc70 87bb
000001c0: f314 34ba b4c2 dd3a 74c0 853b 77ec 38bb
000001d0: 4892 a4bb 4535 53ba ae60 0c3b 7259 b13b
000001e0: d714 20ba 5aba 99bb 510d 393b 5762 803b
000001f0: 39be 5dbb 4a82 2d3b 99d7 893b 9b20 1abb

action_model._continuous_distribution.log_sigma f4 [1, 2]
0.0018569934 0.006223051
00000000: 5c66 f33a bcea cb3b

action_model._continuous_distribution.mu.weight f4 [2, 128]
0.0068787597 0.0066832514 -0.018631538 0.0012486244 0.012973535 0.008154454 0.026234278 -0.009459629
-0.032162465 0.008321452 -0.0140754925 -0.031679444 -0.0031852464 -0.008358128 0.02406956 -0.022441855
-0.011670733 -0.00032472317 -0.010475508 -0.018435275 0.014919307 -0.01139859 -0.021593777 0.025951976
0.01682401 -0.016015511 0.028468374 -0.018887829 0.0059383227 -0.018229244 -0.0064490656 0.00036050717
0.0084614465 0.0052581164 0.012545499 -0.0027669875 0.016252164 -0.020776898 0.00039510665 -0.0069561866
-0.014593136 -0.010204185 -0.017115356 0.018674098 0.022121802 -0.02924345 -0.0134693 -0.024088966
-0.021957565 0.00085012906 0.0045285462 -0.0014183071 -0.007863602 -0.0059695565 -0.0036557955 -0.00028465403
0.0005892923 0.022894213 0.013080647 -0.006409477 0.0047890004 -0.0019220167 0.021445211 0.0023537416
0.03562813 0.0023407366 0.039722506 -0.03258923 -0.0023794482 0.00914827 -0.012945817 -0.004601199
0.008227713 0.04742124 -0.03497728 0.030831443 0.02268053 -0.0018136671 0.0038580138 -0.02671649
0.01716685 -0.0234901 -0.008018432 -0.009171629 0.019455403 0.008250771 -0.0047333795 0.004622139
0.010581434 0.02558897 -0.00079471554 0.006061567 -0.007550665 -0.0031254895 -0.0114661865 0.0035971084
-0.020880023 -0.001391949 -0.017119927 -0.0064685214 0.021308275 -0.008894712 0.030848581 -0.023919836
0.023536824 0.009110844 0.009117055 0.013804937 0.021152746 -0.0119197685 -0.005404227 -0.0019743405
-0.004428381 0.010190422 0.00925566 0.004120569 -0.020356199 0.01484759 -0.010582172 0.031205527
-0.0028583491 -0.004012709 -0.0122284945 0.0022541517 -0.021996006 0.00703599 0.022080215 0.0062355706
-0.019542344 -0.015352144 0.017863434 0.035294842 -0.017465722 -0.029329343 -0.015359335 0.043375533
0.014389048 -0.00023845394 0.012906836 -0.025628539 0.002174923 -0.023736114 0.0012110318 -0.0077478727
0.0036938589 -0.019111307 0.0031025338 -0.022170506 -0.0171465 -0.010566823 0.013986205 -0.02919691
0.009992199 -0.018132158 0.023265624 -0.017214945 -0.0039309277 0.021559399 -0.003488568 -0.02474267
-0.005762842 0.032994293 -0.0010953582 0.037706044 0.012372943 0.019593397 -0.025416056 0.02519005
0.004238726 0.043210316 -0.011194353 -0.011242227 -0.0036763211 0.0045322343 -0.01379974 -0.018300949
-0.004548233 0.003847969 -0.012888673 -0.043645848 -0.025078135 0.009701799 0.021208392 0.017403992
-0.021794645 -0.017109612 -0.011685087 -0.021846933 -0.042086918 0.015093659 0.0011046391 -0.022855744
0.007962645 -0.008971768 0.0111075165 -0.0079101855 0.014914595 0.008072618 -0.010631038 -0.005476252
-0.044420842 0.019751595 -0.005434327 -0.0020724277 -0.0049368157 -0.025163244 -0.020746816 0.0139019685
0.007134429 -0.0054905913 0.009876345 0.0053079543 -0.0013237331 -0.007586163 -0.010136333 0.010512848
-0.024998924 0.004517727 -0.010922264 0.0046477467 -0.0017000128 0.009904031 0.0005944104 -0.021645995
0.015102624 -0.009013844 -0.01375371 -0.012940829 -0.009753953 0.00067533075 0.00063747325 0.03613318
-0.005161632 -0.03371901 -0.001865899 -0.030644791 0.010292748 -0.009039234 0.0040912945 -0.019929765
-0.0029903632 0.00020752854 0.012562565 -0.0055600093 -0.0149451895 0.001825651 0.017062282 0.007749249
-0.0023703636 -0.0031764186 0.0018425139 0.002242494 -0.015988141 -0.004826302 0.026718467 -0.0074864435
00000000: 3867 e13b 2dff da3b 2ba1 98bc e2a8 a33a
00000010: f38e 543c 429a 053c 45e9 d63c 8ffc 1abc
00000020: cabc 03bd b356 083c e59c 66bc 4ec2 01bd
00000030: 91bf 50bb 88f0 08bc 872d c53c fbd7 b7bc
00000040: 9a36 3fbc 9b3f aab9 77a1 2bbc 9305 97bc
00000050: 1c70 743c 27c1 3abc 6fe5 b0bc 3d99 d43c
00000060: 82d2 893c f632 83bc 8236 e93c a6ba 9abc
00000070: 4396 c23b 7f55 95bc af52 d3bb 7402 bd39
00000080: e1a1 0a3c 474c ac3b a38b 4d3c 5956 35bb
00000090: 4223 853c 5034 aabc 5126 cf39 b9f0 e3bb
000000a0: 0c18 6fbc 742f 27bc 8135 8cbc 6cfa 983c
000000b0: c838 b53c f68f efbc 57ae 5cbc 3956 c5bc
000000c0: 5ae0 b3bc 32db 5e3a 3364 943b 7de6 b9ba
000000d0: 56d6 00bc 459c c3bb 1296 6fbb 9e3d 95b9
000000e0: bd7a 1a3a a58c bb3c 3650 563c 9706 d2bb
000000f0: 0ced 9c3b 2eec fbba dead af3c 3b41 1a3b
00000100: cdee 113d 0b67 193b 11b4 223d 497c 05bd
00000110: 84f0 1bbb a0e2 153c b11a 54bc a8c5 96bb
00000120: 88cd 063c c63c 423d 5644 0fbd 3992 fc3c
00000130: 85cc b93c 92b8 edba bbd6 7c3b 8adc dabc
00000140: 7ea1 8c3c 4f6e c0bc be5f 03bc 9a44 16bc
00000150: f060 9f3c 3e2e 073c 771a 9bbb 5075 973b
00000160: c05d 2d3c f69f d13c 7554 50ba 1ca0 c63b
00000170: 926b f7bb 03d5 4cbb acdc 3bbc 77bd 6b3b
00000180: 950c abbc 0f72 b6ba 173f 8cbc e4f5 d3bb
00000190: b18e ae3c 20bb 11bc 2ab6 fc3c 88f3 c3bc
000001a0: 4cd0 c03c a645 153c b35f 153c 1a2e 623c
000001b0: 8648 ad3c 224b 43bc f115 b1bb f063 01bb
000001c0: f41b 91bb baf5 263c 0da5 173c d705 873b
000001d0: 0bc2 a6bc 4e43 733c d960 2dbc bca2 ff3c
000001e0: 2453 3bbb 0b7d 83bb 065a 48bc 64ba 133b
000001f0: f830 b4bc 298e e63b 91e1 b43c c253 cc3b
00000200: 4417 a0bc 8f87 7bbc 5656 923c 5391 103d
00000210: 4614 8fbc 1744 f0bc b8a5 7bbc 8baa 313d
00000220: 0bc0 6b3c 7e09 7ab9 3277 533c f1f2 d1bc
00000230: 2789 0e3b 3d72 c2bc 7cbb 9e3a dee1 fdbb
00000240: ab14 723b 518f 9cbc e153 4b3b ec9e b5bc
00000250: d176 8cbc 7820 2dbc 6526 653c 5c2e efbc
00000260: 52b6 233c e489 94bc 8d97 be3c 5b06 8dbc
00000270: 03cf 80bb 569d b03c 75a0 64bb 24b1 cabc
00000280: 39d6 bcbb 0625 073d 1f92 8fba a771 1a3d
00000290: e2b7 4a3c 5582 a03c 5535 d0bc 5d5b ce3c
000002a0: 03e5 8a3b 4dfd 303d 8568 37bc 5131 38bc
000002b0: 6fee 70bb 2383 943b 4e18 62bc dfeb 95bc
000002c0: 5809 95bb 352e 7c3b 032b 53bc fdc5 32bd
000002d0: a970 cdbc 4bf4 1e3c 39bd ad3c d192 8e3c
000002e0: af8a b2bc 7529 8cbc cf72 3fbc 57f8 b2bc
000002f0: 5563 2cbd 654b 773c 8ac9 903a f83b bbbc
00000300: c175 023c 53fe 12bc 4dfc 353c b999 01bc
00000310: 585c 743c 0443 043c ce2d 2ebc 2272 b3bb
00000320: a1f2 35bd 19ce a13c 7012 b2bb 91d1 07bb
00000330: 03c5 a1bb 2623 cebc 3af5 a9bc 15c5 633c
00000340: eec7 e93b 6bea b3bb 65d0 213c 59ee ad3b
00000350: 1d81 adba 5995 f8bb dd12 26bc 153e 2c3c
00000360: 8bca ccbc 7109 943b 4cf3 32bc 204c 983b
00000370: f7d2 deba 8444 223c 35d2 1b3a f152 b1bc
00000380: ff70 773c cdae 13bc 3e57 61bc c505 54bc
00000390: 0bcf 1fbc ae08 313a 1b1c 273a 6300 143d
000003a0: e822 a9bb f21c 0abd 2e91 f4ba c90a fbbc
000003b0: eaa2 283c 4c19 14bc 4410 863b bf43 a3bc
000003c0: f8f9 43bb 059c 5939 37d3 4d3c bd30 b6bb
000003d0: abdc 74bc af4a ef3a 33c6 8b3c 6aed fd3b
000003e0: 1a58 1bbb 762b 50bb 8280 f13a cef6 123b
000003f0: 90f9 82bc f525 9ebb b0e0 da3c d750 f5bb

action_model._continuous_distribution.mu.bias f4 [2]
0.0025775002 0.004003006
00000000: 47eb 283b a62b 833b

action_model._discrete_distribution.branches.0.weight f4 [2, 128]
-0.003758676 -0.0023200845 0.008011502 0.0059762914 0.0021059522 0.0062155244 -0.004164067 -0.005428586
-0.021540519 -0.012447046 0.016170386 -0.005859444 0.016445344 0.0015720731 -0.0049249595 0.009511587
-0.0033625697 0.0028401185 -0.0024113415 0.014682551 0.0026458749 -0.004109924 -0.004112846 -0.010121275
0.00052071374 -0.0015403954 0.021057501 0.013673626 -0.009427745 -0.011242605 0.0031505749 0.0054227766
-0.019805215 -0.005124926 0.00475714 -0.005647243 -0.0022372948 -0.019460415 -0.017910903 -0.0052800556
-0.0057526585 0.011328067 0.0020786456 -0.003922675 0.008322931 0.012068324 -0.004545811 -0.00025260443
-0.0010149141 0.012294293 0.0035414603 -0.00239721 -0.012605543 0.005129738 -0.0057446454 -0.012606537
-0.0023164973 0.007885281 0.0023423736 0.002896301 -0.0022515443 0.02074649 -0.0029928095 0.013230079
-0.005449737 -0.0056647197 0.0023338068 0.0049449787 -0.004817429 0.013868559 -0.008586062 -0.0024468235
0.012584263 0.009068937 -0.0036259114 0.012143461 0.0037211587 -0.006708621 0.007800543 0.0037497156
-0.011653538 -0.002439497 0.018587692 -0.012253562 -0.008558717 -0.009345883 -0.010048499 0.004402508
-0.0016474025 0.0101918215 0.020438613 -0.003738603 -0.0017454247 0.0053952606 -0.004300013 0.011104964
0.013152465 -0.008407594 0.0021274784 -0.0035915375 -0.0083680125 0.011323114 0.0012044931 0.004014117
0.009963581 -0.0052363393 -0.017898167 0.011902128 0.0014756109 0.006356213 0.008810847 0.010764942
0.01990469 -0.000505319 -0.002224803 0.0029306582 0.010465915 -0.008820358 0.0044668913 -0.010227872
0.01629679 -0.010005847 -0.027072191 -0.0023551905 -0.0051927096 -0.010495368 -0.009960794 0.012847424
0.007675163 -0.009868332 -0.0027202505 -0.013388186 0.00049130805 -0.010845847 -0.014250148 -0.008253154
0.0043926365 -0.007613966 0.004237967 0.014684684 0.005130216 0.0019906177 -0.0016329918 -0.00748347
-0.0020144496 0.014238143 -0.008202364 -0.008887447 0.009766844 0.0029358785 0.0010546268 0.00018716483
-0.004323225 0.0206491 0.0038702246 -0.008132453 0.004723243 0.0014151242 0.015969088 0.011967655
-0.012168971 0.00039570435 0.0037584326 -0.01036184 0.00013327609 0.009417723 0.0023894133 0.011356287
-0.014383384 -0.0028635866 0.0064007235 -0.0028239556 -0.0010985407 -0.00034566366 -0.015538666 0.0037829818
-0.008613974 -0.0007666496 0.0024397767 -0.0030456034 0.0030679274 -0.0155692855 -0.018570617 0.006581239
-0.003312363 -0.0013079732 -0.0073086307 0.0048849676 0.004247717 -0.0090909 -0.0047636093 -0.0120460205
-0.012063885 0.008851823 -0.009694461 0.0151867075 -0.0057307556 -0.001779516 0.005490474 0.0075423988
0.008592266 -0.0056568123 0.002101675 0.0062923296 0.005138392 0.008270918 0.0012928138 -0.005969345
-0.008186502 0.007919094 0.0039495397 0.014863199 -0.0119178975 0.0017747905 0.01069717 0.0030680974
-0.0013432932 -0.016055614 0.0001889096 -0.006270232 0.00365528 -0.010237718 -0.00037825224 -0.0017828208
-0.011008433 -0.0057762614 0.0022450339 0.0035686982 -0.003135799 -0.0011499813 0.0005299361 -0.00030793966
-4.542257e-05 0.006501256 0.017524296 -0.006152982 -0.016353676 -0.008230151 0.0048626997 0.0017744612
-0.008885391 0.0056720213 -0.0038414344 -0.0023502 0.018150916 0.0103547815 0.006193089 -0.0028524888
-0.013101973 -0.011444828 -0.0031328625 -0.0069757504 0.0114527205 0.0002999031 0.009499269 -0.0020875293
00000000: 1e54 76bb 8f0c 18bb ad42 033c c4d4 c33b
00000010: 0404 0a3b 99ab cb3b ba72 88bb 48e2 b1bb
00000020: be75 b0bc b2ee 4bbc c277 843c 9400 c0bb
00000030: 63b8 863c 050e ce3a 8e61 a1bb 7dd6 1b3c
00000040: 8f5e 5cbb 4821 3a3b 9907 1ebb 158f 703c
00000050: 6a66 2d3b 8bac 86bb 0ec5 86bb b4d3 25bc
00000060: 8280 083a 18e7 c9ba c880 ac3c 5807 603c
00000070: d476 1abc e732 38bc e079 4e3b 8cb1 b13b
00000080: 8c3e a2bc ffee a7bb c8e1 9b3b 820c b9bb
00000090: 949f 12bb 736b 9fbc e3b9 92bc 5104 adbb
000000a0: cc80 bcbb 5b99 393c e339 083b c889 80bb
000000b0: e75c 083c 38ba 453c 07f5 94bb fe6f 84b9
000000c0: de06 85ba 016e 493c d817 683b 831a 1dbb
000000d0: 7b87 4ebc 5c17 a83b 943d bcbb a68b 4ebc
000000e0: 60d0 17bb 4431 013c 8282 193b decf 3d3b
000000f0: a58e 13bb 8bf4 a93c 0323 44bb f9c2 583c
00000100: b593 b2bb 1d9f b9bb c8f2 183b 7d09 a23b
00000110: 86db 9dbb f438 633c 8eac 0cbc e35a 20bb
00000120: 3a2e 4e3c e195 143c b3a0 6dbb 5ef5 463c
00000130: afde 733b fed3 dbbb b39b ff3b cabd 753b
00000140: 7bee 3ebc f8df 1fbb 3745 983c 2ac3 48bc
00000150: dc39 0cbc 791f 19bc 76a2 24bc ea42 903b
00000160: a8ed d7ba 99fb 263c e16e a73c 5a03 75bb
00000170: bcc6 e4ba baca b03b 20e7 8cbb 98f1 353c
00000180: 707d 573c 01c0 09bc 2a6d 0b3b 0060 6bbb
00000190: fd19 09bc 9584 393c 15e0 9d3a db88 833b
000001a0: 4a3e 233c 9995 abbb 2d9f 92bc 2501 433c
000001b0: 4969 c13a c747 d03b 5f5b 103c 705f 303c
000001c0: 290f a33c 6277 04ba 00ce 11bb 4910 403b
000001d0: 3b79 2b3c 4383 10bc 005f 923b ce92 27bc
000001e0: d980 853c 90ef 23bc 80c6 ddbc 8a59 1abb
000001f0: 9b27 aabb c4f4 2bbc 9932 23bc 007e 523c
00000200: ef7f fb3b c9ae 21bc 3b46 32bb 1f5a 5bbc
00000210: 20cb 003a c8b2 31bc 7479 69bc 3d38 07bc
00000220: 1bf0 8f3b 937e f9bb a5de 8a3b 0798 703c
00000230: 5f1b a83b 0675 023b 1d0a d6ba e537 f5bb
00000240: db04 04bb 1a47 693c 3563 06bc a89c 11bc
00000250: 1d05 203c de67 403b 673b 8a3a ad41 4439
00000260: d7a9 8dbb 4d28 a93c 98a3 7d3b fb3d 05bc
00000270: 6fc5 9a3b b07b b93a 9bd1 823c fc13 443c
00000280: 5d60 47bc 8a76 cf39 0950 763b b5c4 29bc
00000290: 07c0 0b39 cb4c 1a3c b497 1c3b b80f 3a3c
000002a0: 49a8 6bbc 03ab 3bbb 29bd d13b 1d12 39bb
000002b0: e9fc 8fba 313a b5b9 e495 7ebc e7eb 773b
000002c0: a021 0dbc fcf8 48ba a9e4 1f3b bf98 47bb
000002d0: 480f 493b 5116 7fbc 6821 98bc 6fa7 d73b
000002e0: 3b14 59bb 4c70 abba 3d7d efbb 1412 a03b
000002f0: 6f30 8b3b 00f2 14bc 0d18 9cbb ac5c 45bc
00000300: 9aa7 45bc 3d07 113c 84d5 1ebc abd1 783c
00000310: 10c9 bbbb a63e e9ba 6fe9 b33b 3a26 f73b
00000320: 93c6 0c3c c85c b9bb 41bc 093b e32f ce3b
00000330: f55f a83b bf82 073c a273 a93a 7f9a c3bb
00000340: ae20 06bc 16bf 013c 246b 813b c684 733c
00000350: 4943 43bc 16a0 e83a 2f43 2f3c 2212 493b
00000360: 7111 b0ba 1087 83bc 0916 4639 8576 cdbb
00000370: 6c8d 6f3b 1abc 27bc 2850 c6b9 8aad e9ba
00000380: b75c 34bc cb46 bdbb 6b21 133b d2e0 693b
00000390: fa81 4dbb f8ba 96ba 69eb 0a3a f672 a1b9
000003a0: 1d84 3eb8 7d08 d53b 1d8f 8f3c f49e c9bb
000003b0: 25f8 85bc c1d7 06bc 4857 9f3b 0a95 e83a
000003c0: 0894 11bc 5ddc b93b 93c0 7bbb d005 1abb
000003d0: 3bb1 943c 1aa7 293c 65ef ca3b d2f0 3abb
000003e0: a8a9 56bc 1683 3bbc b650 4dbb d694 e4bb
000003f0: 31a4 3b3c 503c 9d39 d2a2 1b3c eece 08bb

action_model._discrete_distribution.branches.0.bias f4 [2]
-0.00070547475 0.0007054749
00000000: 9cef 38ba 9eef 383a

exp_avg f4 [128, 6]
-4.9655806e-05 5.9446044e-09 -1.5983387e-05 -1.8369854e-05 -7.5740985e-08 1.8653332e-06 9.197317e-05 4.7339217e-08
-2.4219271e-05 0.00014393809 -3.3505742e-07 -1.3943562e-05 -4.6461042e-05 3.5997736e-08 0.00010138899 4.3001273e-05
5.6400467e-08 -4.429287e-06 -4.161379e-07 -1.0297241e-08 -1.9407398e-05 -2.1837175e-05 -9.0243235e-09 2.1072888e-06
8.5921765e-06 1.3841782e-09 3.590587e-05 -2.9779392e-05 4.893731e-08 2.814028e-06 5.4404854e-06 -5.6324395e-10
-8.97741e-06 7.785683e-06 -5.805113e-09 -7.5933906e-07 1.0612729e-05 2.6135524e-08 -4.5186698e-05 0.00011779414
-3.3051094e-08 -1.1339717e-05 8.902879e-05 9.335058e-10 -2.5525114e-06 -5.9602622e-05 -1.9163431e-07 5.753789e-06
2.3352524e-05 -1.0032945e-08 -3.44346e-05 -2.4274386e-05 1.772946e-08 2.369413e-06 -6.905033e-05 5.395544e-08
0.0001173354 9.629383e-05 -3.601614e-08 -9.465916e-06 -6.125618e-05 1.6857117e-08 4.434823e-05 4.102414e-05
-3.1579468e-08 -3.9597357e-06 -0.00010605845 5.354698e-08 0.00017930625 5.535797e-05 -1.5724844e-08 -5.4820252e-06
-4.2467058e-05 5.2695782e-08 0.00012228747 6.8660345e-05 8.7796685e-08 -6.6043262e-06 -2.7470267e-05 2.9625906e-09
5.084279e-05 -2.569143e-05 -1.4607051e-08 2.4677577e-06 -0.0001507114 4.363002e-08 0.000177891 -3.6724632e-05
-1.4615686e-07 3.6244862e-06 -3.156411e-05 -1.0790215e-09 9.4937146e-05 -5.7428108e-05 1.08233706e-07 5.487968e-06
-5.547859e-05 1.2862934e-08 3.825439e-05 -1.3922401e-05 -1.5173066e-08 1.3894919e-06 0.0001740337 -1.1250167e-08
-3.7906e-05 -1.2307147e-05 9.982166e-08 1.0548694e-06 2.1741478e-05 1.2817358e-08 -0.00010409602 0.00015041411
6.601126e-08 -1.4356823e-05 1.0712103e-05 -2.2646125e-08 -1.6004831e-05 -9.171841e-05 1.5849459e-08 8.807533e-06
4.52437e-06 3.9086604e-08 7.225901e-05 9.368006e-05 4.168637e-08 -9.079866e-06 -1.0548294e-05 3.9185055e-09
-4.219461e-06 5.4195665e-05 1.12291794e-07 -5.4522848e-06 -1.8958452e-05 2.3451279e-09 -4.1918647e-06 1.0147903e-05
-1.6109265e-08 -9.726439e-07 1.2544195e-05 -3.2359584e-10 -7.923669e-05 5.5765468e-05 1.2370003e-07 -5.4477564e-06
0.0001323988 9.503755e-09 -0.00018319082 0.00013106222 -1.3089709e-07 -1.2631768e-05 6.183207e-05 1.5880108e-08
-7.876018e-05 7.3243595e-05 -6.3295914e-08 -7.0973765e-06 -0.0001358282 1.7010248e-09 7.461731e-05 -6.69e-05
-5.9659335e-08 6.546318e-06 0.0001014281 6.77653e-09 -8.520945e-05 -3.9889776e-05 -9.071326e-08 3.8715757e-06
-5.1923973e-05 6.7272183e-09 -2.2226684e-05 -2.5004358e-06 -3.9721513e-08 2.1675831e-07 7.119768e-05 -3.3841687e-09
-4.8415706e-05 -1.8013661e-05 -2.2754655e-07 1.5072166e-06 -1.36328035e-05 1.0280994e-09 7.862174e-06 -5.509924e-06
3.4410716e-09 5.450462e-07 -0.00021905091 4.3019323e-08 0.00014178867 3.417987e-05 5.2877855e-08 -3.390871e-06
-1.0586828e-05 -1.06456595e-08 -0.00011957676 4.6886453e-05 -7.036283e-08 -4.4565872e-06 -8.691085e-05 3.2538086e-09
-3.9902e-05 5.35725e-05 -1.3530985e-07 -5.1353177e-06 9.4715135e-05 5.4791682e-09 4.5092667e-05 -5.8348942e-05
-1.5969306e-07 5.5957307e-06 -0.0002201219 1.520448e-08 0.00025595407 -6.925149e-05 1.7115217e-07 6.421964e-06
0.00018003471 -3.2167018e-09 -0.00018619704 2.0870018e-06 -2.76724e-07 -2.7026596e-08 -1.0541941e-05 -2.2614897e-08
-3.3417447e-05 -5.9468795e-05 5.6247167e-08 5.77824e-06 -7.093511e-06 -1.4114904e-08 -2.9256425e-06 -4.520321e-05
4.8688037e-08 4.3458567e-06 -5.6103105e-05 2.4503063e-11 -3.2280688e-05 -4.824584e-05 -1.09324034e-07 4.826531e-06
-1.8067032e-05 2.5413323e-09 1.43049965e-05 1.0188449e-05 4.6378585e-08 -9.923648e-07 -3.4508554e-05 -8.633969e-09
7.4724658e-06 -5.6518384e-05 2.9128236e-08 5.489592e-06 2.1256403e-05 -4.0392514e-08 -0.00013875426 9.249722e-05
00000000: 8445 50b8 4b41 cc31 1014 86b7 f618 9ab7
00000010: 0ca7 a2b3 5c5c fa35 b8e1 c038 0552 4b33
00000020: 7d2a cbb7 16ee 1639 f1e1 b3b4 25ef 69b7
00000030: 2adf 42b8 ee9b 1a33 cda0 d438 445c 3438
00000040: f83c 7233 499f 94b6 8f69 dfb4 bfe7 30b2
00000050: 12cd a2b7 fa2e b7b7 6509 1bb2 f26a 0d36
00000060: 1e27 1037 713d be30 a299 1638 c2ce f9b7
00000070: 242f 5233 a2d8 3c36 6a8d b636 c5d2 1ab0
00000080: af9d 16b7 419f 0237 5076 c7b1 62d5 4bb5
00000090: 530d 3237 a080 e032 d986 3db8 3f08 f738
000000a0: 10f4 0db3 b73f 3eb7 f8b4 ba38 d14c 8030
000000b0: d04b 2bb6 d4fd 79b8 0ac4 4db4 ac10 c136
000000c0: 2ae5 c337 5c5d 2cb2 df6d 10b8 d9a0 cbb7
000000d0: 7f4b 9832 3502 1f36 1dcf 90b8 a2bc 6733
000000e0: f711 f638 5bf1 c938 2ab0 1ab3 cdcf 1eb7
000000f0: a976 80b8 31cd 9032 8d02 3a38 5611 2c38
00000100: fea1 07b3 dfdd 84b6 b26b deb8 87fb 6533
00000110: 2804 3c39 2b30 6838 4c13 87b2 3df2 b7b6
00000120: a81e 32b8 a053 6233 4b3a 0039 befd 8f38
00000130: bd8a bc33 bb9a ddb6 f36f e6b7 7296 4b31
00000140: 0840 5538 ed83 d7b7 7df2 7ab2 c19b 2536
00000150: 4908 1eb9 b763 3b33 4088 3a39 c608 1ab8
00000160: 4bef 1cb4 333c 7336 b463 04b8 b24c 94b0
00000170: fe18 c738 f6de 70b8 1c6e e833 4925 b836
00000180: afb1 68b8 c8fb 5c32 5773 2038 4294 69b7
00000190: ed55 82b2 947e ba35 d17c 3639 c246 41b2
000001a0: 42fd 1eb8 cb7a 4eb7 8a5d d633 0995 8d35
000001b0: 7861 b637 5633 5c32 204e dab8 7bb8 1d39
000001c0: 13c2 8d33 16de 70b7 22b8 3337 5b87 c2b2
000001d0: 1d42 86b7 f258 c0b8 5425 8832 11c4 1337
000001e0: 0bd0 9736 2de0 2733 c389 9738 1976 c438
000001f0: a60a 3333 ba55 18b7 94f8 30b7 8aa3 8631
00000200: e594 8db6 2750 6338 1125 f133 c5f2 b6b6
00000210: f708 9fb7 ed27 2131 d8a7 8cb6 e940 2a37
00000220: a660 8ab2 ca8b 82b5 e874 5237 11e6 b1af
00000230: e02b a6b8 b7e5 6938 68d2 0434 dfcb b6b6
00000240: 88d4 0a39 f545 2332 e916 40b9 bf6d 0939
00000250: b88c 0cb4 08ed 53b7 d7ab 8138 ba68 8832
00000260: 0d2c a5b8 5b9a 9938 4ced 87b3 0026 eeb6
00000270: 1b6d 0eb9 7dc9 e930 dd7b 9c38 aa4c 8cb8
00000280: 111e 80b3 72a8 db36 ccb5 d438 fdd6 e831
00000290: 7ab2 b2b8 524f 27b8 24ce c2b3 95e8 8136
000002a0: f1c8 59b8 3d25 e731 7173 bab7 29cd 27b6
000002b0: 449a 2ab3 12be 6834 f74f 9538 ed8e 68b1
000002c0: f811 4bb8 0b1c 97b7 8553 74b4 914b ca35
000002d0: 72b8 64b7 084d 8d30 c8e7 0337 e3e1 b8b6
000002e0: f977 6c31 4a4f 1235 08b1 65b9 3fc4 3833
000002f0: 1bad 1439 5b5c 0f38 d11b 6333 b88e 63b6
00000300: 149e 31b7 1be4 36b2 49c5 fab8 f2a7 4438
00000310: 601a 97b3 cb89 95b6 e843 b6b8 9b99 5f31
00000320: 725c 27b8 09b3 6038 b049 11b4 0b50 acb6
00000330: cda1 c638 4643 bc31 e221 3d38 b3bb 74b8
00000340: 1878 2bb4 f6c2 bb36 86d0 66b9 019b 8232
00000350: 9331 8639 1c3b 91b8 f3c5 3734 407c d736
00000360: b3c7 3c39 d10c 5db1 e33d 43b9 6b0e 0c36
00000370: a890 94b4 1d28 e8b2 4bdd 30b7 af42 c2b2
00000380: b629 0cb8 226e 79b8 6a94 7133 b4e2 c136
00000390: cc04 eeb6 017e 72b2 2856 44b6 9498 3db8
000003a0: 101d 5133 a0d2 9136 4050 6bb8 fe87 d72d
000003b0: 2065 07b8 945b 4ab8 86c5 eab3 96f3 a136
000003c0: a88e 97b7 97a3 2e31 7eff 6f37 0eef 2a37
000003d0: cb31 4733 6531 85b5 47bd 10b8 9954 14b2
000003e0: febb fa36 270e 6db8 ab35 fa32 3c33 b836
000003f0: c74f b237 0a7c 2db3 907e 11b9 11fb c138

exp_avg_sq f4 [128, 6]
1.9135145e-10 1.4275124e-16 2.6637662e-10 1.2283292e-09 1.6839599e-15 1.1789964e-11 1.7568597e-08 1.2942522e-15
1.392689e-08 4.9938613e-09 1.5641465e-14 4.7562076e-11 1.9380922e-08 4.276282e-16 2.6716977e-08 4.6995914e-09
7.50536e-15 4.6142062e-11 3.1091865e-10 1.7875457e-17 1.509424e-10 1.1501036e-10 1.3764181e-16 1.082882e-12
3.4381307e-09 3.69733e-17 5.075687e-09 7.2096656e-10 8.637392e-16 7.1221453e-12 3.9390324e-11 1.0344102e-18
4.7490872e-11 2.5946854e-11 2.1772322e-17 2.4750414e-13 4.224686e-10 4.044945e-16 1.1888489e-09 2.0373983e-09
3.0496225e-15 1.933557e-11 2.9430389e-08 6.1422875e-16 2.6902725e-08 4.4358104e-09 1.3134236e-14 4.2649044e-11
1.8435806e-10 3.9246253e-17 2.8782238e-10 2.7605226e-10 4.0875192e-16 2.6264887e-12 1.0240609e-08 6.07377e-16
1.2061373e-08 3.3500718e-09 6.9462622e-15 3.2463105e-11 6.426358e-10 1.517113e-16 6.317531e-10 1.5174902e-09
2.2264223e-15 1.4493625e-11 1.4461748e-08 4.506892e-16 2.0067946e-08 5.365865e-09 5.6934755e-15 5.1199975e-11
8.516993e-09 1.3749379e-15 1.0628218e-08 2.4429653e-08 2.1257884e-14 2.3065419e-10 2.8699484e-10 5.984053e-17
3.130478e-10 4.458571e-10 6.836819e-16 4.256214e-12 5.198654e-09 5.8515836e-16 2.964718e-09 3.477887e-09
7.811198e-15 3.2998368e-11 7.622445e-10 1.1800355e-17 2.640306e-09 4.3994505e-10 1.1146637e-15 4.1985885e-12
8.022211e-10 5.1586858e-17 1.6311179e-09 1.4256553e-09 1.130152e-15 1.35646884e-11 5.0238324e-08 5.5660907e-16
5.370684e-08 8.721621e-09 2.4731648e-14 8.401194e-11 2.4558206e-08 9.128045e-16 2.997661e-08 5.600455e-09
1.3873051e-14 5.4154046e-11 1.04697016e-08 3.4654492e-16 1.2629251e-08 2.6598057e-09 5.734458e-15 2.5739666e-11
1.2020175e-09 5.4458115e-16 7.4441026e-10 6.9617765e-09 6.698344e-15 6.584821e-11 2.3964322e-08 2.1800229e-16
2.4169209e-08 4.229771e-09 8.964013e-15 4.057874e-11 3.993207e-11 3.2038852e-18 2.288875e-11 7.2177334e-11
9.2474445e-17 6.905642e-13 2.5473579e-08 8.158859e-16 2.6061276e-08 9.981645e-09 1.4855838e-14 9.4820436e-11
8.492036e-09 7.894285e-17 1.2255296e-08 2.3696567e-09 2.1413497e-15 2.2960179e-11 5.3722453e-09 7.182074e-17
5.466204e-09 8.0010454e-10 1.4498426e-15 7.764079e-12 2.5164095e-09 4.1393386e-16 1.1147488e-09 5.470641e-09
7.903072e-15 5.1605418e-11 2.6186486e-08 7.834013e-17 2.163319e-08 4.035435e-09 7.301971e-15 3.899151e-11
9.181448e-09 8.248878e-17 1.0662463e-08 1.5018764e-09 2.6998407e-15 1.4613519e-11 3.263044e-08 1.1891982e-15
3.456163e-08 4.1147317e-09 1.885147e-14 3.8744334e-11 4.1856928e-11 3.9630914e-18 6.2354e-11 3.1704972e-11
3.465245e-17 3.03036e-13 2.014458e-08 4.1874916e-16 2.0685277e-08 1.31768525e-08 1.3565506e-14 1.2510877e-10
8.177125e-10 3.355505e-17 4.0064356e-09 1.5098374e-09 1.8802198e-15 1.4323596e-11 1.638954e-09 7.774027e-17
4.379747e-09 1.0955522e-09 2.464515e-15 1.045774e-11 4.4618996e-08 1.2924231e-15 3.9667555e-08 9.789518e-09
2.8738916e-14 9.2719554e-11 1.8136129e-08 3.4866213e-16 2.2505063e-08 3.6133205e-09 6.4865364e-15 3.5172535e-11
1.7874356e-08 1.365224e-16 2.1685862e-08 3.9530828e-09 1.6379783e-14 3.7015294e-11 3.3071876e-10 2.404364e-16
3.4367034e-10 1.1335606e-09 2.1030178e-15 1.08179255e-11 1.7642829e-10 1.5259906e-16 1.0689132e-10 3.8535564e-10
1.0341016e-15 3.657485e-12 3.1041314e-10 1.3838935e-16 3.9262957e-09 2.2401805e-09 4.0994383e-15 2.1344761e-11
7.7633033e-10 7.3483907e-17 9.754372e-10 1.3036958e-09 1.6861938e-15 1.2321784e-11 6.7411215e-10 4.019448e-17
6.4780864e-10 5.409858e-10 7.3998265e-16 5.1729467e-12 7.610524e-08 1.5855197e-15 6.12862e-08 1.5438161e-08
00000000: a564 522f bb94 2425 2d71 922f fed1 a830
00000010: 28af f226 4769 4f2d c1e9 9632 7a85 ba26
00000020: 1c43 6f32 7896 ab31 c3e2 8c28 232e 512e
00000030: 197b a632 c982 f625 417f e532 0b7a a131
00000040: 5d34 0728 58ef 4a2e e9ed aa2f 3bdf a423
00000050: 82f6 252f 14e9 fc2e b1b0 1e25 f066 982b
00000060: 3c44 6c31 5e82 2a24 3766 ae31 832d 4630
00000070: b4f4 7826 9596 fa2c 903d 2d2e eaa6 9821
00000080: f8dd 502e 1f3b e42d 71d0 c823 1b55 8b2a
00000090: 2b41 e82f da2c e925 e764 a330 4a02 0c31
000000a0: 9bbf 5b27 d513 aa2d 1cce fc32 150a 3126
000000b0: b817 e732 cd69 9831 f99a 6c28 8e92 3b2e
000000c0: 2eb4 4a2f ccfd 3424 663b 9e2f e7c2 972f
000000d0: 23a1 eb25 9dd2 382c adee 2f32 8310 2f26
000000e0: 7b36 4f32 1637 6631 f643 fa27 35c6 0e2e
000000f0: 79a5 3030 46e9 2e25 aca7 2d30 f18f d030
00000100: 3e6e 2027 7cf9 7e2d 7173 7832 fee6 0126
00000110: e161 ac32 a65e b831 0b21 cd27 0c2e 612e
00000120: 2252 1232 4126 c626 6697 3632 60d9 d132
00000130: 5879 bf28 629b 7d2f efc6 9d2f 9dfb 8924
00000140: 9019 ac2f cf1c f52f d20e 4526 91c0 952c
00000150: d89f b231 11a9 2826 dfbb 4b31 a3ff 6e31
00000160: cbb6 0c28 dc20 112e 3086 5130 9aad 5923
00000170: c170 3531 c3dc f12f d5a3 a026 86b9 932c
00000180: 4b83 5c30 03e7 6d24 dc2d e030 c9f0 c330
00000190: 40df a226 eda1 6e2d 9fc5 5733 806e 2026
000001a0: 4cab 6633 18d6 1532 4cc3 de28 85be b82e
000001b0: 11f4 d232 8b8c 8326 a2bf 0033 206e c031
000001c0: 28ea 7928 092c 6e2e 3cde 3332 01c5 c725
000001d0: 09f8 5832 ccc7 3631 0a9b ce27 9368 e22d
000001e0: 3b34 a530 fff6 1c26 379f 4c30 6f34 ef31
000001f0: 5255 f127 3fcd 902e 1ada cd32 eb56 7b25
00000200: a79c cf32 7655 9131 377b 2128 9977 322e
00000210: 849f 2f2e ae67 6c22 e254 c92d 3ab8 9e2e
00000220: 473b d524 6560 422b fed0 da32 c129 6b26
00000230: 5add df32 bd7b 2b32 3bcf 8528 2983 d02e
00000240: 5fe4 1132 a207 b624 5d8b 5232 71d7 2231
00000250: ee4c 1a27 baf5 c92d c596 b831 7b9b a524
00000260: 3dd1 bb31 5aee 5b30 c0f1 d026 4e96 082d
00000270: 25ed 2c31 db9d ee25 bd35 9930 44f8 bb31
00000280: 7d5e 0e28 89f6 622e b1f0 e032 daa3 b424
00000290: e3d3 b932 10a8 8a31 668a 0328 8a7c 2b2e
000002a0: 6fbc 1d32 c834 be24 022e 3732 946a ce30
000002b0: 458b 4227 b88a 802d 8c25 0c33 ab61 ab26
000002c0: ea70 1433 9061 8d31 88cc a928 3e66 2a2e
000002d0: b616 382e 5736 9222 2e1e 892e a070 0b2e
000002e0: 64ce 1f24 1798 aa2a 660a ad32 7864 f125
000002f0: 68af b132 6960 6232 db5f 7428 fd8e 092f
00000300: 67c5 6030 d0be 1a24 fba8 8931 ae82 cf30
00000310: ef7b 0727 befb 7b2d 9141 e130 c141 b324
00000320: a97c 9631 5192 9630 4796 3127 79f9 372d
00000330: 1ba3 3f33 ff41 ba26 f05e 2a33 c12e 2832
00000340: b76d 0129 78e4 cb2e c5c9 9b32 73fd c825
00000350: 2851 c132 354e 7831 bdb3 e927 c1b0 1a2e
00000360: 208a 9932 4d66 1d25 b747 ba32 afd3 8731
00000370: 3589 9328 84cb 222e 87d0 b52f 269a 8a25
00000380: 4def bc2f 9ecb 9b30 d589 1727 9b4f 3e2d
00000390: 26fc 412f 4bef 2f25 770e eb2e fcd9 d32f
000003a0: 9d07 9526 b2af 802c c4a6 aa2f 548d 1f25
000003b0: 10e8 8631 acf1 1931 a5b2 9327 21c0 bb2d
000003c0: 6465 5530 3e71 a924 2510 8630 b82d b330
000003d0: 9201 f326 62c4 582d 6d4c 3930 445d 3924
000003e0: 7b11 3230 7eb4 1430 1549 5526 c301 b62c
000003f0: 4c6f a333 5a7f e426 729c 8333 e09c 8432

exp_avg f4 [128]
-6.06781e-06 4.71074e-05 1.4283326e-05 -7.10338e-06 -9.64889e-06 2.529059e-06 3.8285947e-05 -1.9191213e-05
-7.950354e-06 3.1604843e-05 1.3482338e-05 1.830589e-05 2.251129e-05 -8.2829465e-06 -1.1819772e-05 -1.8624622e-05
-4.455123e-06 -3.8019857e-06 4.8726495e-05 -2.9798002e-05 3.0484925e-05 1.7730186e-05 3.3052165e-06 1.8171271e-05
4.2594194e-05 2.3789054e-05 -2.1744785e-05 -1.2994026e-05 -7.775614e-07 -5.636386e-06 -1.7886415e-06 1.1454275e-05
1.5155998e-05 1.749959e-05 -1.8867093e-05 -2.2152948e-05 6.2734944e-07 -1.9507776e-05 -1.4832277e-05 -1.571414e-05
3.3027418e-06 -1.8389394e-05 2.9726996e-05 -2.0778489e-05 3.2808824e-05 1.7876242e-05 7.489608e-07 -1.2323364e-05
-7.487409e-06 5.0388153e-05 -3.8497317e-05 2.48538e-05 -9.831043e-06 1.7463939e-05 1.1435882e-05 -1.978141e-05
2.0445339e-06 1.11366135e-05 1.3712667e-05 4.021153e-06 3.905393e-05 -4.1056115e-05 1.0653372e-05 3.2518357e-05
-1.21781e-05 -7.8592956e-07 2.6796291e-05 -9.447763e-07 -5.0945204e-05 -1.903382e-05 2.9746177e-05 -4.6275727e-05
-1.25347e-05 -2.169594e-05 4.7953014e-05 2.6276002e-06 5.4363427e-05 -1.1675202e-05 -2.5496985e-05 2.797908e-07
-1.2664377e-05 4.481766e-06 1.4794391e-05 -8.137796e-06 2.0598687e-05 1.3081282e-06 4.1782467e-05 -2.596799e-06
4.1424384e-05 -5.6361212e-05 9.2391235e-07 -5.596844e-07 -5.4004836e-06 -4.113282e-05 5.9261765e-05 -1.1669676e-06
7.563782e-05 8.105743e-05 2.0875967e-05 -7.879789e-05 2.6122694e-05 -1.3241886e-05 -6.5079653e-06 4.7418576e-05
2.0131567e-05 7.768723e-06 4.783538e-07 9.942067e-08 -4.846904e-06 -1.3807578e-05 1.1615915e-05 7.472638e-06
2.5120697e-05 2.5053105e-05 -3.5917103e-05 9.209066e-06 6.5411195e-06 6.9363755e-06 9.849441e-06 1.3932427e-05
-2.2840989e-06 2.4004814e-05 -1.6008806e-05 -4.2831314e-05 -2.8885705e-07 2.0521036e-05 6.704772e-06 2.084769e-05
00000000: 179a cbb6 3095 4538 6ba2 6f37 9259 eeb6
00000010: abe1 21b7 e7b8 2936 3995 2038 d1fc a0b7
00000020: 8362 05b7 718f 0438 3332 6237 998f 9937
00000030: a1d6 bc37 fcf6 0ab7 894d 46b7 123c 9cb7
00000040: 377d 95b6 9e25 7fb6 ad5f 4c38 b9f6 f9b7
00000050: e1b9 ff37 49bb 9437 30cf 5d36 826e 9837
00000060: 2ba7 3238 9b8e c737 9268 b6b7 eb00 5ab7
00000070: 9db9 50b5 3020 bdb6 4111 f0b5 bd2b 4037
00000080: 8446 7e37 15cc 9237 c644 9eb7 18d5 b9b7
00000090: 2067 2835 a1a4 a3b7 25d8 78b7 dcd1 83b7
000000a0: aca4 5d36 ec42 9ab7 3d5e f937 774d aeb7
000000b0: 359c 0938 f0f4 9537 320c 4935 72c0 4eb7
000000c0: 5b3c fbb6 de57 5338 2e78 21b8 217d d037
000000d0: 02f0 24b7 867f 9237 bddc 3f37 41f0 a5b7
000000e0: d334 0936 64d7 3a37 750f 6637 71ed 8636
000000f0: d7cd 2338 ab33 2cb8 e2bb 3237 5264 0838
00000100: 8b50 4cb7 abf8 52b5 99c8 e037 889c 7db5
00000110: ffad 55b8 d1aa 9fb7 6e87 f937 2f18 42b8
00000120: 204c 52b7 adff b5b7 2821 4938 d455 3036
00000130: 4904 6438 9ce0 43b7 5ce2 d5b7 2836 9634
00000140: 1679 54b7 1462 9636 6d35 7837 9187 08b7
00000150: 58cb ac37 f192 af35 953f 2f38 ab44 2eb6
00000160: 18bf 2d38 6465 6cb8 c602 7835 383d 16b5
00000170: cd35 b5b6 0786 2cb8 d68f 7838 b4a0 9cb5
00000180: bf9f 9e38 60fd a938 cc1e af37 4c40 a5b8
00000190: 0f22 db37 7829 5eb7 ff5e dab6 4fe3 4638
000001a0: 36e0 a837 6956 0237 3968 0035 1781 d533
000001b0: 97a2 a2b6 19a7 67b7 fae1 4237 79bd fa36
000001c0: 49ba d237 2229 d237 b2a5 16b8 a380 1a37
000001d0: ca7b db36 03bf e836 073f 2537 51bf 6937
000001e0: 8548 19b6 f25d c937 a64a 86b7 c6a5 33b8
000001f0: 3614 9bb4 9724 ac37 8ef9 e036 13e2 ae37
