results/ppo/Seek/Seek-181163.pt (torch, 447017 bytes, 42 tensors)

network_body._body_endoder.seq_layers.0.weight f4 [128, 6]
0	0x3edad9f5	0.42744413
1	0xbeb742d9	-0.35793188
2	0xbe28e158	-0.16492212
3	0x3e91f968	0.28510594
4	0xbeb62c3d	-0.35580626
5	0x3ea6b914	0.32563078
6	0xbe7baba6	-0.24577197
7	0xbeb492c2	-0.35268217
8	0xbd632784	-0.055457607
9	0x3eb61743	0.35564622
10	0xbf088e82	-0.5334245
11	0xbe1b9199	-0.1519226
12	0x3eed2eb2	0.46324688
13	0xbf0e90e9	-0.55689865
14	0xbf16b00c	-0.58862376
15	0xbe2d2306	-0.16907892
16	0xbe3624b9	-0.17787446
17	0x3e26b08e	0.16278288
18	0xbf05e313	-0.5229961
19	0x3e22a359	0.15882625
20	0x3f1c676d	0.61095315
21	0xbf0bddec	-0.546355
22	0xbf05061f	-0.51962465
23	0xbe36a035	-0.17834552
24	0x3f7764e7	0.9663834
25	0x3f065134	0.52467656
26	0x3e9238cf	0.28558967
27	0xbe31795e	-0.17331454
28	0xbf27b25f	-0.6550655
29	0xbea9e947	-0.3318579
30	0xbf4dd095	-0.80396396
31	0x3edb112f	0.42786548
32	0x3efd17ed	0.49432316
33	0x3f218462	0.63092625
34	0x3e9bbb57	0.30416366
35	0x3ea3c062	0.31982714
36	0xbdb1dbee	-0.086845264
37	0x3eca0644	0.39457905
38	0xbed6d6ca	-0.41960746
39	0x3e8da761	0.27666762
40	0xbe89d351	-0.26919034
41	0xbf41eb6c	-0.7574985
42	0xbe750e95	-0.23931344
43	0xbed411f3	-0.41419944
44	0x3e239323	0.15974097
45	0x3f121561	0.5706387
46	0x3f16c7b3	0.58898467
47	0x3d58d6b5	0.052939136
48	0x3eedc13b	0.46436486
49	0xbf13b53c	-0.57698417
50	0x3f70f6d0	0.94126606
51	0x3f4504d8	0.76960516
52	0xbe20b8f8	-0.1569556
53	0xbe1c7a22	-0.15280965
54	0xbe9cefae	-0.3065161
55	0x3c92f194	0.017937459
56	0x3e710436	0.23536763
57	0xbee563b5	-0.44802633
58	0x3c8c2f69	0.01711245
59	0xbe8b0638	-0.27153182
60	0x3e65f216	0.2245563
61	0x3f925b09	1.1434032
62	0xbddc635c	-0.10761139
63	0xbe7a5f6f	-0.24450468
64	0xbeeba1bc	-0.4602183
65	0xbe53ac0d	-0.20671101
66	0x3e1c07cc	0.1523735
67	0x3e7d71c0	0.24750423
68	0x3d57a63d	0.05264877
69	0x3e6ae00d	0.22937031
70	0xbeb7f3bd	-0.35928145
71	0x3f2f2b3c	0.68425345
72	0x3e07484b	0.13211171
73	0xbec12090	-0.37720156
74	0x3e9e8472	0.30960423
75	0x3ea4a4c7	0.32156965
76	0x3e1c68dd	0.15274377
77	0xbe9a8232	-0.30177456
78	0x3eaa4b0c	0.3326038
79	0xbe5528f2	-0.208164
80	0x3ea23c31	0.31686547
81	0xbef3888c	-0.47565114
82	0x3e8f5cb7	0.28000423
83	0x3d2d6a98	0.042337984
84	0x3e0d1819	0.13778724
85	0x3f259c95	0.6469205
86	0xbf9f1963	-1.2429622
87	0xbf08922d	-0.53348047
88	0x3e0940c9	0.1340362
89	0x3e7189ad	0.23587675
90	0x3da67908	0.08128554
91	0xbea36b65	-0.31917873
92	0x3e83c5d5	0.2573687
93	0xbe87be37	-0.2651231
94	0x3e6093c2	0.21931365
95	0x3e8dc9fb	0.2769316
96	0x3e2808c1	0.1640959
97	0xbe0791fc	-0.13239282
98	0xbf3ac0d1	-0.72950464
99	0xbed431b9	-0.41444185
100	0xbf655197	-0.8957762
101	0x3e91f47b	0.28506836
102	0x3dfd54b6	0.12369673
103	0x3ee2ac72	0.4427219
104	0x3f0beba0	0.5465641
105	0xbd8985de	-0.06714986
106	0x3f3c2cd1	0.73505884
107	0x3e853a3b	0.2602099
108	0x3d7fdc1b	0.06246577
109	0xbf5cfa06	-0.86319005
110	0x3ebda24c	0.37037885
111	0x3df3d319	0.11905498
112	0xbde1072e	-0.109876975
113	0x3f0e8ea7	0.5568642
114	0x3f417187	0.75563854
115	0xbf4e01e7	-0.8047165
116	0x3d8cbc75	0.06871883
117	0x3e730bb2	0.2373493
118	0x3f4ec69e	0.80771816
119	0xbf43f1c5	-0.76540786
120	0xbe8f2d15	-0.27964082
121	0xbe978e5e	-0.29600805
122	0xbeace882	-0.3377114
123	0xbee21618	-0.4415748
124	0x3ef8a9ae	0.48566955
125	0x3e159db0	0.14610934
126	0xbf0469dd	-0.51724035
127	0x3f096197	0.53664535
128	0xbefd2ff6	-0.49450654
129	0x3e7ef21f	0.2489705
130	0xbd9c9be7	-0.076469235
131	0x3e4b919c	0.19879764
132	0xbf53628f	-0.82572263
133	0xbe92821f	-0.286149
134	0x3e5b3c15	0.21409638
135	0x3e982a16	0.2971961
136	0xbda9939f	-0.082801096
137	0x3e32f10f	0.17474769
138	0x3f0558a4	0.5208838
139	0x3f1bc461	0.60846525
140	0x3e4f9b8b	0.20274179
141	0xbf28c227	-0.6592125
142	0xbf655872	-0.8958808
143	0x3f763d0d	0.96186906
144	0x3d5cf731	0.053946678
145	0xbf9d2758	-1.2277632
146	0xbe6f447a	-0.23365965
147	0x3e02a16f	0.12756895
148	0x3ea369c6	0.31916636
149	0x3f137032	0.5759307
150	0xbd9bc11d	-0.07605193
151	0x3ed5d34b	0.41762766
152	0xbe81080c	-0.25201452
153	0xbea2c929	-0.31794098
154	0x3e82246d	0.25418416
155	0xbf0a47d2	-0.5401584
156	0x3e41fb73	0.18943577
157	0x3ec0f5a2	0.37687403
158	0xbce2d94b	-0.027691504
159	0x3e8a8eda	0.27062112
160	0xbecc9f60	-0.39965343
161	0xbe57a8d7	-0.21060501
162	0x3f7ae7e2	0.98010075
163	0x3d52da75	0.051477868
164	0xbe728a80	-0.23685646
165	0xbe38702a	-0.18011537
166	0xbe3e6a79	-0.18595304
167	0xbe68d4d1	-0.22737433
168	0xbdcc7510	-0.099832654
169	0x3e77bf65	0.24194105
170	0x3f38e2ef	0.72221273
171	0xbefb0f4d	-0.4903511
172	0x3c079fe2	0.008277865
173	0xbf0c41c7	-0.5478787
174	0xbee7037d	-0.4511985
175	0xbb46ac9c	-0.0030315286
176	0x3ebfc308	0.37453485
177	0x3cdaa4fd	0.02669
178	0xbdce2d83	-0.100672744
179	0xbe14bb61	-0.14524604
180	0x3e8dda43	0.27705583
181	0x3ee2b95d	0.44282046
182	0x3f229055	0.63501483
183	0xbf2e9748	-0.68199587
184	0x3ee48ab9	0.44637087
185	0xbf2dede8	-0.6794114
186	0x3f0eb6b7	0.5574755
187	0x3f7e46d3	0.9932682
188	0x3cfe49bb	0.031041017
189	0xbedf77e3	-0.43646154
190	0xbd606228	-0.05478111
191	0xbe64b6c8	-0.2233535
192	0x3e6934e5	0.22774084
193	0x3dd045cf	0.10169565
194	0x3d6b8e64	0.05750884
195	0x3e6eecbd	0.23332496
196	0x3ea92121	0.33033088
197	0xbe812447	-0.2522299
198	0xbd45a169	-0.048249636
199	0xbeb98daa	-0.36240894
200	0xbf8d99c1	-1.1062547
201	0xbdd1ab57	-0.102377586
202	0xbda03c9b	-0.078240596
203	0x3d60e06f	0.054901537
204	0x3ee3ac6b	0.44467482
205	0xbe82bfd4	-0.25536978
206	0x3dc52a72	0.096272364
207	0x3cada50c	0.021196865
208	0x3f10d7b4	0.56579137
209	0xbeb07636	-0.34465188
210	0xbf48d55c	-0.7845056
211	0x3f975f45	1.1825949
212	0xbf20fdd3	-0.62887305
213	0xbe2b8f74	-0.16753942
214	0x3eafa604	0.34306347
215	0x3ec24c14	0.37948668
216	0xbf312759	-0.69200665
217	0xbe30c6e0	-0.17263365
218	0x3f78e419	0.9722305
219	0xbebe3d84	-0.37156308
220	0x3f7528bd	0.95765287
221	0x3e9d89ab	0.30769095
222	0xbe162680	-0.14663124
223	0x3e7072b4	0.23481256
224	0x3dcf6dea	0.10128386
225	0x3e36e7f2	0.17861918
226	0xbd836859	-0.06416387
227	0xbd9a7efc	-0.075437516
228	0xbeb6d07c	-0.35705936
229	0x3e11a36c	0.14222497
230	0xbe7bf0e1	-0.24603607
231	0xbe16acdc	-0.14714378
232	0xbc900e4a	-0.017584939
233	0x3e38d2b2	0.18049124
234	0xbdcecf55	-0.10098139
235	0x3d3cc859	0.046089504
236	0x3dda1dd3	0.1065022
237	0x3ea82b2e	0.32845443
238	0xbd89f381	-0.06735898
239	0xbe543a70	-0.20725417
240	0x3ef3b5a9	0.47599533
241	0xbf29e0e4	-0.6635878
242	0x3f0baf15	0.5456403
243	0x3e3c8cee	0.18413135
244	0x3e88008f	0.26562926
245	0x3efa0652	0.48832947
246	0x3e7f4ef6	0.24932465
247	0xbdf07a73	-0.11742105
248	0x3c2399ab	0.009985368
249	0x3eac5e97	0.33665916
250	0xbed96f51	-0.4246774
251	0xbeb79ce4	-0.35861886
252	0x3e9a7bce	0.3017258
253	0x3e64faa4	0.22361237
254	0x3dc2dac6	0.09514384
255	0xbd72f0a7	-0.059311535

network_body._body_endoder.seq_layers.0.bias f4 [128]
0	0x3b059abd	0.002038642
1	0xbc0d8248	-0.0086370185
2	0xbbded802	-0.0068006525
3	0x3bda7f8f	0.006668038
4	0xbc5dff29	-0.013549604
5	0xbb371e8d	-0.0027941794
6	0xbc1cb2cc	-0.009564113
7	0xbc6b7462	-0.01437101
8	0xb91cb84b	-0.00014945974
9	0xbb99c5ad	-0.0046927542
10	0xbc033503	-0.008008244
11	0xbbbc24a4	-0.0057416726
12	0x3c08d788	0.008352168
13	0x3bd0e8d3	0.006375411
14	0xbc8b1b7e	-0.016980883
15	0x3b590bcd	0.0033118606
16	0xbc5810c5	-0.013187592
17	0xbc67d4a8	-0.014149822
18	0x3ca4d327	0.020120217
19	0x3af67391	0.0018802752
20	0x3c489d2c	0.012244504
21	0x3b64710e	0.0034857425
22	0xbbdccc63	-0.006738232
23	0x3c8bf4a8	0.017084435
24	0xbbda6603	-0.006664993
25	0x3c8d8d3a	0.017279256
26	0xbb87c3f3	-0.004143232
27	0x3c0ff3e1	0.008786173
28	0xbb5c39cd	-0.0033603788
29	0x3b945a10	0.004527338
30	0xbcb084b8	-0.02154766
31	0x3c6c3e4b	0.014419149
32	0xbbe4d091	-0.006982871
33	0xba867911	-0.0010259469
34	0xbbbd470c	-0.0057762917
35	0x3b493edf	0.003070764
36	0x3c8421f5	0.016129473
37	0x3a70074e	0.0009156362
38	0xbbc15a2f	-0.0059006433
39	0xbc19a9da	-0.009378875
40	0xba0bb84e	-0.0005329893
41	0x396efd82	0.00022791888
42	0xbbf98b05	-0.0076154494
43	0x3cbe5835	0.02323542
44	0x3aa97a52	0.0012930131
45	0x3c9b275e	0.01893967
46	0x3b28e5c1	0.002577171
47	0x3a214b56	0.00061528885
48	0xbc91ba59	-0.017789053
49	0xbc35a9d0	-0.01108785
50	0xbc70269c	-0.014657643
51	0x3c93670f	0.017993478
52	0x3be9730b	0.00712431
53	0x3bd00b84	0.006349029
54	0x3c894386	0.01675583
55	0xbc8b7d0d	-0.017027402
56	0x3bc3e729	0.005978484
57	0x38b776b2	8.748229e-05
58	0x3bec0119	0.0072022793
59	0xbbe42873	-0.0069628297
60	0xbb6e5c7c	-0.0036371043
61	0xbb3061c1	-0.0026913735
62	0x3b9c6b03	0.004773499
63	0x3c2e4baa	0.010638157
64	0xbbb6b2c0	-0.005575508
65	0x3bc64dfa	0.006051776
66	0x3c28f978	0.010313384
67	0x3b56675b	0.0032715413
68	0xbc4f4897	-0.012651584
69	0xbc982c7a	-0.018575896
70	0xbc0ebb38	-0.008711629
71	0xbb8f747f	-0.004377901
72	0x3be044cb	0.0068441383
73	0xbcadd82e	-0.021221247
74	0x3a4c8b4d	0.000780274
75	0x3ba38ecf	0.0049913893
76	0xbc8e30de	-0.017357286
77	0xbc1ef14a	-0.0097010825
78	0xbc464967	-0.012102461
79	0xbcac08ff	-0.021000383
80	0x3cd2b28f	0.025719909
81	0xba6c859a	-0.0009022594
82	0x3c26d8de	0.010183541
83	0x3c08c3ed	0.008347494
84	0x3c8690ff	0.016426561
85	0x3b0e1de5	0.00216853
86	0x3b957b2d	0.004561803
87	0xbd112e56	-0.03544458
88	0x3ca5b885	0.020229587
89	0xbc2e14b5	-0.010625054
90	0x3ca33f41	0.019927623
91	0x3c103ce8	0.008803584
92	0x3be75f9a	0.007060957
93	0x3b484e4c	0.0030564247
94	0xbcff3407	-0.031152738
95	0x3c416d9c	0.011805918
96	0x3b0402f6	0.0020143366
97	0xbb069292	-0.002053414
98	0x3bdb133b	0.006685642
99	0xbc68720b	-0.014187346
100	0x3c20b15e	0.009807913
101	0x3a6cbb23	0.0009030571
102	0xbce6276c	-0.02809497
103	0xbbf08455	-0.007339994
104	0xbc2d6af8	-0.010584585
105	0xbbd886e6	-0.006607878
106	0xbb2ad61f	-0.0026067568
107	0xbbdbec36	-0.006711508
108	0xbcab36f5	-0.020900229
109	0x3d042709	0.03226379
110	0x3a35a89b	0.0006929726
111	0x3b486264	0.0030576224
112	0x3bf57521	0.0074907695
113	0xbb5d7d44	-0.0033796588
114	0x3d05a8f9	0.032631848
115	0x3c514de9	0.012774923
116	0xbaf141e9	-0.0018406484
117	0x3cc0deb5	0.023543695
118	0x3c9a1f2e	0.018813696
119	0x3c534efe	0.012897251
120	0xbbd3068b	-0.006439989
121	0x3c915868	0.01774235
122	0xbcfcb2c3	-0.030846959
123	0xba6ec90a	-0.00091089366
124	0x3c0bd378	0.008534305
125	0x3b78e999	0.0037981032
126	0x3b9f8067	0.0048676017
127	0x3c835d2c	0.016035639

network_body._body_endoder.seq_layers.2.weight f4 [128, 128]
0	0x3cf638f7	0.03005646
1	0x3c0d1418	0.008610748
2	0xbe061eda	-0.13097706
3	0xbdea28f2	-0.11433591
4	0xbb8e1048	-0.004335437
5	0xbd30ee58	-0.043196052
6	0x3c85b993	0.01632384
7	0x3d10d6a0	0.035360932
8	0x3df24c41	0.118309505
9	0xbe076fc5	-0.1322623
10	0xbd47b30a	-0.04875473
11	0x3dce21f5	0.100650705
12	0x3e05c9bc	0.13065237
13	0x3d4dd248	0.050249368
14	0x3e010bf4	0.12602216
15	0xbc22cf82	-0.009937169
16	0x3db8dd9b	0.09026643
17	0xbdf7994d	-0.12089787
18	0xba9d3121	-0.0011992791
19	0x3de4772b	0.11155542
20	0xbd3f7048	-0.04673794
21	0xbd7416ec	-0.059592173
22	0xbd6bf075	-0.057602365
23	0x3d5446b4	0.05182524
24	0xbde8cd6b	-0.11367305
25	0x3c9e28ac	0.019306503
26	0x3d777e36	0.0604231
27	0x3daa5885	0.08317665
28	0xbe4d7b1a	-0.20066491
29	0xbbda0996	-0.0066539748
30	0x3bba25f0	0.005680792
31	0x3c5fb84c	0.01365478
32	0xbdd1d079	-0.10244841
33	0xbdf92533	-0.12165298
34	0xbe214d7a	-0.15752211
35	0x3da5cad1	0.08095325
36	0x3c1fedda	0.009761298
37	0xbcb00278	-0.021485552
38	0xbcb0e4d2	-0.021593485
39	0xbc6e1170	-0.014530525
40	0xbc45de8a	-0.012076983
41	0xbe42cb50	-0.1902287
42	0xbdb4737f	-0.08811092
43	0x3de6c3e5	0.11267833
44	0x3d089b08	0.033350974
45	0x3da1bb73	0.07897081
46	0x3b526cbd	0.003210827
47	0x3ddcf79b	0.107894145
48	0x3e365529	0.17805924
49	0x3d87e6fb	0.06635853
50	0x3d7878ec	0.060662195
51	0xbcb8096a	-0.022465426
52	0xbe36afcc	-0.17840499
53	0x3d95079f	0.07276844
54	0xbdca74b4	-0.098855406
55	0x3d77c755	0.060492832
56	0xbe4a570f	-0.19759773
57	0xbd204685	-0.039129753
58	0xbc371627	-0.011174715
59	0xbd3ba7c0	-0.045814276
60	0xbd0285c7	-0.03186586
61	0xbd209369	-0.03920308
62	0xbc85dec3	-0.016341573
63	0x3d08044a	0.033207215
64	0xbcdac2b1	-0.026704164
65	0xbd1f324e	-0.038866334
66	0xbc5569b1	-0.013025687
67	0xbd7f4449	-0.06232098
68	0x3d98548c	0.07438001
69	0xbca1e31a	-0.01976161
70	0x3d85dff0	0.06536853
71	0xbdcbe704	-0.09956172
72	0x3ac20cbf	0.0014804824
73	0xbe26ac49	-0.16276659
74	0x3dcb7c65	0.09935836
75	0x3da5f5cc	0.08103523
76	0x3d3239e4	0.04351224
77	0x3d768c33	0.0601923
78	0x3e3cbc5e	0.18431231
79	0x3d3cb2c2	0.046068914
80	0x3cd037f8	0.025417313
81	0x3e3552fe	0.1770744
82	0x3d979b90	0.07402718
83	0xbd278744	-0.040900484
84	0x3e08419f	0.13306282
85	0xbe10d63a	-0.14144221
86	0xbcc54522	-0.024080817
87	0x3e079e71	0.13244034
88	0xbdcd555c	-0.10026047
89	0xbcc9f02e	-0.02465066
90	0x3d465bd3	0.048427414
91	0x3cc3f6bb	0.023921361
92	0x3cefffbc	0.029296748
93	0x3ccafbda	0.024778295
94	0x3a041887	0.0005039055
95	0x3c8d45b8	0.017245159
96	0xbc857326	-0.016290259
97	0xbe535c76	-0.2064074
98	0xbe1406a8	-0.14455664
99	0x3a8f3c5a	0.001092802
100	0xbe3818bf	-0.1797819
101	0xbdfe4fd5	-0.124175705
102	0xbdbaa8f9	-0.0911426
103	0xbd8cb4c1	-0.068704136
104	0xbc2d459e	-0.01057568
105	0x3e6d0e0b	0.23149888
106	0x3e119486	0.14216813
107	0xbd3d91af	-0.046281513
108	0x3bfba1d5	0.007679204
109	0x3dc2aa3a	0.095051244
110	0xbe0bba76	-0.13645348
111	0xbd5f52e2	-0.054522403
112	0x3d893ff7	0.067016535
113	0x3d8668f8	0.0656299
114	0x3ce623d0	0.028093249
115	0x3e1b8f32	0.15191343
116	0xbd8c7f04	-0.06860164
117	0x3df2d7f2	0.118575945
118	0x3c9bdb71	0.019025536
119	0xbdd0ca5c	-0.10194847
120	0x3dd2124a	0.102573946
121	0xbdb27d30	-0.08715284
122	0xbd8bb502	-0.06821634
123	0xbd9a1fe6	-0.075256154
124	0xbe4ce37d	-0.20008655
125	0xbd273218	-0.040819257
126	0x3c5af0b3	0.013363051
127	0xbcf81c0e	-0.030286815
128	0x3ddbea75	0.107380785
129	0x3c8ac8d4	0.016941465
130	0xbd8317db	-0.064010344
131	0xbd2f247b	-0.0427594
132	0xbe22efe9	-0.15911831
133	0x3d3bb0f5	0.045823056
134	0xbd11e0c6	-0.03561475
135	0x3ccf3372	0.025293086
136	0x3d9320cd	0.07183991
137	0xbe012c4a	-0.12614551
138	0xbce35875	-0.02775214
139	0xbc85e9f6	-0.016346913
140	0xbd86e9f4	-0.06587592
141	0x3d81b937	0.06334155
142	0xbd64e134	-0.055878833
143	0xbe333fb0	-0.17504764
144	0xbdf29230	-0.11844289
145	0x3d6e837b	0.05823086
146	0x3d74396f	0.059625085
147	0xbd1512e7	-0.03639498
148	0x3e10a32a	0.14124742
149	0x3cc694f7	0.024240954
150	0xbd5ac298	-0.053408235
151	0xbc2cf016	-0.010555288
152	0x3d80e88f	0.06294357
153	0xbe14e46a	-0.14540258
154	0xbbc335cb	-0.0059573404
155	0x3cfc3d4e	0.030790951
156	0xbdb65f44	-0.08904889
157	0xbdfe7174	-0.12423983
158	0xbc0158cc	-0.007894706
159	0xbd850209	-0.06494529
160	0x3d077e1d	0.033079255
161	0x3da1a801	0.07893372
162	0xbdeee188	-0.116641104
163	0xbe56f69a	-0.20992509
164	0x3b45998e	0.003015134
165	0x39b663c2	0.0003478807
166	0x3d7aefa0	0.06126368
167	0x3d11604c	0.035492226
168	0xbd02af81	-0.031905655
169	0xbd68da0d	-0.056848574
170	0x3d7f87b2	0.06238527
171	0xbe32efda	-0.17474309
172	0xbe0f7281	-0.14008524
173	0xbc034a49	-0.008013316
174	0xbdf672b6	-0.12033598
175	0xbe3cdf82	-0.18444636
176	0xba62a9fd	-0.0008646546
177	0xbd0ddc2c	-0.0346338
178	0xbdf95829	-0.12175018
179	0xbd87389e	-0.06602596
180	0x3d447bef	0.047969755
181	0x3ddd8f22	0.10818316
182	0xbce677a2	-0.028133217
183	0x3dbb32a6	0.0914052
184	0x3d7f4f66	0.06233158
185	0xbda1298a	-0.07869251
186	0xbe5045ed	-0.20339175
187	0xbe018c36	-0.12651142
188	0x3df0333b	0.117285214
189	0x3dae1507	0.085001044
190	0xbe1d0d20	-0.15337038
191	0x3d6ee40f	0.058322962
192	0x3daa532e	0.083166465
193	0xbd10a223	-0.035310876
194	0xbe13626f	-0.14393018
195	0x3da31356	0.079626724
196	0x3da5b7b8	0.08091682
197	0x3e465590	0.19368577
198	0xbdc39166	-0.09549217
199	0xbdd3ff8d	-0.10351477
200	0x3a85b047	0.001019963
201	0xbc4a754f	-0.01235707
202	0x3d41edaf	0.047345813
203	0x3e0aa34d	0.13538857
204	0xbdd94141	-0.10608149
205	0xbd05566c	-0.03255312
206	0x3dcf7b23	0.10130908
207	0x3da48f22	0.08035113
208	0xbd943617	-0.07236879
209	0xbe3a69c4	-0.18204409
210	0xbd19833e	-0.037478678
211	0x3d72ab3f	0.059245344
212	0xbe43875a	-0.19094601
213	0x3d01243b	0.031528693
214	0x3cc346bd	0.023837442
215	0xbd8327b5	-0.06404058
216	0xbd4a123c	-0.049333796
217	0xbc60f2e0	-0.013729781
218	0x3dcc6e88	0.0998202
219	0xbcb31737	-0.021861656
220	0x3d119e40	0.03555131
221	0x3cde1fb4	0.027114727
222	0xbd8b228b	-0.06793698
223	0x3d03dcf3	0.032193135
224	0x3e25f51c	0.16206783
225	0xbdcf2044	-0.10113576
226	0x3d9c002e	0.07617222
227	0xbde87549	-0.11350495
228	0xbc4e74b9	-0.012601071
229	0x3e5f0623	0.21779685
230	0x3d447b31	0.047969047
231	0xbd889f87	-0.066710524
232	0xbd433c4d	-0.04766493
233	0x3dab2740	0.08357096
234	0xbd0a563d	-0.03377365
235	0xbd0b859d	-0.03406297
236	0x3e14be7c	0.14525789
237	0x3d65c695	0.056097586
238	0x3d82256d	0.06354795
239	0x3d91880f	0.07106029
240	0x3d4359f9	0.047693226
241	0x3cd5ab3d	0.02608263
242	0x3dbae18a	0.091250494
243	0xbdae937c	-0.08524224
244	0x3be413ed	0.006960383
245	0x3cd2031c	0.025636248
246	0xbd882ffd	-0.06649778
247	0xbd717b81	-0.058955673
248	0xbdd01fa6	-0.101622865
249	0xbce93114	-0.028465785
250	0xbd3d52f4	-0.04622169
251	0xbcdeb1e2	-0.02718443
252	0xbd09dbc3	-0.033656847
253	0xbde828ab	-0.11335882
254	0xbdadea33	-0.084919356
255	0xbe22e6e0	-0.15908384

network_body._body_endoder.seq_layers.2.bias f4 [128]
0	0xbb8caecc	-0.0042932983
1	0xbc6cfed2	-0.014465051
2	0x3c401b80	0.0117253065
3	0x3c950013	0.018188512
4	0xb9fffca9	-0.00048825637
5	0x3cadbf6a	0.021209437
6	0xbcba30ca	-0.022728343
7	0x3cde8198	0.027161404
8	0x3c79b9ce	0.015242053
9	0xbc77bad9	-0.015120232
10	0x39b664a9	0.00034788743
11	0xbc8ea399	-0.017411994
12	0x3b6f4794	0.003651117
13	0x3c32a278	0.010902993
14	0x3cb4cd14	0.022070445
15	0x3c974433	0.018465137
16	0xbc4f5df9	-0.012656682
17	0xbc2cef44	-0.010555092
18	0xbba775dd	-0.005110486
19	0xbb6a52a8	-0.0035754833
20	0x3bbb5ecc	0.005718088
21	0x3c5eb8ea	0.013593892
22	0xbc99d489	-0.018778102
23	0x3cf0f816	0.029415172
24	0xbbbffb28	-0.0058587976
25	0x3bada124	0.0052987505
26	0xbbe2e106	-0.0069237975
27	0xbb31d5a4	-0.0027135396
28	0xbcda6c1f	-0.026662884
29	0xbaf358f6	-0.0018565941
30	0x3bc7ca4c	0.0060971137
31	0xbaec1712	-0.0018012247
32	0x3bee18e6	0.0072661517
33	0x3be3b955	0.0069495835
34	0x3cbce1b8	0.02305685
35	0x39f963f9	0.00047567466
36	0xbbbafea1	-0.0057066237
37	0x3abbe346	0.00143347
38	0xbbf51a1f	-0.0074799205
39	0x3c82d524	0.015970774
40	0xbbddd914	-0.0067702625
41	0x397d1c73	0.00024138558
42	0xbbbb3671	-0.005713277
43	0xbc10fa49	-0.008848735
44	0x3c8fa8f6	0.017536622
45	0x3b902a33	0.004399562
46	0x3ca434bd	0.020044679
47	0xbbb6269b	-0.0055588013
48	0x3c9990a9	0.018745737
49	0x3b92808d	0.004470891
50	0x3c49f3b3	0.012326169
51	0xbbb81ccc	-0.005618667
52	0xbc0850cd	-0.008320046
53	0xbb3c373c	-0.0028719446
54	0x3c98f91b	0.01867347
55	0xbc761077	-0.015018574
56	0xbc67a75d	-0.014139024
57	0xbb0e96aa	-0.0021757283
58	0xbc920fbf	-0.017829774
59	0xbbe5ccb7	-0.0070129293
60	0x3c1ecb5c	0.009692039
61	0xbc501ad0	-0.012701705
62	0xbc9ca29a	-0.019120503
63	0xbc86d866	-0.016460609
64	0x3c2390be	0.00998324
65	0xbcc386bf	-0.023867963
66	0x3ba1c056	0.0049362583
67	0x3c6f9c55	0.014624675
68	0x3b0042b6	0.0019571013
69	0xbc6bb98a	-0.014387498
70	0x3bddadd3	0.006765106
71	0x3bbf42d7	0.0058368254
72	0xb9a83285	-0.00032081097
73	0x3b794b41	0.003803924
74	0x3b7eb61f	0.0038865877
75	0x3c1e7139	0.009670549
76	0xbc7ea331	-0.015541838
77	0xbbdc4f44	-0.0067233164
78	0x3c038b34	0.008028794
79	0x3c5166e6	0.012780881
80	0x3c40fd1c	0.011779096
81	0x3c4db307	0.0125548905
82	0xbb1a5126	-0.0023546903
83	0xbcc3ea4a	-0.023915429
84	0xbbb991db	-0.0056631393
85	0x3bd0daeb	0.0063737533
86	0x3c53dde6	0.012931323
87	0x3b842c23	0.004033582
88	0x3cb9a920	0.022663653
89	0xbc22c84c	-0.00993545
90	0x3c30f89e	0.010801462
91	0xba0c9359	-0.00053625327
92	0xbbc12888	-0.0058947243
93	0xbc51d246	-0.012806481
94	0x3abebd27	0.0014552221
95	0x3a55bd96	0.00081535557
96	0xbc86c8a4	-0.016453095
97	0xbbbb13e6	-0.005709159
98	0x3c99b622	0.018763606
99	0x3b5d2c47	0.0033748315
100	0x3ae96ce3	0.001780894
101	0xbbdb7358	-0.0066970997
102	0xbca53052	-0.020164642
103	0xbb890fa8	-0.0041827746
104	0x3c90b93a	0.017666448
105	0x3c93c311	0.01803735
106	0x3b0c1539	0.0021374954
107	0x3c02f796	0.007993599
108	0x3c0e4a81	0.008684755
109	0x39f02e38	0.00045810803
110	0x3bd83a04	0.006598713
111	0x3bdfce23	0.0068299933
112	0xbb6dedcf	-0.0036305075
113	0xbb30af43	-0.0026959933
114	0x3c44964c	0.011998724
115	0x3c918efa	0.017768372
116	0xba8771ff	-0.0010333656
117	0x3aa50685	0.0012590444
118	0xbc5c8795	-0.01346006
119	0xbb35ddfa	-0.0027750717
120	0x3cb84392	0.022493158
121	0x3c91c57b	0.017794361
122	0x3c9679c4	0.01836861
123	0xbca069cf	-0.019581703
124	0x3c60a4b3	0.013711142
125	0xbc5a12cd	-0.0133101465
126	0xbbc2a22e	-0.0059397435
127	0x3c504d23	0.012713703

action_model._continuous_distribution.log_sigma f4 [1, 2]
0	0x3c63adba	0.0138964
1	0x3c118db3	0.008883881

action_model._continuous_distribution.mu.weight f4 [2, 128]
0	0x3c8b2d80	0.01698947
1	0x3c2987b6	0.010347297
2	0xbd03425a	-0.0320457
3	0x3b613a81	0.0034367146
4	0xbc3e5eb3	-0.011619258
5	0x3d01a2cd	0.0316494
6	0xbb1baf3f	-0.0023755578
7	0xbaad15c5	-0.001320534
8	0xbcca9a04	-0.024731643
9	0xbcb34adc	-0.021886282
10	0xbc36da2b	-0.011160414
11	0xbc57f243	-0.013180318
12	0xbd006a94	-0.03135164
13	0xba2c8f7d	-0.0006582661
14	0x3bc9defd	0.0061606155
15	0xbb9b02fe	-0.0047305813
16	0xbbb1e8e9	-0.0054293764
17	0xbbb5a761	-0.0055436348
18	0x3acba033	0.0015535414
19	0xbc7a16a4	-0.015264187
20	0xbd109077	-0.035294022
21	0xbc1acd02	-0.009448292
22	0xbaee7baf	-0.001819482
23	0x3cad9647	0.021189822
24	0x3cab6575	0.020922402
25	0x3b82102a	0.003969212
26	0xbc90bcb4	-0.017668106
27	0xbc560cf6	-0.013064614
28	0xbc9a60e7	-0.018845035
29	0xbc940bec	-0.018072091
30	0xbd0204cb	-0.031742852
31	0xbc90e5b2	-0.017687652
32	0x3ce83c32	0.028349016
33	0xbbd85aa5	-0.0066026025
34	0x3d45fc35	0.048336226
35	0xbac60f6d	-0.0015110798
36	0xbcc4d7e5	-0.024028728
37	0xbd7dbe07	-0.061948802
38	0x3c8c1838	0.017101392
39	0x3a88be93	0.0010432772
40	0x3bbd50f9	0.005777475
41	0x3d484167	0.048890498
42	0x3abd9071	0.0014462603
43	0xbc0e2bf8	-0.008677475
44	0x3d72d277	0.059282746
45	0x3b01cb4d	0.0019805015
46	0xbc7d4036	-0.015457204
47	0x3c112901	0.008859874
48	0x3d5d8912	0.0540858
49	0x3cf31e8c	0.029677652
50	0x3cb97ce6	0.022642564
51	0x3bd86e41	0.00660494
52	0x3b15da4a	0.0022865706
53	0x3c93c1d1	0.018036755
54	0x3b237d8b	0.0024946656
55	0xbcf7f1d1	-0.030266674
56	0x3c5e3666	0.013562774
57	0x3c27672a	0.010217467
58	0xbbf04b68	-0.007333208
59	0xbc94713f	-0.018120406
60	0x3cb10975	0.021610955
61	0xbc6fa848	-0.014627524
62	0xbbd0a339	-0.006367114
63	0xba650d6e	-0.0008737658
64	0x3bc19918	0.005908143
65	0xbc63045c	-0.01385602
66	0x390c4ae4	0.0001337934
67	0x3c7346f9	0.014848464
68	0xbae19af3	-0.0017212316
69	0xbbb6ded8	-0.0055807643
70	0xbd49ecd0	-0.049298108
71	0xb8c27db6	-9.274056e-05
72	0xbc8f7eea	-0.017516572
73	0x3d06dc3f	0.032924887
74	0xbc9b3fe4	-0.018951364
75	0x3c8cb561	0.017176332
76	0x3c22d25f	0.009937852
77	0xbccc0f69	-0.024909692
78	0xba0217d6	-0.0004962658
79	0x3cfedbc4	0.031110652
80	0x3c9059b5	0.0176209
81	0xbcf019df	-0.029309211
82	0x3cd882b0	0.026429504
83	0xbb6fa24c	-0.0036565242
84	0x3b7782f4	0.0037767263
85	0x3c8d4c4d	0.017248297
86	0x3c21fa34	0.009886313
87	0x3ca7731e	0.020440634
88	0x3cc49b2c	0.023999773
89	0xbc85492b	-0.01627024
90	0xbcc36f9a	-0.023856927
91	0xbb850936	-0.004059936
92	0xbc1c649e	-0.009545473
93	0xbd12de31	-0.03585643
94	0xbd558079	-0.052124474
95	0xbc938903	-0.018009668
96	0x3c315b7d	0.010825035
97	0x3d2514cb	0.040303033
98	0x3c5e3f18	0.013564847
99	0xbc6d4dd0	-0.014483884
100	0xbc7dae99	-0.015483522
101	0xbc43cc51	-0.011950568
102	0xbb42178e	-0.002961609
103	0xba1b00a2	-0.0005912875
104	0x3b85c00a	0.0040817307
105	0x3c38f2fd	0.011288402
106	0xbc9b0596	-0.018923562
107	0x3d242292	0.04007203
108	0x3c4322cc	0.011910152
109	0x3d41ceda	0.04731641
110	0xbc229add	-0.009924618
111	0x3c229eb9	0.009925538
112	0x3c136332	0.008995818
113	0xbc2e1783	-0.010625723
114	0x3d0f8fa3	0.035049092
115	0xbb3712eb	-0.002793486
116	0x3c6169d5	0.0137581425
117	0x3c491d95	0.012275119
118	0x3bc13505	0.005896213
119	0xbc4add75	-0.012381901
120	0xbbfa307d	-0.007635175
121	0xbc36fc6d	-0.011168581
122	0x3d36191b	0.044457536
123	0x3b0d78b6	0.0021586842
124	0x3d1be243	0.038057577
125	0xbca55bc1	-0.020185353
126	0x3d09282a	0.03348557
127	0xbced4741	-0.02896464
128	0x3c388586	0.011262303
129	0xbd6910fa	-0.056900956
130	0x3c393c7b	0.011305924
131	0x3c99d957	0.018780394
132	0xbd0f327f	-0.034960266
133	0x3ca90e34	0.020636655
134	0xbc8c28d2	-0.017109308
135	0x3d1d32f4	0.03837867
136	0x3cbc6b90	0.023000509
137	0xbc900c34	-0.017583944
138	0xbbe58f9b	-0.0070056445
139	0xbcaa71f7	-0.020806296
140	0x392f8acd	0.00016741008
141	0x3d1acc66	0.037792586
142	0x3d21c8db	0.03949819
143	0x3cfb22b1	0.03065619
144	0xbc998d69	-0.018744187
145	0xbc178231	-0.009247349
146	0x3bea703b	0.007154492
147	0xbb0806aa	-0.0020755925
148	0xbaaab36c	-0.0013023443
149	0x3c7b204b	0.015327523
150	0xbcbe76af	-0.023249952
151	0x3c2017fc	0.009771343
152	0xbc3e7663	-0.011624905
153	0x3b800611	0.003906973
154	0xbd3e11c9	-0.04640368
155	0xbd39c2f8	-0.045351952
156	0xbcf9236a	-0.030412395
157	0xbd2894bd	-0.041157473
158	0x3bd30aab	0.0064404807
159	0xbb63d0be	-0.0034761871
160	0x3bdebd31	0.0067974557
161	0x3c89ef37	0.0168377
162	0xbb55f708	-0.0032648463
163	0xbcc4cb40	-0.024022698
164	0xbc0c5cdb	-0.00856706
165	0x3af3ffcc	0.0018615662
166	0xbcaddf04	-0.021224506
167	0xbd47d031	-0.04878253
168	0x3bd0ee75	0.0063760825
169	0xbcac2a0f	-0.021016149
170	0xbd85df19	-0.06536693
171	0xbc717020	-0.014736205
172	0xbccfed8f	-0.025381831
173	0x3b3e97d5	0.0029082198
174	0x3cbfb6ca	0.02340259
175	0xbc8ed590	-0.017435819
176	0x3cd99f66	0.026565265
177	0xbb6e89ad	-0.003639798
178	0x3ba0df75	0.0049094507
179	0x3cd0fc0f	0.025510816
180	0xbce04d1d	-0.02738052
181	0xbcfa73ee	-0.030572858
182	0x3d21baa4	0.039484635
183	0xbc6ede0c	-0.014579307
184	0xbca5431a	-0.020173598
185	0xbcade20d	-0.021225953
186	0xbca2ce94	-0.019873895
187	0xbc5111e6	-0.012760615
188	0x3bee8e37	0.007280137
189	0xbc8fd09e	-0.017555531
190	0xbcb35282	-0.021889929
191	0xbbfa9c56	-0.007648031
192	0x3cf67e67	0.03008957
193	0xbd2f387a	-0.04277847
194	0xbd8979c9	-0.06712682
195	0x3c7a9047	0.015293187
196	0xbad58419	-0.0016289979
197	0xbc2f11c4	-0.010685388
198	0x3c32173c	0.010869797
199	0xbd4caffb	-0.049972516
200	0xbaa6f85d	-0.0012738813
201	0x3b6a1975	0.003572074
202	0x3ade60de	0.0016966125
203	0x3c186682	0.0093017835
204	0xbc8675d1	-0.016413601
205	0xbc8c6bad	-0.017141188
206	0x3bee533e	0.007273107
207	0xbaaa1bf4	-0.0012978301
208	0xbd393387	-0.045215156
209	0x3c650a74	0.013979543
210	0xbcb4c284	-0.022065409
211	0xbc45a48f	-0.01206316
212	0xbbefeac4	-0.0073216874
213	0xbacdd9f7	-0.0015705217
214	0x3bd49a28	0.0064881034
215	0x3b3f956c	0.002923335
216	0x3bece287	0.0072291526
217	0x3be64372	0.007027083
218	0x3c31f832	0.010862397
219	0x3c1d640b	0.009606372
220	0xbc05f3b3	-0.008175778
221	0xbccd5b11	-0.025067838
222	0xbd3281f6	-0.04358097
223	0xbbf10b79	-0.007356104
224	0xbc24026a	-0.010010341
225	0xbb618da5	-0.0034416702
226	0x3c0a12aa	0.008427301
227	0x3c60e2b9	0.01372593
228	0x3bbdf0df	0.0057965363
229	0xbb763971	-0.003757086
230	0xbc6cb8ff	-0.014448403
231	0xbdd691a9	-0.10477001
232	0x3c4605bb	0.012086327
233	0x3c87838d	0.01654222
234	0xbd256865	-0.04038276
235	0xbc39c0f0	-0.011337504
236	0x3b2dbc72	0.0026510027
237	0xbb3a6a3d	-0.002844467
238	0x3c993af8	0.018704876
239	0xba8869ad	-0.001040747
240	0xbc765c78	-0.015036695
241	0xbd27b9fa	-0.040948845
242	0xbd2a7b58	-0.041621536
243	0x3ce3ffc6	0.027831923
244	0x3c106331	0.008812712
245	0x3ab7c1d1	0.0014019554
246	0xbd105239	-0.035234664
247	0xbb1a61be	-0.0023556794
248	0x3c872a8b	0.016499778
249	0x3cc8dea6	0.02452023
250	0x3c3ac8cf	0.011400416
251	0xbbfc8667	-0.0077064517
252	0x3c71e46a	0.014763931
253	0xbd152477	-0.03641173
254	0x3c628c4b	0.013827394
255	0xbcdc4854	-0.026889957

action_model._continuous_distribution.mu.bias f4 [2]
0	0x39e92bda	0.00044473895
1	0x3ca32d96	0.019919198

action_model._discrete_distribution.branches.0.weight f4 [2, 128]
0	0xbb2d744b	-0.002646702
1	0x3c2fc0c9	0.010727116
2	0x3bddfc1d	0.006774439
3	0x3890558e	6.882391e-05
4	0x3c9b4327	0.01895292
5	0x3bc76da1	0.006086067
6	0xbc1e3d3c	-0.009658154
7	0xbb39ca46	-0.0028349324
8	0x3c117966	0.008879041
9	0x3c624a91	0.013811723
10	0x3ae03b1b	0.0017107459
11	0xba3d9338	-0.0007231715
12	0xbc12f0c6	-0.008968538
13	0xbadaffd7	-0.0016708326
14	0x3b9581db	0.004562599
15	0xbc8dadb6	-0.017294746
16	0xbc80b529	-0.015711384
17	0x3b8d42d1	0.0043109437
18	0xba262cd7	-0.0006339079
19	0x3bd54a1c	0.0065090787
20	0x3bd777b6	0.00657555
21	0xbc548f8e	-0.012973679
22	0x3bf5d88b	0.0075026206
23	0xbb9e9906	-0.004840019
24	0xbc825281	-0.015908482
25	0x3c668ff6	0.014072409
26	0x3b98c56a	0.0046622055
27	0x3bc49d03	0.0060001626
28	0xbab6acf4	-0.0013937042
29	0x3ba7f34e	0.0051254397
30	0xb99ec178	-0.00030280254
31	0x3be95d2c	0.0071217027
32	0xbc0a64f8	-0.008446924
33	0xbad25bcb	-0.0016049085
34	0x3ba61498	0.005068373
35	0xbbb3e8eb	-0.0054904125
36	0x38ee9d30	0.00011378003
37	0xbc8cf756	-0.017207783
38	0xbb0aa4e8	-0.002115542
39	0xbb0ff354	-0.0021965103
40	0xbc463b0d	-0.01209904
41	0xbabc7238	-0.0014377302
42	0x3ca645b6	0.020296913
43	0x3c0bf4eb	0.00854228
44	0x3cc00d2b	0.023443779
45	0x3a557592	0.00081428245
46	0xbc44ba7b	-0.012007351
47	0xbcc5fa05	-0.02416707
48	0xbc4d0b52	-0.012514906
49	0xbb0b4b51	-0.002125461
50	0xbac2e338	-0.0014868742
51	0xbc2ee5ba	-0.010674888
52	0x3c1e595b	0.009664859
53	0xb93b38cf	-0.00017854873
54	0x3bdffc0a	0.0068354653
55	0xbb957094	-0.0045605395
56	0x3c68c42c	0.014206927
57	0xbc995a48	-0.018719807
58	0x3c16b198	0.009197615
59	0xbaa15254	-0.0012307861
60	0xbba20399	-0.0049442765
61	0xbc585d21	-0.013205797
62	0xbbe5c1c3	-0.0070116236
63	0xbc64a13b	-0.013954456
64	0x3c2ed9e6	0.010672068
65	0xba9bb4e1	-0.0011879468
66	0x3bb048b6	0.0053797616
67	0xba3709a1	-0.0006982331
68	0x3c1d7981	0.009611488
69	0x3b58dd4d	0.003309089
70	0x3c17c8b6	0.009264162
71	0xbc517e3f	-0.012786447
72	0x3caa1d90	0.02076605
73	0x3bc28331	0.0059360494
74	0x3b8119f2	0.0039398605
75	0xbbdcfd6b	-0.006744077
76	0xbcb40f8d	-0.021980071
77	0x3b8f30af	0.004369817
78	0x3c8b2e27	0.01698978
79	0x3bc92f33	0.00613966
80	0x3c89dd8f	0.01682928
81	0xbb02c9c9	-0.00199567
82	0xbc921956	-0.017834347
83	0x3a5fc4c1	0.00085360935
84	0xbc319ab8	-0.0108401105
85	0x3c26b584	0.010175113
86	0xbb9b05a8	-0.004730899
87	0xbc320192	-0.010864632
88	0x3c62c07c	0.013839837
89	0x3c5b8366	0.013398027
90	0x3b566b45	0.0032717746
91	0x3ab6275c	0.0013897228
92	0x3bf68e48	0.0075242855
93	0x3ab404de	0.0013734361
94	0xbc720f43	-0.0147741465
95	0xbc76c31b	-0.015061165
96	0x3c15125f	0.009098618
97	0x3a1a38ac	0.00058830786
98	0x3bc34673	0.005959326
99	0x3a654066	0.0008745253
100	0x3bb20a2e	0.0054333424
101	0xbb163f0c	-0.0022925762
102	0xbc0d1a28	-0.008612193
103	0xbc076d5e	-0.008265821
104	0xbc379b30	-0.011206433
105	0x3ca18ea5	0.019721339
106	0x3c85699f	0.016285716
107	0x3c636825	0.01387981
108	0x3b46790d	0.0030284554
109	0xbbb082de	-0.0053866943
110	0x3bbc1fa0	0.0057410747
111	0xbacdd4cf	-0.0015703681
112	0xba10ef77	-0.0005528847
113	0xbb9b7ecf	-0.0047453414
114	0x3c98181a	0.01856618
115	0xbb95b969	-0.0045692218
116	0xba9b2d19	-0.0011839002
117	0xbc17cfaa	-0.00926582
118	0xbb86d342	-0.0041145394
119	0xbc427210	-0.011868015
120	0xbb6e3504	-0.0036347518
121	0xbc952094	-0.018204011
122	0x3930ac93	0.00016848957
123	0x3bd7c195	0.006584356
124	0xbb2b2101	-0.00261122
125	0x3c834dc4	0.016028292
126	0xbbc1f7d2	-0.005919435
127	0x3cce3828	0.025173262
128	0xbbc6a34c	-0.006061947
129	0x3b8b198b	0.0042449883
130	0x3b3c002f	0.0028686633
131	0x3b82ac40	0.003987819
132	0x3bdcca12	0.006737956
133	0xbc7cccc3	-0.015429678
134	0x3aa6f50e	0.0012737827
135	0x3cbcf6ae	0.023066845
136	0xbbc104ac	-0.0058904495
137	0xbbc43fc8	-0.0059890486
138	0xbca3bbe1	-0.019987049
139	0x3c004300	0.007828474
140	0x3c241ff6	0.010017386
141	0xbb8e78eb	-0.0043479106
142	0x3b68e234	0.0035535218
143	0x374b6b90	1.2124787e-05
144	0x3bf113fc	0.0073571187
145	0x3bc4864b	0.0059974543
146	0xbaedcea2	-0.0018143246
147	0x3b379fc3	0.002801881
148	0x3c34c701	0.011033774
149	0x3cb05eae	0.021529522
150	0xbbb7cc3e	-0.0056090644
151	0x3bc532f6	0.006018038
152	0xbbfbc1b0	-0.0076830015
153	0xbc998258	-0.01873891
154	0x3b76c579	0.0037654324
155	0x3a6e2555	0.00090845424
156	0x3c40b415	0.011761685
157	0x3b8e0597	0.0043341625
158	0x3c52dc72	0.012869941
159	0xbc880451	-0.01660362
160	0xbbe9d579	-0.0071360436
161	0xbc582571	-0.0131925205
162	0xbafc4e4c	-0.0019249409
163	0xbb3bf5c0	-0.0028680414
164	0x3c798c1f	0.015231161
165	0x3b4132e1	0.002947979
166	0xbc90f8ab	-0.0176967
167	0x3cbdef50	0.023185402
168	0xbbe8e3e0	-0.007107243
169	0x398278e2	0.00024885597
170	0xbc04f6f4	-0.008115519
171	0x3c86bcac	0.016447388
172	0xbc09ecd8	-0.008418284
173	0x3b89a668	0.0042007454
174	0x3c4b61f3	0.01241349
175	0x3c84db11	0.01621774
176	0x3c3d9af5	0.011572589
177	0xbbdbe704	-0.006710889
178	0xbb2c89a7	-0.0026327164
179	0x3c77f544	0.0151341595
180	0xbc06e82d	-0.008234066
181	0xbc5040c7	-0.012710757
182	0x3ae28ff4	0.0017285333
183	0x3c61164c	0.013738226
184	0xbb3feb40	-0.0029284507
185	0x3c8a013f	0.016846297
186	0xbc8c9c42	-0.017164353
187	0xbb2db4f8	-0.002650557
188	0xbc2b70de	-0.010463921
189	0x3b98bd19	0.004661214
190	0x3cb8a554	0.022539772
191	0x3bbb29b8	0.0057117604
192	0xbc7721fc	-0.015083786
193	0x3c2bf0ba	0.010494405
194	0x3cb0904e	0.021553185
195	0xbb5f0e0d	-0.0034035475
196	0x3b7ebb78	0.0038869064
197	0x3b8b5f79	0.0042533246
198	0x3b9aecfa	0.004727957
199	0x3a397237	0.0007074209
200	0xbc9f6d43	-0.01946128
201	0x3bb66f1f	0.005567446
202	0x3ab97ffa	0.001415252
203	0xbbd18ef1	-0.006395214
204	0xbbf2d854	-0.007411042
205	0x3ac1fa0a	0.0014799249
206	0xbbb418fb	-0.005496142
207	0x3aba8cdd	0.0014232654
208	0xbb601d5b	-0.0034197185
209	0x3c459bfc	0.012061115
210	0xbce90609	-0.02844526
211	0xbb4ae2e6	-0.0030957996
212	0x3cd0aad9	0.025472092
213	0x3c80d38c	0.015725873
214	0x3a260d5c	0.0006334388
215	0x3bc6b45e	0.006063982
216	0x3bc0c43b	0.0058827675
217	0xbb81c494	-0.0039602015
218	0x3c271107	0.010196931
219	0xbc0f35ed	-0.008740884
220	0xbc9a8f49	-0.018867152
221	0x3c834b21	0.016027035
222	0x3c8f5dc2	0.017500762
223	0xbbdf0af7	-0.006806727
224	0x3aa7b4f6	0.001279502
225	0x3ca9cad1	0.020726593
226	0x3afc18ea	0.0019233499
227	0x3c765f58	0.01503738
228	0xbb996b22	-0.0046819607
229	0x3c3a35ad	0.011365336
230	0x3b3a552e	0.0028432119
231	0x3c3007f0	0.01074408
232	0xbbbedb20	-0.0058244616
233	0xbbbbc9e4	-0.0057308543
234	0xbc0e60b9	-0.008690053
235	0xbc02fd25	-0.007994925
236	0x3bd02512	0.0063520754
237	0x3ba6c205	0.005089047
238	0xba86239d	-0.0010234002
239	0x3b809acc	0.003924703
240	0xbc08b81b	-0.008344675
241	0xb8e8f11b	-0.000111075315
242	0xbbfecd1a	-0.007775915
243	0x3c862c8a	0.01637866
244	0x3c68f180	0.014217734
245	0xbbed04f3	-0.007233256
246	0x3bd8b4f8	0.00661337
247	0x3bf835ca	0.0075747715
248	0x39f55378	0.0004679223
249	0x3a7aefeb	0.0009572494
250	0xbc2649b1	-0.010149405
251	0x3c0f5e26	0.008750474
252	0x3b95572a	0.00455751
253	0x3c88a4b6	0.016680103
254	0x3c878645	0.016543517
255	0x3ba04845	0.0048914277

action_model._discrete_distribution.branches.0.bias f4 [2]
0	0xba064b60	-0.0005122926
1	0x3a064b46	0.0005122911

exp_avg f4 [128, 6]
0	0x371f8f65	9.510525e-06
1	0x00000000	0.0
2	0x36d8b5b2	6.4584538e-06
3	0x385882d0	5.162024e-05
4	0x00000000	0.0
5	0xb7993202	-1.8262308e-05
6	0x370ce381	8.39762e-06
7	0x00000000	0.0
8	0x370c62e5	8.367676e-06
9	0xb7f59438	-2.9275296e-05
10	0x00000000	0.0
11	0xb8889a35	-6.513709e-05
12	0xb91ff032	-0.00015252901
13	0x00000000	0.0
14	0x378016a7	1.5269337e-05
15	0x394268e1	0.00018540352
16	0x00000000	0.0
17	0xb8238430	-3.8985338e-05
18	0x39b23254	0.00033988303
19	0x00000000	0.0
20	0xb9d74bf4	-0.00041064585
21	0xba2f7b8e	-0.00066941313
22	0x00000000	0.0
23	0xb978dea8	-0.00023734069
24	0xb9032567	-0.00012507067
25	0x00000000	0.0
26	0xb921c338	-0.00015426881
27	0x391a4aa7	0.00014714395
28	0x00000000	0.0
29	0x393a3880	0.0001775939
30	0xb6cdf44d	-6.1379164e-06
31	0x00000000	0.0
32	0xb85444e5	-5.06089e-05
33	0xb820306f	-3.819208e-05
34	0x00000000	0.0
35	0xb8cd2ab6	-9.783117e-05
36	0xb7c9465c	-2.399383e-05
37	0x00000000	0.0
38	0x3935b43c	0.00017328648
39	0x3921c891	0.00015428873
40	0x00000000	0.0
41	0x38161375	3.5780908e-05
42	0x3642d593	2.903257e-06
43	0x00000000	0.0
44	0xb7132179	-8.769676e-06
45	0x384088fc	4.5903944e-05
46	0x00000000	0.0
47	0x37254ae6	9.852205e-06
48	0xb81b10d5	-3.6970556e-05
49	0x00000000	0.0
50	0xb8c80c44	-9.539028e-05
51	0xb78d517d	-1.6846456e-05
52	0x00000000	0.0
53	0x3907ac9b	0.00012938904
54	0x39980c3b	0.00029000812
55	0x00000000	0.0
56	0xb88549c3	-6.3556734e-05
57	0xb9c78385	-0.00038054227
58	0x00000000	0.0
59	0xb98326a0	-0.00025015045
60	0xb8e154df	-0.000107446445
61	0x00000000	0.0
62	0x379e5b42	1.8877563e-05
63	0x391384af	0.00014068441
64	0x00000000	0.0
65	0x390d58ef	0.00013479938
66	0xb7c1bac8	-2.309437e-05
67	0x00000000	0.0
68	0xb91c9acd	-0.00014934987
69	0xb8f330cf	-0.00011596234
70	0x00000000	0.0
71	0x384055e9	4.5856377e-05
72	0xb7d2c4e5	-2.5125637e-05
73	0x00000000	0.0
74	0xb8aaf3aa	-8.151618e-05
75	0xb889eff5	-6.5773645e-05
76	0x00000000	0.0
77	0x37c24485	2.3158509e-05
78	0x38b11848	8.4445404e-05
79	0x00000000	0.0
80	0xb9197c86	-0.00014637606
81	0xb95df25c	-0.00021166488
82	0x00000000	0.0
83	0xb919bc2d	-0.00014661318
84	0xb8f1a736	-0.00011522921
85	0x00000000	0.0
86	0x38f8b845	0.000118598844
87	0x3916651c	0.00014342781
88	0x00000000	0.0
89	0x390ffbf7	0.00013731407
90	0xb888944e	-6.512609e-05
91	0x00000000	0.0
92	0x38ea682e	0.000111773945
93	0x38e515bd	0.0001092362
94	0x00000000	0.0
95	0x385dba07	5.2863757e-05
96	0x37a90511	2.014873e-05
97	0x00000000	0.0
98	0x37844523	1.576782e-05
99	0xb881174f	-6.155541e-05
100	0x00000000	0.0
101	0x384dc3f4	4.9058304e-05
102	0xb5659525	-8.552618e-07
103	0x00000000	0.0
104	0xb84d5a7c	-4.896008e-05
105	0xb86edb8e	-5.6948098e-05
106	0x00000000	0.0
107	0xb8a6f6e5	-7.9614845e-05
108	0xb7862153	-1.5989563e-05
109	0x00000000	0.0
110	0xb91f44dc	-0.00015189074
111	0xb958d598	-0.00020678935
112	0x00000000	0.0
113	0xb6b908d1	-5.514456e-06
114	0xb99df99b	-0.00030131344
115	0x00000000	0.0
116	0x395adbb7	0.0002087195
117	0x3a101257	0.0005495897
118	0x00000000	0.0
119	0x39af925f	0.00033487656
120	0xb6deae8a	-6.6364346e-06
121	0x00000000	0.0
122	0xb75c91eb	-1.3146996e-05
123	0x3800c265	3.0698622e-05
124	0x00000000	0.0
125	0x37ef50ab	2.8528584e-05
126	0xb78d3103	-1.6831333e-05
127	0x00000000	0.0
128	0x368ae75f	4.1396556e-06
129	0x375f35be	1.3304349e-05
130	0x00000000	0.0
131	0x379805b9	1.8122477e-05
132	0xb69948f7	-4.5682496e-06
133	0x00000000	0.0
134	0xb77e3fce	-1.51544355e-05
135	0xb76bdd84	-1.4058667e-05
136	0x00000000	0.0
137	0x3802d93d	3.1196734e-05
138	0xb8de8c92	-0.00010611968
139	0x00000000	0.0
140	0xb7812dfb	-1.539941e-05
141	0x3998a8d6	0.00029117492
142	0x00000000	0.0
143	0x3905878a	0.0001273436
144	0xb6c95772	-6.000447e-06
145	0x00000000	0.0
146	0xb6b3d104	-5.3589483e-06
147	0x3713de4a	8.8136385e-06
148	0x00000000	0.0
149	0xb69c55ae	-4.6591367e-06
150	0xb90d2a08	-0.00013462466
151	0x00000000	0.0
152	0x38cf8c71	9.8966884e-05
153	0x395ad650	0.00020869938
154	0x00000000	0.0
155	0x3962bd83	0.00021623638
156	0xb7195823	-9.140032e-06
157	0x00000000	0.0
158	0x38c60ec1	9.444124e-05
159	0x388ade66	6.621778e-05
160	0x00000000	0.0
161	0x3891c829	6.9514215e-05
162	0xb8d99341	-0.000103747945
163	0x00000000	0.0
164	0xb79cd28b	-1.869469e-05
165	0x383ffdd1	4.5774334e-05
166	0x00000000	0.0
167	0x376c233a	1.4074898e-05
168	0x38605ccf	5.3492196e-05
169	0x00000000	0.0
170	0xb86bff4d	-5.6266133e-05
171	0xb86bf903	-5.6260276e-05
172	0x00000000	0.0
173	0x36a8a31b	5.025778e-06
174	0xb72e8942	-1.0403166e-05
175	0x00000000	0.0
176	0xb8bd7fee	-9.036051e-05
177	0xb71f1ded	-9.484106e-06
178	0x00000000	0.0
179	0xb801f8d5	-3.098774e-05
180	0x392048bc	0.00015285885
181	0x00000000	0.0
182	0xb9a7b54d	-0.00031987802
183	0xb9ba762a	-0.00035564724
184	0x00000000	0.0
185	0xb8c1abbe	-9.2349466e-05
186	0xb77abf3a	-1.4945685e-05
187	0x00000000	0.0
188	0xb78af3f8	-1.6564489e-05
189	0x36918b30	4.3375403e-06
190	0x00000000	0.0
191	0xb8670cf8	-5.508677e-05
192	0xb74cabf1	-1.2199381e-05
193	0x00000000	0.0
194	0x35969971	1.1220528e-06
195	0x380a13d5	3.2920234e-05
196	0x00000000	0.0
197	0xb7cc2f81	-2.4340816e-05
198	0xb9230b2a	-0.0001554905
199	0x00000000	0.0
200	0x3936bfe8	0.00017428363
201	0x396eb4ee	0.0002276485
202	0x00000000	0.0
203	0x397f040a	0.000243202
204	0x37bebb2f	2.273693e-05
205	0x00000000	0.0
206	0xb9277ebf	-0.00015973578
207	0xb87bf6c1	-6.007287e-05
208	0x00000000	0.0
209	0xb81bb646	-3.7124635e-05
210	0xb6728f70	-3.6144302e-06
211	0x00000000	0.0
212	0xb6b18064	-5.2899577e-06
213	0xb6bab6ee	-5.564528e-06
214	0x00000000	0.0
215	0x35ef0a04	1.7809803e-06
216	0xb8886a02	-6.504731e-05
217	0x00000000	0.0
218	0xb918bcb0	-0.00014566141
219	0xb7a677ac	-1.9844469e-05
220	0x00000000	0.0
221	0xb72f0215	-1.0431298e-05
222	0xb5a5930a	-1.2336252e-06
223	0x00000000	0.0
224	0x36213dfa	2.4026945e-06
225	0xb7971833	-1.8011871e-05
226	0x00000000	0.0
227	0x37d63fdf	2.554053e-05
228	0x37e97786	2.7831422e-05
229	0x00000000	0.0
230	0xb7c96b7e	-2.4011122e-05
231	0xb805b170	-3.1874923e-05
232	0x00000000	0.0
233	0xb7ca3b73	-2.410796e-05
234	0xb7fc48d9	-3.0074663e-05
235	0x00000000	0.0
236	0xb958ada0	-0.00020664046
237	0xb7f2ad83	-2.8929446e-05
238	0x00000000	0.0
239	0x38ad09fc	8.2511426e-05
240	0xb5ac3c30	-1.2832515e-06
241	0x00000000	0.0
242	0xb82e3f41	-4.1543743e-05
243	0xb69ad16e	-4.6139385e-06
244	0x00000000	0.0
245	0x3673d75c	3.6335177e-06
246	0xb8729311	-5.7834262e-05
247	0x00000000	0.0
248	0xb87a219f	-5.9635957e-05
249	0x379708b7	1.800466e-05
250	0x00000000	0.0
251	0x38675532	5.5154036e-05
252	0xb685e56d	-3.9904176e-06
253	0x00000000	0.0
254	0xb84ca48f	-4.8790647e-05
255	0xb7796854	-1.4865847e-05

exp_avg_sq f4 [128, 6]
0	0x3477b4c5	2.3069431e-07
1	0x00000000	0.0
2	0x343fe944	1.7873123e-07
3	0x33b35e03	8.352438e-08
4	0x00000000	0.0
5	0x3389aab2	6.410609e-08
6	0x337b0192	5.844192e-08
7	0x00000000	0.0
8	0x34768a9c	2.2960961e-07
9	0x3435be80	1.6926242e-07
10	0x00000000	0.0
11	0x3458a422	2.0176279e-07
12	0x34ac1ca7	3.2058344e-07
13	0x00000000	0.0
14	0x3459bfdb	2.0279496e-07
15	0x3606b73c	2.0074212e-06
16	0x00000000	0.0
17	0x357c7a0a	9.4054906e-07
18	0x355188d2	7.8057667e-07
19	0x00000000	0.0
20	0x35a9e077	1.2656809e-06
21	0x368e38ad	4.2385277e-06
22	0x00000000	0.0
23	0x3617c563	2.2615648e-06
24	0x34626c9a	2.1087399e-07
25	0x00000000	0.0
26	0x34d64896	3.991342e-07
27	0x35153b72	5.559333e-07
28	0x00000000	0.0
29	0x34c58c1f	3.679606e-07
30	0x33060288	3.120161e-08
31	0x00000000	0.0
32	0x3409f14c	1.2846903e-07
33	0x33b750b0	8.5362785e-08
34	0x00000000	0.0
35	0x33c1e2d6	9.028524e-08
36	0x33dc16a3	1.0248666e-07
37	0x00000000	0.0
38	0x3403736c	1.2242316e-07
39	0x344a7f9a	1.8859137e-07
40	0x00000000	0.0
41	0x3421d25c	1.5070822e-07
42	0x3351b643	4.882737e-08
43	0x00000000	0.0
44	0x3403fe40	1.2292821e-07
45	0x338e5717	6.628232e-08
46	0x00000000	0.0
47	0x3386ef8e	6.283436e-08
48	0x33d4b3a8	9.9046986e-08
49	0x00000000	0.0
50	0x3464ecd5	2.1320314e-07
51	0x33f49032	1.13883644e-07
52	0x00000000	0.0
53	0x341a3f24	1.4365338e-07
54	0x35201515	5.9635323e-07
55	0x00000000	0.0
56	0x354ca30a	7.6233175e-07
57	0x362ecb0f	2.6046216e-06
58	0x00000000	0.0
59	0x35c2436d	1.447375e-06
60	0x33a89194	7.84959e-08
61	0x00000000	0.0
62	0x33d56029	9.936077e-08
63	0x3442eb72	1.8153312e-07
64	0x00000000	0.0
65	0x33fc0a19	1.1736501e-07
66	0x33b62e27	8.4834305e-08
67	0x00000000	0.0
68	0x340fe47e	1.3401038e-07
69	0x338bbad4	6.506676e-08
70	0x00000000	0.0
71	0x32a4bed8	1.9178898e-08
72	0x3381744f	6.028187e-08
73	0x00000000	0.0
74	0x33ee20eb	1.10887264e-07
75	0x33aa0bc5	7.918383e-08
76	0x00000000	0.0
77	0x33a1c026	7.532098e-08
78	0x34203814	1.4921562e-07
79	0x00000000	0.0
80	0x345396f2	1.970582e-07
81	0x3443a0f7	1.8219349e-07
82	0x00000000	0.0
83	0x341c2055	1.4540394e-07
84	0x33b64ab6	8.488625e-08
85	0x00000000	0.0
86	0x3397b151	7.063739e-08
87	0x3504da15	4.9491183e-07
88	0x00000000	0.0
89	0x34597cb9	2.0255074e-07
90	0x34a491f5	3.0653578e-07
91	0x00000000	0.0
92	0x34b4dc0b	3.3687715e-07
93	0x34f855e8	4.6256105e-07
94	0x00000000	0.0
95	0x348bfd5d	2.6075114e-07
96	0x346699b4	2.1476336e-07
97	0x00000000	0.0
98	0x3403258e	1.2213988e-07
99	0x353a54ef	6.9413994e-07
100	0x00000000	0.0
101	0x34bb8b3e	3.4932776e-07
102	0x33cbe6b8	9.4948916e-08
103	0x00000000	0.0
104	0x3448a4f5	1.8686463e-07
105	0x33f26bfe	1.1288647e-07
106	0x00000000	0.0
107	0x341bf8db	1.4526033e-07
108	0x34952aee	2.7784648e-07
109	0x00000000	0.0
110	0x351d1ee1	5.853199e-07
111	0x34736f8f	2.2671723e-07
112	0x00000000	0.0
113	0x340a7842	1.2896001e-07
114	0x34e81615	4.3229434e-07
115	0x00000000	0.0
116	0x351089a6	5.3844485e-07
117	0x360c55db	2.09116e-06
118	0x00000000	0.0
119	0x358fc19a	1.0710676e-06
120	0x33321fa3	4.1472628e-08
121	0x00000000	0.0
122	0x32f8d6b0	2.8968628e-08
123	0x342e6049	1.6240041e-07
124	0x00000000	0.0
125	0x33b187ce	8.2669075e-08
126	0x32f41769	2.8415984e-08
127	0x00000000	0.0
128	0x3311d82a	3.3957043e-08
129	0x32f8cf9a	2.8965406e-08
130	0x00000000	0.0
131	0x32b38284	2.0897694e-08
132	0x32fdc699	2.9543388e-08
133	0x00000000	0.0
134	0x33a25bbd	7.5604e-08
135	0x334a4c79	4.710134e-08
136	0x00000000	0.0
137	0x33839f29	6.129114e-08
138	0x343d16df	1.7610317e-07
139	0x00000000	0.0
140	0x3433da6e	1.6750138e-07
141	0x3559ed39	8.1184004e-07
142	0x00000000	0.0
143	0x348d39fa	2.630548e-07
144	0x32be2bd1	2.2138837e-08
145	0x00000000	0.0
146	0x32d787b7	2.509101e-08
147	0x326a3cbe	1.3634404e-08
148	0x00000000	0.0
149	0x32466607	1.1548315e-08
150	0x34389ae4	1.7192684e-07
151	0x00000000	0.0
152	0x342433ad	1.529249e-07
153	0x34975d3e	2.8193784e-07
154	0x00000000	0.0
155	0x347e665f	2.3692836e-07
156	0x33d520bc	9.92454e-08
157	0x00000000	0.0
158	0x3461707d	2.0995681e-07
159	0x345cfebc	2.0581768e-07
160	0x00000000	0.0
161	0x342e7376	1.6247017e-07
162	0x348a3b67	2.5747724e-07
163	0x00000000	0.0
164	0x34cac6a0	3.776995e-07
165	0x3533e22b	6.7011814e-07
166	0x00000000	0.0
167	0x34bec45a	3.5533122e-07
168	0x3477ff81	2.309662e-07
169	0x00000000	0.0
170	0x3502e4e6	4.8761865e-07
171	0x34e06aa5	4.1800845e-07
172	0x00000000	0.0
173	0x3489c3cd	2.5660702e-07
174	0x34337574	1.6713403e-07
175	0x00000000	0.0
176	0x350ecea6	5.3199835e-07
177	0x3441d576	1.8052182e-07
178	0x00000000	0.0
179	0x34bd37e0	3.5244648e-07
180	0x3401d605	1.2091921e-07
181	0x00000000	0.0
182	0x346a225d	2.180545e-07
183	0x350e747c	5.306863e-07
184	0x00000000	0.0
185	0x34b6ae9f	3.4027195e-07
186	0x342d925f	1.616513e-07
187	0x00000000	0.0
188	0x3452555a	1.9588825e-07
189	0x34c9e829	3.7608086e-07
190	0x00000000	0.0
191	0x3468429f	2.163092e-07
192	0x34e1e203	4.207396e-07
193	0x00000000	0.0
194	0x34ae6fed	3.2491462e-07
195	0x350cf88a	5.2515736e-07
196	0x00000000	0.0
197	0x3509f622	5.139465e-07
198	0x342982c5	1.5786925e-07
199	0x00000000	0.0
200	0x3401bbca	1.2082378e-07
201	0x355415f0	7.900808e-07
202	0x00000000	0.0
203	0x34c64393	3.692954e-07
204	0x3435c7f3	1.692968e-07
205	0x00000000	0.0
206	0x344c3d48	1.9021275e-07
207	0x34b9f857	3.4639626e-07
208	0x00000000	0.0
209	0x34565b55	1.996353e-07
210	0x3220ae3f	9.352845e-09
211	0x00000000	0.0
212	0x323aaa50	1.08653495e-08
213	0x32230edd	9.491228e-09
214	0x00000000	0.0
215	0x321490c6	8.6476515e-09
216	0x349e2fee	2.9464667e-07
217	0x00000000	0.0
218	0x358819c6	1.0140291e-06
219	0x34cc5e94	3.8066776e-07
220	0x00000000	0.0
221	0x350fb05c	5.352829e-07
222	0x3315962e	3.4828354e-08
223	0x00000000	0.0
224	0x337f6d17	5.947103e-08
225	0x330d1771	3.285044e-08
226	0x00000000	0.0
227	0x3349678b	4.689313e-08
228	0x33166754	3.5018573e-08
229	0x00000000	0.0
230	0x330edf9d	3.3265326e-08
231	0x33d1c237	9.7676484e-08
232	0x00000000	0.0
233	0x332bea9c	4.0027416e-08
234	0x3332d408	4.1636696e-08
235	0x00000000	0.0
236	0x344baff3	1.8969858e-07
237	0x3431c99d	1.6557756e-07
238	0x00000000	0.0
239	0x340b9b73	1.3001936e-07
240	0x3372c3f1	5.6523223e-08
241	0x00000000	0.0
242	0x3401773b	1.2057437e-07
243	0x3382c248	6.088936e-08
244	0x00000000	0.0
245	0x3328beb9	3.928901e-08
246	0x3491b79e	2.7141954e-07
247	0x00000000	0.0
248	0x3500f30e	4.8037407e-07
249	0x34310e42	1.6489597e-07
250	0x00000000	0.0
251	0x349c379e	2.909773e-07
252	0x336c62a9	5.5037763e-08
253	0x00000000	0.0
254	0x33455d1d	4.5952323e-08
255	0x336c85b3	5.506963e-08
