results/ppo/Seek/Seek-3520.pt (torch, 151304 bytes, 14 tensors)

network_body._body_endoder.seq_layers.0.weight f4 [128, 6]
000000 84 a8 1e bb 28 9c 31 3d 7b 0f 1b be f7 58 c9 bd
       -0.002420933 0.043361813 -0.15142624 -0.09831422
000010 ee fb 8f 3e 48 ed 96 be 4e 4b 0b bf f1 20 ad 3e
       0.28121895 -0.29477906 -0.5441178 0.33814195
000020 3f cb 99 3e 2f e6 a0 3d ba 12 3b bd b5 5e f4 be
       0.30037877 0.07856404 -0.045672156 -0.47728506
000030 d0 c4 24 3e 57 9e 02 bd c0 26 0a 3f cb 49 75 be
       0.16090703 -0.031889286 0.5396538 -0.23953931
000040 d4 bb 2e be cd 26 14 3e 0a 36 ee bd e4 10 24 bd
       -0.17063838 0.14467926 -0.11631401 -0.04005517
000050 7d e1 c1 be 9d 2f 6a 3e 1d 89 a9 bd eb 87 b6 be
       -0.37867346 0.22869726 -0.082781054 -0.35650572
000060 64 7b be 3e d7 ee bd 3e 9a 42 52 3e 71 a7 c6 bd
       0.37203515 0.37096283 0.20533219 -0.09699906
000070 b2 0a 46 3e 41 7f 15 3e 6f 7e e0 be 16 e8 7a be
       0.19340017 0.14599325 -0.4384646 -0.24502596
000080 74 4a e2 3e 81 32 c2 3d 5a 64 84 3d f0 a4 a2 bc
       0.44197428 0.09482289 0.06464453 -0.019854039
000090 52 1e 46 be c1 86 1d 3e b2 3f e3 be bc 66 00 3f
       -0.19347504 0.15383436 -0.44384533 0.5015676
0000a0 fd 7a dc 3d 33 94 2c be 56 0e 80 bd b8 c7 3f 3d
       0.10765646 -0.16853409 -0.06252734 0.046821326
0000b0 3c b2 0b bf 3a 28 27 3a bc 06 c4 3d de 1d 9a be
       -0.5456884 0.00063765387 0.09571597 -0.30100912
0000c0 4d 41 70 3e 03 e2 00 bc 30 74 05 be 23 63 b2 3e
       0.2346241 -0.007866385 -0.13032603 0.3484126
0000d0 ab c3 35 bc 60 b3 12 bd 1d 77 61 3e 7b 6d 40 be
       -0.011094014 -0.035815597 0.22018094 -0.18791763
0000e0 42 04 31 be b8 5c 81 3e cb ef f3 be 27 68 b7 be
       -0.1728678 0.2526605 -0.47643885 -0.3582165
0000f0 ea 40 0a 3f 61 56 a0 be 5d a8 31 bf f4 2f 96 bf
       0.540053 -0.31315902 -0.69397527 -1.1733384
000100 dd b1 a9 3e 65 30 57 3e 30 1c 35 3f 9f 86 ab be
       0.3314351 0.21014555 0.70746136 -0.33501145
000110 ff e0 aa be f6 4b 43 3e f2 9d eb 3e 66 72 0d be
       -0.33374783 0.19071946 0.4601894 -0.13813171
000120 86 67 a8 3e 53 a2 29 be 51 93 63 bf ee 0e b4 3e
       0.32891482 -0.16565828 -0.8889666 0.3516764
000130 52 08 0c be 3e 53 b6 3c 46 13 2b 3d ae 4e 14 bf
       -0.13675049 0.02225649 0.041766427 -0.57932556
000140 07 5d 2b 3e 61 6b ea be ce e1 14 3e 65 c2 17 3e
       0.16734706 -0.4578505 0.14539263 0.1482025
000150 f1 cc 35 3f e1 da 18 be 80 52 9b bd d4 67 d6 be
       0.7101584 -0.14927246 -0.07584095 -0.4187609
000160 3a cf 73 be 17 09 54 be 78 3c 9b 3e 8a 1b f1 be
       -0.2380952 -0.20706593 0.30319571 -0.47091323
000170 b5 c2 d3 bd 4f 02 44 3f f8 db f0 be f2 ce 68 3e
       -0.10339872 0.7656602 -0.47042823 0.22735193
000180 54 73 83 be f1 28 44 3f dd 29 86 3e 0b 4f 88 be
       -0.25673926 0.7662497 0.26203814 -0.26622805
000190 36 44 66 bd da dc e1 3e 7b 96 61 bf 6b 1a 84 3e
       -0.056217395 0.4411381 -0.8812024 0.25801405
0001a0 53 f4 66 be df 66 cf be b6 fa 64 bf 1c 50 f8 3e
       -0.2255414 -0.40508172 -0.89445055 0.4849862
0001b0 18 7f f8 3e 47 ee e8 bd 42 31 a2 be 8e c4 16 3e
       0.48534465 -0.11373573 -0.31678206 0.14723417
0001c0 08 a1 86 3e 38 bd dc 3c 6a bb 6e 3e 09 3d 1f be
       0.26294732 0.026945695 0.2331368 -0.15550627
0001d0 1f de 0b bf 07 62 35 be 99 29 7b 3d 7c 98 11 be
       -0.54635805 -0.17713176 0.061318967 -0.14218324
0001e0 d2 dd e6 bd ed e4 c1 be 5d 42 a3 3d 4c 86 f6 3e
       -0.112727776 -0.3786997 0.07971642 0.48149335
0001f0 42 d9 35 bf 53 44 3d bf 49 e7 04 bf 2e 3d 47 be
       -0.71034634 -0.7393238 -0.51915413 -0.19456932
000200 91 2e 17 bf 2b 9e ec 3e 62 f4 82 3e ea 8a 32 bf
       -0.5905543 0.46214423 0.25577074 -0.69743216
000210 c0 60 42 3f 40 26 ff bd c9 9e dd 3d 26 3f ee bd
       0.7592888 -0.124584675 0.108213015 -0.11633138
000220 38 18 9a bd 33 f7 ae be 05 9f 10 3f 2e a0 2b be
       -0.075241506 -0.34172973 0.56492645 -0.16760322
000230 d2 0e 66 bf 60 ca 54 3e 17 c1 ce 3e cb 5b 41 3d
       -0.89866364 0.20780325 0.4038169 0.04720668
000240 34 e0 c8 bd 51 dc 24 3f 3d a7 1a 3f d0 0e 76 bf
       -0.09808388 0.64398676 0.60411435 -0.9611635
000250 ec f0 35 be e3 5f a0 3e 4e 23 41 3d 9d 5c 47 3d
       -0.17767686 0.31323156 0.04715281 0.048672307
000260 4c c4 8e 3e e0 d5 18 3f f2 92 4e bc 94 65 04 3f
       0.27884138 0.5970135 -0.012608277 0.51717496
000270 4e 1a 75 be 08 1c 8b 3e c1 04 ba 3e ca 6c 39 bf
       -0.23935816 0.27169824 0.36331752 -0.72431624
000280 be 7f 32 3f cb 64 05 3f 66 a1 15 be 10 e5 5a 3d
       0.6972617 0.5210692 -0.1461235 0.053441107
000290 98 82 ac be ee c2 90 3e 7e 58 3e be fc b0 0c 3e
       -0.33693385 0.2827372 -0.18588445 0.13739389
0002a0 1e 27 97 3e 82 d8 18 3e 63 33 64 bc 7a 94 29 be
       0.29522032 0.14926341 -0.013928267 -0.16560546
0002b0 13 ad 58 3e a4 5e 24 be 6e 59 d9 bc 8a 91 1a be
       0.21159773 -0.16051728 -0.026531901 -0.15094581
0002c0 46 a4 f4 be 1f e2 16 be 58 79 a3 bd b2 67 41 bc
       -0.4778158 -0.14734696 -0.07982129 -0.011804508
0002d0 17 ff e7 bc d1 97 83 3f c8 4b 08 bf be 43 02 3e
       -0.028319879 1.0280706 -0.53240633 0.12721154
0002e0 f0 b6 b1 3e fb ab 34 bd bf eb b4 3e 14 bf 87 be
       0.34709883 -0.044109326 0.3533611 -0.2651297
0002f0 ac 88 0f 3f c8 df 10 3f 10 a0 c3 be 7d 45 96 3e
       0.5606792 0.56591463 -0.38208055 0.2934989
000300 0c e1 b4 be d7 81 b0 bd a6 8d b0 3f 74 3e 7a be
       -0.35327947 -0.08618515 1.3793228 -0.24437886
000310 0c ee 0a bd b3 22 11 be 93 92 b0 bd 43 7a b9 3d
       -0.033918425 -0.14173393 -0.08621707 0.09056523
000320 22 c0 ab 3d 4e 47 0d bf 96 67 26 be 4d 2b 8a bd
       0.08386256 -0.5518693 -0.16250452 -0.0674654
000330 ff 0c 1a bd ca c9 1c 3e 04 86 8c 3e 89 c2 c7 3e
       -0.03761005 0.15311351 0.27445996 0.39015606
000340 06 02 8f bd b4 20 27 be 5f 23 27 be 44 e7 b4 3d
       -0.06982808 -0.16321069 -0.16322087 0.08833173
000350 62 93 06 be e4 7b 3f be 26 3b c2 3e 33 96 9c 3e
       -0.1314216 -0.18699604 0.37935752 0.30583343
000360 5b 29 5a bf b8 f5 7a be 61 0c 62 3f 2c cb 4a be
       -0.85219353 -0.24507797 0.8830014 -0.19804066
000370 00 eb 03 3f f1 24 e3 3f 32 fe ba be 88 e6 f7 bd
       0.51530457 1.7745649 -0.3652206 -0.12104517
000380 00 b3 68 3e e8 99 39 bd ee 22 db bd 57 84 1a 3e
       0.22724533 -0.045312792 -0.10700022 0.15089546
000390 65 4e dc bd 70 1e f0 3d 5e 51 11 3f b9 8c 11 bf
       -0.1075714 0.117245555 0.5676478 -0.5685535
0003a0 ae b4 43 bd 3d 24 8e 3e 3d 24 13 bf 6c d4 a3 be
       -0.04777973 0.27762023 -0.5747717 -0.31998003
0003b0 67 c0 7e bd fb 74 7c 3e ef bd 76 3d 3f 46 f5 bc
       -0.062195208 0.24654 0.06023973 -0.029940723
0003c0 96 91 24 3e e6 70 1f bc 2f e9 77 be 65 e6 1e 3f
       0.16071162 -0.009731507 -0.24210046 0.62070304
0003d0 e5 6b 15 3f af 70 d8 bd 6c 2e 5f be 96 37 b1 bc
       0.5836776 -0.10568368 -0.21795052 -0.02163295
0003e0 67 9d 38 3e 1e e3 9f be 0d ea 93 bd da 11 b5 3e
       0.18028794 -0.31227964 -0.07222376 0.35365182
0003f0 c7 51 91 3e f3 09 12 bf 1c 65 8d be 5d 83 d3 be
       0.28382704 -0.5704643 -0.27616203 -0.4131116

network_body._body_endoder.seq_layers.0.bias f4 [128]
000000 00 00 00 00 00 00 00 00 00 00 00 00 00 00 00 00
       0.0 0.0 0.0 0.0
000010 00 00 00 00 00 00 00 00 00 00 00 00 00 00 00 00
       0.0 0.0 0.0 0.0
000020 00 00 00 00 00 00 00 00 00 00 00 00 00 00 00 00
       0.0 0.0 0.0 0.0
000030 00 00 00 00 00 00 00 00 00 00 00 00 00 00 00 00
       0.0 0.0 0.0 0.0
000040 00 00 00 00 00 00 00 00 00 00 00 00 00 00 00 00
       0.0 0.0 0.0 0.0
000050 00 00 00 00 00 00 00 00 00 00 00 00 00 00 00 00
       0.0 0.0 0.0 0.0
000060 00 00 00 00 00 00 00 00 00 00 00 00 00 00 00 00
       0.0 0.0 0.0 0.0
000070 00 00 00 00 00 00 00 00 00 00 00 00 00 00 00 00
       0.0 0.0 0.0 0.0
000080 00 00 00 00 00 00 00 00 00 00 00 00 00 00 00 00
       0.0 0.0 0.0 0.0
000090 00 00 00 00 00 00 00 00 00 00 00 00 00 00 00 00
       0.0 0.0 0.0 0.0
0000a0 00 00 00 00 00 00 00 00 00 00 00 00 00 00 00 00
       0.0 0.0 0.0 0.0
0000b0 00 00 00 00 00 00 00 00 00 00 00 00 00 00 00 00
       0.0 0.0 0.0 0.0
0000c0 00 00 00 00 00 00 00 00 00 00 00 00 00 00 00 00
       0.0 0.0 0.0 0.0
0000d0 00 00 00 00 00 00 00 00 00 00 00 00 00 00 00 00
       0.0 0.0 0.0 0.0
0000e0 00 00 00 00 00 00 00 00 00 00 00 00 00 00 00 00
       0.0 0.0 0.0 0.0
0000f0 00 00 00 00 00 00 00 00 00 00 00 00 00 00 00 00
       0.0 0.0 0.0 0.0
000100 00 00 00 00 00 00 00 00 00 00 00 00 00 00 00 00
       0.0 0.0 0.0 0.0
000110 00 00 00 00 00 00 00 00 00 00 00 00 00 00 00 00
       0.0 0.0 0.0 0.0
000120 00 00 00 00 00 00 00 00 00 00 00 00 00 00 00 00
       0.0 0.0 0.0 0.0
000130 00 00 00 00 00 00 00 00 00 00 00 00 00 00 00 00
       0.0 0.0 0.0 0.0
000140 00 00 00 00 00 00 00 00 00 00 00 00 00 00 00 00
       0.0 0.0 0.0 0.0
000150 00 00 00 00 00 00 00 00 00 00 00 00 00 00 00 00
       0.0 0.0 0.0 0.0
000160 00 00 00 00 00 00 00 00 00 00 00 00 00 00 00 00
       0.0 0.0 0.0 0.0
000170 00 00 00 00 00 00 00 00 00 00 00 00 00 00 00 00
       0.0 0.0 0.0 0.0
000180 00 00 00 00 00 00 00 00 00 00 00 00 00 00 00 00
       0.0 0.0 0.0 0.0
000190 00 00 00 00 00 00 00 00 00 00 00 00 00 00 00 00
       0.0 0.0 0.0 0.0
0001a0 00 00 00 00 00 00 00 00 00 00 00 00 00 00 00 00
       0.0 0.0 0.0 0.0
0001b0 00 00 00 00 00 00 00 00 00 00 00 00 00 00 00 00
       0.0 0.0 0.0 0.0
0001c0 00 00 00 00 00 00 00 00 00 00 00 00 00 00 00 00
       0.0 0.0 0.0 0.0
0001d0 00 00 00 00 00 00 00 00 00 00 00 00 00 00 00 00
       0.0 0.0 0.0 0.0
0001e0 00 00 00 00 00 00 00 00 00 00 00 00 00 00 00 00
       0.0 0.0 0.0 0.0
0001f0 00 00 00 00 00 00 00 00 00 00 00 00 00 00 00 00
       0.0 0.0 0.0 0.0

network_body._body_endoder.seq_layers.2.weight f4 [128, 128]
000000 f4 d1 84 bd f2 fe 9d bd 97 72 1d 3d 11 b0 16 bd
       -0.06485358 -0.077146426 0.03843936 -0.036789004
000010 7a b7 86 3c d4 4e 09 be 7e 64 a2 bd b3 cf 9b bd
       0.01644491 -0.13408977 -0.079293236 -0.07607975
000020 54 99 b1 bd 4a c9 f7 bd 83 05 27 bd f3 28 16 bd
       -0.08671823 -0.1209894 -0.04077674 -0.036660146
000030 6a 84 13 3e c9 5d 47 3d 57 0f a6 3c 52 0a e9 bc
       0.1440598 0.048673425 0.020270986 -0.028447304
000040 c7 04 1a 3c e8 96 f6 3d 8a 6d 85 3d b8 f5 ec bd
       0.009400553 0.12040502 0.065150335 -0.11570305
000050 57 47 58 3c 58 70 7c 3d 65 1c 1f 3e b9 7c a6 bd
       0.0132006025 0.061630577 0.15538175 -0.08129258
000060 fc 5b c7 bd 39 09 e9 3d 3e 84 29 3e 67 2a f2 3b
       -0.097343415 0.11378712 0.16554353 0.0073903087
000070 92 bf 15 3e c0 9b 60 3d 8f 7d 16 3d 65 ac ea bd
       0.1462386 0.054836035 0.036740836 -0.11458663
000080 a9 7f 9c 3c a1 a9 0a bd fd 0f a3 bc ea 1e 95 bd
       0.019103842 -0.033853177 -0.019905085 -0.07281287
000090 0f fa 8b 3c 0a af c3 3c 99 cf 2a 3d e3 dd 37 3d
       0.01708701 0.023887176 0.041701887 0.044889342
0000a0 3a bf c3 bc 40 38 38 bb ae 61 87 ba 94 38 98 3d
       -0.023894895 -0.00281097 -0.0010328793 0.074326664
0000b0 25 97 fa bc f8 c9 42 3d a5 f7 e2 3d e8 b2 c6 bc
       -0.03058965 0.047555894 0.11082391 -0.024255231
0000c0 e9 ba a6 3d 10 e2 0e 3e f0 fa 8f 3b 51 8d f2 bb
       0.08141119 0.13953424 0.0043939278 -0.0074021
0000d0 02 af b8 bd 54 78 49 be 55 6f 63 bb a6 3e 1e 3d
       -0.09017755 -0.19674808 -0.003470381 0.038633965
0000e0 ac c1 95 3d dc d5 ca 3d 90 40 4a bd b8 3c 2e 3e
       0.073123306 0.09904072 -0.049377978 0.1701535
0000f0 a6 61 d0 3d c3 36 4e bd f7 ad cb 3d c7 9b 43 3d
       0.10174875 -0.050345194 0.099452905 0.047755983
000100 75 92 ac bc 5c 9f d5 3d 4b 73 e1 bd 93 ea 1d 3e
       -0.02106593 0.10430786 -0.110083185 0.15421514
000110 81 7c b4 bd 73 44 83 bd 63 dc fa 3d 41 ba 9d 3c
       -0.0881281 -0.0640954 0.12249067 0.019253852
000120 d2 f1 b8 bd 59 4a 66 3d 6b 58 bd 3c 4c 45 94 3c
       -0.090304986 0.056223247 0.02311345 0.01809945
000130 a8 a6 8f bd 9c 9b 12 3e d4 7f 7d bd bb 91 cc 3c
       -0.07014209 0.14317173 -0.061889485 0.024971833
000140 8a 1b e5 3b 83 e3 2d bc 34 e1 1b 3e 58 5f 8b bc
       0.0069918083 -0.010613325 0.15222627 -0.017013237
000150 51 8e 9b 3b c5 2d 34 3d f5 f2 0f 3d 59 25 33 3e
       0.00474719 0.04398896 0.03514381 0.17494716
000160 f2 27 2b 3e b1 09 b2 bd ed 4e b5 3d d4 55 0f 3d
       0.16714457 -0.08693255 0.088529445 0.03499396
000170 5e af ce 3d a5 42 8a 3d 73 19 05 bd cf 6e be 3d
       0.100920424 0.06750993 -0.032494973 0.09298479
000180 1f 52 d4 3d ff ef 1f 3d 34 df d0 bd d9 e9 8b bd
       0.10367226 0.039047237 -0.101988226 -0.06831712
000190 1a 1d 58 3d 14 a6 c5 3d 29 31 f5 bb dc d2 c1 3a
       0.05276213 0.096508175 -0.007482667 0.0014787572
0001a0 fe 8e 96 3b 00 c8 af bc b0 32 09 3e 26 b5 a4 3b
       0.0045946827 -0.021457672 0.13398242 0.0050264774
0001b0 91 f6 ad bc d0 54 d4 bc 8b 7d c3 3d 54 65 d1 bd
       -0.021235736 -0.025919348 0.0954543 -0.10224405
0001c0 ee 96 97 3d 1c 78 61 3d 19 e5 15 3e ec 0c b4 be
       0.074018344 0.055046186 0.14638175 -0.3516611
0001d0 20 bf 1d bc 5e a6 a3 bd 1f 7c 85 3c 3a 98 de bc
       -0.009628087 -0.079907164 0.016294537 -0.027172197
0001e0 1d 6e bd 3c c7 7e d0 3c 7d c0 48 bd 4c 91 c8 bd
       0.023123795 0.025451077 -0.049011696 -0.09793338
0001f0 e7 79 32 bd 77 be ad 3c b9 f0 c0 3d ef 65 bb bd
       -0.043573286 0.021208985 0.09420914 -0.09150302
000200 11 19 c7 bb f8 f3 ca bc 52 73 f2 38 3f df 58 be
       -0.006075986 -0.024774536 0.00011560939 -0.21178912
000210 bd f2 8e bd a0 7b a0 bd 84 55 b5 3d db 66 77 bd
       -0.069798924 -0.078360796 0.088542014 -0.060400825
000220 40 72 eb bd 41 a1 f5 bc 95 a8 eb bd a8 8a f9 3c
       -0.11496401 -0.029984118 -0.11506764 0.030461624
000230 a7 80 d3 3d 76 39 eb 3b 6d de 38 3e 46 e3 d8 3c
       0.10327273 0.0071784807 0.18053599 0.02647556
000240 2e 25 03 3d 7e 28 a5 3d 16 57 d4 3c 57 4f 53 bd
       0.03201788 0.08064364 0.025920432 -0.051589336
000250 3b ec d6 bd 69 bc 58 bd b4 fd d0 bd ba 13 87 3d
       -0.10494276 -0.052914057 -0.1020464 0.065955594
000260 16 68 ff bd 3e 16 ae 3d a8 90 ab bd 20 2a 8a bb
       -0.12471025 0.08500336 -0.083772 -0.0042164475
000270 fa e2 a6 3d 1b b7 5c bb a3 74 d1 bd 11 eb 68 3c
       0.08148761 -0.0033678475 -0.10227325 0.0142162
000280 9c e3 d9 3d f0 f9 19 3e 39 7f 59 bd 75 15 e1 bd
       0.10639116 0.1503675 -0.053099845 -0.10990421
000290 3f d4 9f bd 88 4a 8c bd b3 e3 88 bc ef fe b7 bd
       -0.078041546 -0.06850153 -0.016710138 -0.089841716
0002a0 aa bf 0e bc 45 32 76 bc 8a 63 8b 3d a4 cb 16 bd
       -0.008712688 -0.015026634 0.06806095 -0.0368153
0002b0 ac 25 13 3e 83 00 71 bc fb fd 63 3d d8 e3 5c ba
       0.1436984 -0.014709595 0.055662137 -0.00084262853
0002c0 5a ad 6d bd ed 56 cc 3d 65 f7 7a ba d4 fc 35 3e
       -0.05802665 0.09977517 -0.0009573608 0.17772228
0002d0 00 be 5e bc bb 0e 11 3d 13 ae 73 39 e9 86 12 3e
       -0.013595104 0.03541444 0.00023239134 0.14309277
0002e0 48 09 b3 bd 13 73 03 bd 3b 2e b2 3d 43 cf 92 3d
       -0.08742005 -0.032092165 0.08700224 0.07168438
0002f0 5f 19 53 bc b1 77 a3 3c f4 36 0d be 7e 1e 2c bd
       -0.012884467 0.019954534 -0.13790494 -0.042021267
000300 b4 68 be bc fc eb de bc 9a 40 80 3d b5 f4 23 be
       -0.023243286 -0.027212135 0.06262322 -0.16011317
000310 b0 da f4 3d 3f c2 b9 bd 46 cc 08 bd 69 5b 03 3c
       0.11955774 -0.090702526 -0.033397935 0.008017399
000320 3d e3 3d be 7d 18 c8 3c 29 54 2d 3e b5 d6 a9 3c
       -0.18543716 0.02442574 0.16926636 0.020732263
000330 e8 2f 39 3d da 41 d3 3d 21 16 d8 3d 38 21 e9 3d
       0.045211703 0.103152946 0.10551096 0.11383289
000340 e0 0c a8 bd 62 a4 05 3e de 2b 45 3a 2d 07 4d 3d
       -0.08205581 0.13050988 0.00075214903 0.05005567
000350 fa 59 1c bb 5c 66 12 bc 7b 10 9b bd 64 f4 2a be
       -0.002385734 -0.008935537 -0.07571503 -0.1669479
000360 eb 17 32 bd d8 7a 92 bd 2d 51 52 3d 13 dd 6f 3c
       -0.04347984 -0.07152337 0.051346947 0.014640111
000370 6c 4a 56 3c 5f 94 d3 bd 7f 0f 00 be ca cd ed 3a
       0.013079267 -0.10331034 -0.12505911 0.0018142995
000380 24 81 cf 3d a5 39 82 bd 43 ad b2 3d 97 e9 cb bd
       0.101320535 -0.06358651 0.08724453 -0.09956663
000390 ed c5 32 bb ac 16 48 bc 60 9b 6c 3e c1 67 08 bd
       -0.0027278617 -0.012212437 0.23106146 -0.033302072
0003a0 fb 36 9a 3d 26 b4 80 bd cf 55 c6 bc fa 39 01 bd
       0.07530018 -0.062843606 -0.024210839 -0.03154943
0003b0 bd f0 fa bd 2e f3 65 3d 3f 8f 82 3c bc ff 24 3e
       -0.122529484 0.056140117 0.015937446 0.1611318
0003c0 16 7e 4a 3d 55 7c 2b bd de 44 95 3d 7b 41 63 3e
       0.04943665 -0.04186662 0.07288526 0.22192948
0003d0 62 27 5b bd d8 c9 ac 3d 87 dc d9 3b 55 6c 77 3b
       -0.053504355 0.08436936 0.0066486034 0.003775378
0003e0 8b af d3 3d 80 04 8e 3d ca 1c 21 be 81 d2 9e bd
       0.103362165 0.06934452 -0.15733638 -0.07754994
0003f0 05 f5 c1 3c 97 c8 bf 3b a3 f5 88 3b 95 8d 4d be
       0.023676405 0.0058527696 0.004179673 -0.2007354

network_body._body_endoder.seq_layers.2.bias f4 [128]
000000 00 00 00 00 00 00 00 00 00 00 00 00 00 00 00 00
       0.0 0.0 0.0 0.0
000010 00 00 00 00 00 00 00 00 00 00 00 00 00 00 00 00
       0.0 0.0 0.0 0.0
000020 00 00 00 00 00 00 00 00 00 00 00 00 00 00 00 00
       0.0 0.0 0.0 0.0
000030 00 00 00 00 00 00 00 00 00 00 00 00 00 00 00 00
       0.0 0.0 0.0 0.0
000040 00 00 00 00 00 00 00 00 00 00 00 00 00 00 00 00
       0.0 0.0 0.0 0.0
000050 00 00 00 00 00 00 00 00 00 00 00 00 00 00 00 00
       0.0 0.0 0.0 0.0
000060 00 00 00 00 00 00 00 00 00 00 00 00 00 00 00 00
       0.0 0.0 0.0 0.0
000070 00 00 00 00 00 00 00 00 00 00 00 00 00 00 00 00
       0.0 0.0 0.0 0.0
000080 00 00 00 00 00 00 00 00 00 00 00 00 00 00 00 00
       0.0 0.0 0.0 0.0
000090 00 00 00 00 00 00 00 00 00 00 00 00 00 00 00 00
       0.0 0.0 0.0 0.0
0000a0 00 00 00 00 00 00 00 00 00 00 00 00 00 00 00 00
       0.0 0.0 0.0 0.0
0000b0 00 00 00 00 00 00 00 00 00 00 00 00 00 00 00 00
       0.0 0.0 0.0 0.0
0000c0 00 00 00 00 00 00 00 00 00 00 00 00 00 00 00 00
       0.0 0.0 0.0 0.0
0000d0 00 00 00 00 00 00 00 00 00 00 00 00 00 00 00 00
       0.0 0.0 0.0 0.0
0000e0 00 00 00 00 00 00 00 00 00 00 00 00 00 00 00 00
       0.0 0.0 0.0 0.0
0000f0 00 00 00 00 00 00 00 00 00 00 00 00 00 00 00 00
       0.0 0.0 0.0 0.0
000100 00 00 00 00 00 00 00 00 00 00 00 00 00 00 00 00
       0.0 0.0 0.0 0.0
000110 00 00 00 00 00 00 00 00 00 00 00 00 00 00 00 00
       0.0 0.0 0.0 0.0
000120 00 00 00 00 00 00 00 00 00 00 00 00 00 00 00 00
       0.0 0.0 0.0 0.0
000130 00 00 00 00 00 00 00 00 00 00 00 00 00 00 00 00
       0.0 0.0 0.0 0.0
000140 00 00 00 00 00 00 00 00 00 00 00 00 00 00 00 00
       0.0 0.0 0.0 0.0
000150 00 00 00 00 00 00 00 00 00 00 00 00 00 00 00 00
       0.0 0.0 0.0 0.0
000160 00 00 00 00 00 00 00 00 00 00 00 00 00 00 00 00
       0.0 0.0 0.0 0.0
000170 00 00 00 00 00 00 00 00 00 00 00 00 00 00 00 00
       0.0 0.0 0.0 0.0
000180 00 00 00 00 00 00 00 00 00 00 00 00 00 00 00 00
       0.0 0.0 0.0 0.0
000190 00 00 00 00 00 00 00 00 00 00 00 00 00 00 00 00
       0.0 0.0 0.0 0.0
0001a0 00 00 00 00 00 00 00 00 00 00 00 00 00 00 00 00
       0.0 0.0 0.0 0.0
0001b0 00 00 00 00 00 00 00 00 00 00 00 00 00 00 00 00
       0.0 0.0 0.0 0.0
0001c0 00 00 00 00 00 00 00 00 00 00 00 00 00 00 00 00
       0.0 0.0 0.0 0.0
0001d0 00 00 00 00 00 00 00 00 00 00 00 00 00 00 00 00
       0.0 0.0 0.0 0.0
0001e0 00 00 00 00 00 00 00 00 00 00 00 00 00 00 00 00
       0.0 0.0 0.0 0.0
0001f0 00 00 00 00 00 00 00 00 00 00 00 00 00 00 00 00
       0.0 0.0 0.0 0.0

action_model._continuous_distribution.log_sigma f4 [1, 2]
000000 00 00 00 00 00 00 00 00
       0.0 0.0

action_model._continuous_distribution.mu.weight f4 [2, 128]
000000 cf 81 0a bd 94 bb 88 bc 33 df d4 3c 3a d3 8f bc
       -0.0338152 -0.016691007 0.025985336 -0.017556775
000010 9a 4e 55 3c ac 0d 31 bc 73 c4 b2 bb 97 6f c6 3c
       0.013019228 -0.010806482 -0.0054555475 0.024223132
000020 6e eb a7 3c a6 3e 17 3c c5 62 24 bc fb 11 25 3c
       0.020498004 0.009231245 -0.010033314 0.010075088
000030 cf d0 9e 3c 17 8c 64 3b 15 d9 1e 3d 28 35 bc 3a
       0.019386677 0.003487354 0.038781244 0.0014359104
000040 82 81 24 bc 29 0d 36 bc 46 c9 b5 bb 3d ec bc bc
       -0.010040643 -0.011111536 -0.0055476753 -0.023061866
000050 08 95 a9 bb 0a cd 7e bb 5f 42 1e 3c 17 48 ec bb
       -0.0051752366 -0.0038879537 0.009659379 -0.007210742
000060 13 d9 58 bb 83 5f 8e 3c e5 61 ea bb 03 02 92 bc
       -0.003308837 0.017379528 -0.007152783 -0.017823225
000070 45 96 e4 bb 28 ce 01 3c a1 89 c2 3c 9f 34 00 bc
       -0.0069759213 0.007922687 0.023747267 -0.007825046
000080 cf 68 7e 3b 23 a1 b2 bc 00 e4 67 bc e9 4d 9f bc
       0.0038819795 -0.021805352 -0.0141534805 -0.01944633
000090 03 cb d6 bc e0 aa 11 3c 1f a9 bb bb 7a 59 21 bc
       -0.02621985 0.008890837 -0.005726948 -0.009847993
0000a0 bd 39 27 bb 2d f8 bd bc d9 2a 9a 3c bf 2e 6d bb
       -0.0025516592 -0.023189628 0.01881926 -0.0036191193
0000b0 be 30 2f 3d c3 f1 bc bb fb ca 92 3c af 59 b2 3b
       0.042771094 -0.005766125 0.017919054 0.00544282
0000c0 a5 40 0f 3d ef af a6 3c 6d e5 c0 3c f2 91 17 3d
       0.03497376 0.020347564 0.023546899 0.03700442
0000d0 6a 45 42 bc eb bb 90 bb 0d 1e 6f 3b 9b 11 cb 3b
       -0.01185737 -0.004416933 0.0036486418 0.006197167
0000e0 95 c6 34 bc a2 28 5e bc de 83 04 bc fd ca 78 3c
       -0.011033674 -0.013559492 -0.00808808 0.015185115
0000f0 d1 17 1b bc ef 77 80 3c a2 11 b6 bc e5 ef a5 ba
       -0.0094661275 0.015682189 -0.022225205 -0.0012659995
000100 b3 66 a9 bc 5b bd 23 3b 23 5a e7 bb c5 94 f3 3b
       -0.020678854 0.002498469 -0.0070603057 0.007433506
000110 7a 75 e1 3b 46 25 27 bc 1a 56 b3 3c df fb 57 3c
       0.0068804594 -0.010201758 0.021891642 0.013182609
000120 17 c9 51 3b 29 a1 92 3c a9 64 38 bd dd fe 20 bb
       0.0032010728 0.017899113 -0.045017872 -0.0024565973
000130 eb 7b 07 bb 00 2c 67 3c 9a 4d 1c 3b 5d d5 53 bc
       -0.0020673226 0.0141096115 0.0023849965 -0.012929288
000140 07 ea b4 bc 7c 8c b1 bb c1 a5 08 bb 67 89 6d bc
       -0.02208425 -0.0054183584 -0.002085075 -0.014498091
000150 20 98 56 3c 20 ba d5 3c 32 53 2d 3b 5f 2a 40 3c
       0.013097793 0.026089728 0.0026447293 0.011728852
000160 4f 68 54 3c 3d 3c 6b 3c 77 c4 b8 bc 2f d2 9b bb
       0.012964322 0.014357624 -0.02255462 -0.0047552804
000170 af b5 d9 bc be 3e a2 bc ab 1c ea bb 09 8d 2d 3c
       -0.026575891 -0.019805308 -0.007144531 0.010592707
000180 5e 20 a3 bc 97 be ab bc a9 56 89 bc eb cc 79 3c
       -0.019912895 -0.020964904 -0.016764956 0.01524661
000190 37 8e 37 3c 03 e9 a5 3b ae a3 9a ba 5e ba 44 3c
       0.01120334 0.0050631776 -0.0011798048 0.012007324
0001a0 35 e2 83 3c bd 72 9e 3b ab 32 1c bb 15 c8 d5 bc
       0.016099075 0.004835455 -0.0023833911 -0.026096383
0001b0 97 ba 1c bc 2f aa 02 3c dd 1b 03 bd 8b d9 8d bb
       -0.009565971 0.007975145 -0.032008994 -0.0043289117
0001c0 06 de 0f 3d cf 5d c4 bc 7e 63 19 3c 62 10 87 3c
       0.035123847 -0.023970513 0.0093621 0.016487304
0001d0 22 e7 68 3d 4f 0b f6 3a ea 80 b7 39 2a 52 a3 ba
       0.05686105 0.0018771681 0.00035000528 -0.00124604
0001e0 ad 4a 80 3c 85 d8 87 3a db 9c 31 bb 30 0a ba bc
       0.015660608 0.001036421 -0.002710155 -0.022709936
0001f0 5a c4 73 3c bc e1 be bc 71 e6 1c 39 ac 45 81 bc
       0.014878357 -0.023300998 0.00014963165 -0.015780292
000200 5c e7 83 bc 89 2f 8a bc bb 0c f3 3c c7 d1 ee 3b
       -0.016101532 -0.01686837 0.029669156 0.007288191
000210 2f f1 1b bc 32 cb fc 3c 3e 3a cc bc 23 4c 15 bc
       -0.009517952 0.03085861 -0.024930116 -0.009112391
000220 57 64 c0 bb dd e4 7a bb 52 28 25 bc 13 0e 87 3c
       -0.0058713364 -0.0038283386 -0.010080414 0.016486203
000230 c2 98 00 bd 18 aa 16 3c f7 1f 82 bc 6e 56 94 3c
       -0.03139568 0.009195827 -0.015884383 0.01810762
000240 d2 75 8c bb 34 ad 44 3c 4f c6 ce 3b dd 0e d8 bb
       -0.004286506 0.0120041855 0.0063102613 -0.0065935687
000250 41 36 c9 bc 57 39 02 3c 06 29 1e 3b 0b dd 59 3a
       -0.024562003 0.007948241 0.0024133339 0.0008310831
000260 ef ee 65 bc 98 35 ae bb 97 d9 9b bc 9a 6c 10 bc
       -0.014034017 -0.0053164475 -0.019024653 -0.008814955
000270 0b 40 91 3b d8 8c 6a 39 50 74 65 bc 75 c9 3e 3c
       0.0044326833 0.00022368447 -0.014004782 0.011644711
000280 92 9f e6 3c 00 77 70 3c 2a a2 82 3b 77 cb 43 3d
       0.02815226 0.014676809 0.0039866166 0.04780146
000290 4b 2e 58 3b 3f 9d 0f 3b c7 bb cc 3c 1f 2d 60 ba
       0.0032986577 0.0021913794 0.024991883 -0.00085516454
0002a0 e0 7a 54 3c 9e 5b 12 3d 9f b2 d7 3b 3c 8e cb 3a
       0.012968749 0.035731904 0.0065825726 0.001553006
0002b0 ae 86 18 3b 72 79 df bc b7 3e eb bb eb e8 a8 bb
       0.0023273635 -0.02727959 -0.007179107 -0.005154719
0002c0 30 2e 0a bb f9 b3 b3 bc f5 1e ca bc a7 ff 9c bc
       -0.0021084659 -0.021936404 -0.024672965 -0.019164873
0002d0 a7 1c 3c bc 6b ce 5a bc 20 1e 8a 3c 3b 04 74 3b
       -0.011481441 -0.013354878 0.016860068 0.0037233967
0002e0 5b 13 63 bb 6b 7c 30 bc af 5b 61 bb 5a d7 be 3b
       -0.0034648988 -0.010771851 -0.0034386923 0.0058240118
0002f0 a3 0f 73 3c eb 65 97 bc 96 87 32 bc 8b f5 34 3d
       0.014835271 -0.018481215 -0.010896584 0.04417948
000300 2a fd b9 3b ff da 2c bc 5a ef 64 3c 2f 7c 76 bc
       0.0056759315 -0.01055026 0.0139730815 -0.015044256
000310 44 44 a4 bc 1b 17 84 bc 70 6c 20 3d e9 40 8f 3c
       -0.020052083 -0.016124299 0.039165914 0.017487006
000320 d9 56 88 3c a8 2a 59 bc 54 96 93 3b d3 ea c7 bc
       0.016642975 -0.013254799 0.0045040045 -0.024403965
000330 bb d3 4b 3b b5 5c 03 bd f9 72 49 3c 7a 25 e2 3b
       0.0031101543 -0.032070834 0.012295478 0.00690144
000340 a7 13 2e 3c 14 55 25 3c 8f 28 c6 3c 72 32 e0 3b
       0.010624803 0.010091085 0.024189262 0.006841951
000350 7f 54 45 bc b5 20 f5 3c 6d 13 7d 3c 0e 8a aa 3b
       -0.012044071 0.029922822 0.015446526 0.0052044457
000360 eb e6 a3 3c aa 39 f7 bc fd 50 bc 3c 52 6d 7e 3c
       0.020007571 -0.030178864 0.022987837 0.015528994
000370 5e 85 18 bc 4b 15 e5 3c 86 7f 8e bb 0d e8 8d bb
       -0.009309141 0.027964255 -0.004348698 -0.004330641
000380 50 05 00 bc eb a9 12 3a aa c4 1c bc aa 3d 3c bb
       -0.007813767 0.0005594778 -0.009568373 -0.0028723278
000390 ba 1e 54 3c d6 46 19 3d d0 97 bf bb 06 8f 03 bd
       0.012946779 0.03742107 -0.005846955 -0.03211882
0003a0 db d5 19 bc 9c c6 12 bc 12 57 96 3b 4b d0 a2 bc
       -0.009389366 -0.008958485 0.0045880163 -0.019874712
0003b0 d5 27 07 3d 4d ca cc 3a 02 fc a6 3c 57 c4 4f 3d
       0.03299697 0.0015624255 0.020383839 0.050724354
0003c0 8a fa e0 bb 16 a9 1e bc 5b dc a1 bc 7f b8 77 3c
       -0.006865804 -0.009683868 -0.019758394 0.015119671
0003d0 7f 76 81 b9 e0 4e 84 bc e5 5b 68 3b 37 fb 00 bc
       -0.00024693084 -0.016150892 0.0035455164 -0.007872394
0003e0 79 22 84 bc 7e e9 10 3c 44 f2 8b bc f7 51 09 bb
       -0.01612972 0.008844731 -0.017083295 -0.0020953396
0003f0 e3 e3 8b bb f4 ee 83 3b 17 fc 5c 3c 53 ab 16 bd
       -0.0042691096 0.004026288 0.013487837 -0.03678448

action_model._continuous_distribution.mu.bias f4 [2]
000000 00 00 00 00 00 00 00 00
       0.0 0.0

action_model._discrete_distribution.branches.0.weight f4 [2, 128]
000000 7a 78 42 bb 6b 84 f5 3b f5 16 24 bc f6 6d a3 bb
       -0.002967386 0.007492592 -0.010015239 -0.0049874736
000010 ea ab d5 bb 30 c0 63 bc 15 4f 3d 3c db 49 2b bb
       -0.006520738 -0.013900802 0.011554499 -0.002613655
000020 13 d6 18 ba 57 f9 21 3c c7 0c 01 3d 95 14 13 bc
       -0.00058302394 0.009886107 0.031506326 -0.008977075
000030 c7 18 f2 3b 77 f5 55 3c 8a 7b d1 3b 77 47 d6 3b
       0.0073882076 0.013059012 0.006392901 0.006539281
000040 a0 c1 6a bc 44 b6 90 bc c5 bb c2 ba 1f 30 12 3a
       -0.01432839 -0.017665036 -0.0014856985 0.00055766286
000050 96 44 17 3b fb d3 71 bc c2 c5 6b bc 66 fe 46 3c
       0.0023081652 -0.014760013 -0.014390411 0.012145614
000060 4b 12 89 bc 1f bc 24 3c ed 21 d4 bb ea 8b 59 3c
       -0.016732356 0.010054617 -0.006473771 0.013277987
000070 4e b1 9a 3c dd ce 40 bb a3 3b e9 bb b7 41 a4 bb
       0.018883374 -0.0029420175 -0.007117705 -0.0050127166
000080 cf bd af bb 3f cf 2f 3c 37 93 25 3b 5b 3d 03 bc
       -0.005363203 0.010730564 0.002526475 -0.008010234
000090 9d f2 25 bc 16 43 bc 3b db b6 6f b9 ac 85 29 3a
       -0.010128644 0.005745302 -0.00022860935 0.0006466757
0000a0 a9 4b 27 3c de ed 4b 3c 15 f0 37 3c c7 05 bc 3b
       0.01021091 0.012446849 0.011226674 0.0057379934
0000b0 94 c1 32 3b 4b 8e 96 bc 15 eb 1f 3c 46 d2 c9 bb
       0.0027276026 -0.018378397 0.009760638 -0.0061590998
0000c0 53 5f 89 bb e7 79 f2 ba df 15 1a bc 19 ae 25 3c
       -0.0041922717 -0.0018499464 -0.009404629 0.010112309
0000d0 33 1a c6 3a e5 86 cb 39 98 fa 34 3c 83 da a8 3b
       0.0015114009 0.00038819682 0.011046074 0.0051530018
0000e0 77 84 83 ba fb 11 d6 3b b1 1b 2b 3c 70 88 90 3b
       -0.0010033984 0.006532905 0.010443614 0.004410796
0000f0 02 01 ad ba b3 29 9b 3a 09 48 96 bb e7 6e 38 3a
       -0.0013199153 0.0011837989 -0.004586224 0.00070355687
000100 1e e7 a6 bb f6 5b 8f 3b 26 02 ba 3b f8 72 53 bb
       -0.0050934693 0.0043749763 0.0056765256 -0.0032264572
000110 77 06 38 bc b8 c1 b3 3b 52 10 53 3b fc 16 32 bb
       -0.01123201 0.0054857396 0.0032205773 -0.0027174344
000120 9f c3 b4 3b 98 b1 f0 3b bf 6d 8e 3c 56 17 c8 ba
       0.005516484 0.0073453896 0.017386315 -0.0015265744
000130 cd c2 95 bc 12 c9 4e ba d1 f2 43 3c 2f 1d 12 3c
       -0.018281365 -0.0007888238 0.011959747 0.008918091
000140 60 90 2d bb f6 fb 29 3b eb 39 d4 ba 87 30 1a bb
       -0.002648376 0.0025937534 -0.0016191577 -0.002352746
000150 d8 f6 0f 3b 87 05 61 3c 9f a3 19 bb b4 e3 ae ba
       0.0021967199 0.013734228 -0.0023443473 -0.0013343007
000160 03 e4 f4 3a 54 b4 92 3b 90 b0 2c 3c a7 a5 65 bc
       0.0018683675 0.004477063 0.010540143 -0.014016545
000170 47 89 40 3c da 14 21 bc 93 fd cf bb 20 b1 f7 bb
       0.0117514795 -0.009831632 -0.006347367 -0.0075589567
000180 f4 87 ac bc b8 15 37 bc 52 32 cb 3b 6d 70 dd ba
       -0.021060921 -0.011174612 0.006201067 -0.0016894467
000190 b3 a4 79 3a 02 a3 30 bc 58 d7 a2 3a 9c 11 31 3c
       0.0009523138 -0.010781052 0.0012423797 0.010807421
0001a0 ce 82 12 bc 13 d4 25 bc 0d bf 10 3c 3b c1 d6 bb
       -0.008942319 -0.010121363 0.008834613 -0.0065537966
0001b0 8b 9b d6 bb 5a 8b 66 bb 67 33 9d 3c 57 52 90 3b
       -0.006549304 -0.0035178275 0.01918955 0.004404347
0001c0 7c 50 2d 3b 7c 27 3e ba d2 92 61 bb d2 3f ea 3b
       0.0026445678 -0.00072538084 -0.0034419787 0.0071487213
0001d0 25 d7 8b 3a 8b 65 a3 bc b3 74 de 3b 9c 20 36 39
       0.0010668976 -0.01994588 0.006788814 0.0001736902
0001e0 cb cc a8 bb 7b 65 ae bb 27 1e 12 bb d4 85 45 3c
       -0.0051513663 -0.005322156 -0.0022295804 0.012055833
0001f0 66 f5 9b bc fe ec 2c 3c f7 07 08 3c ee 54 8e b9
       -0.019037914 0.01055455 0.00830268 -0.00027147628
000200 20 fe e1 3b dd bb ad 39 d3 a0 09 bb 4f 90 a1 bb
       0.006896749 0.000331371 -0.00210004 -0.004930533
000210 c5 1d 96 3b bd ad 5c 3c b6 08 a7 ba d3 b2 a0 3b
       0.0045811855 0.013469157 -0.0012743685 0.00490413
000220 45 2c f7 3b b8 ed fa 3b 89 83 0d bc 0e 01 b2 3b
       0.007543119 0.007657733 -0.008637317 0.0054322546
000230 f3 2c c4 3b 46 de 01 3c d3 ce 64 ba a7 95 9e bc
       0.0059868037 0.007926529 -0.0008728329 -0.01935847
000240 23 99 ba bb e3 77 c9 b9 d8 cf 7a 3c be e6 a7 bb
       -0.005694525 -0.0003842703 0.015308343 -0.005123942
000250 6d 68 0a bb 3c 39 22 3b 58 4e ad 38 4c ad 02 3c
       -0.0021119372 0.0024753353 8.2638755e-05 0.0079758875
000260 ab 88 2b bc 7b 31 05 3c 5f 78 98 3b 13 af 13 3b
       -0.010469596 0.008129473 0.004653021 0.0022534772
000270 b2 d6 74 bb fe 85 25 3b 07 74 85 3a 63 1a e7 bb
       -0.0037359414 0.0025256868 0.0010181674 -0.007052706
000280 bb f9 29 bc 13 1a c1 3a d3 03 fa 3b 53 7b 4d 3c
       -0.010374482 0.0014732502 0.0076298504 0.01254161
000290 43 38 2d bc b9 8a 3f 3b a4 29 10 3c 7c cc 21 3a
       -0.010572496 0.0029226972 0.00879899 0.0006172133
0002a0 bd 50 e5 3b f3 e6 81 3c af 68 91 bb 3e 1d 89 36
       0.00699815 0.015857195 -0.004437528 4.0863224e-06
0002b0 4c c0 41 bc 66 cf 96 bb 71 48 37 3c 10 15 f1 bb
       -0.011825632 -0.0046023605 0.011186705 -0.007357247
0002c0 97 68 ab ba af d3 b4 ba 02 31 1b b9 75 7a 2c bb
       -0.0013077435 -0.0013795997 -0.00014800209 -0.0026318107
0002d0 a6 6f b7 3a 5f 92 d8 bb 28 c4 88 3b c0 56 d8 3b
       0.0013995066 -0.0066092457 0.0041737743 0.0066021383
0002e0 b3 1b 0e bc a6 b1 09 bc f7 e1 c3 3c 75 d1 7f bc
       -0.008673596 -0.008404171 0.02391146 -0.015613903
0002f0 04 19 07 bc 13 29 38 bb 97 aa ae bb 3a f4 12 3c
       -0.00824571 -0.0028100654 -0.0053303945 0.008969361
000300 e0 24 25 bc df 15 94 3b 60 ef 53 bc 68 ad eb bb
       -0.0100795925 0.004519209 -0.012935489 -0.0071923025
000310 d9 4f 04 bc 0b e5 e3 bb 92 de 2b bc 00 4d d6 bb
       -0.008075678 -0.0069547943 -0.010490077 -0.006539941
000320 de 21 41 b9 b2 2e d8 ba 03 98 53 3b cd 2a ee 3a
       -0.00018418531 -0.0016493408 0.003228665 0.0018170715
000330 97 a0 62 bc e9 fc 2f bc 2d 04 4d 3c d2 42 4d bc
       -0.013832233 -0.010741451 0.012513203 -0.012528138
000340 5e 70 93 3b e2 d6 66 bc 5c f7 25 ba 67 aa 12 3c
       0.004499479 -0.014089318 -0.000633111 0.00895176
000350 83 43 22 bc 97 11 0c 3b 32 ed ee ba 38 ee 17 3b
       -0.009903791 0.002137279 -0.0018228649 0.002318276
000360 d2 09 ca bb 81 44 ae bb 68 02 0b bb 9a 76 83 3a
       -0.0061657215 -0.005318225 -0.002121115 0.0010029853
000370 b3 f0 70 bb ff 5c 24 3b 5b a3 f7 3b 87 1a 50 3c
       -0.0036764562 0.0025079844 0.0075573153 0.012701637
000380 55 cb e5 bb 1b 01 5a 3a 25 47 ca bb 23 25 d5 ba
       -0.0070127645 0.0008316205 -0.006173032 -0.0016261678
000390 30 7f 57 bb 36 0f 10 bc ab f1 91 3b 6a 40 21 3c
       -0.0032882206 -0.008792689 0.004453858 0.009842018
0003a0 68 f6 d0 3b cb ee 0e 3b 05 2a 5d 3b d7 f3 45 3a
       0.00637703 0.0021809812 0.003374697 0.00075512886
0003b0 57 7b 7b 3b 1e 3b 05 3c af 8a 1d 3c 41 e1 aa ba
       0.0038373077 0.00813177 0.009615584 -0.0013037102
0003c0 00 ce 21 bb 03 c5 56 ba a5 3e f9 3b 18 de 51 3c
       -0.0024689436 -0.0008192809 0.0076063448 0.012809299
0003d0 75 2b fb 3b e3 da bb 3b 2d b5 e4 bb 22 c7 27 ba
       0.0076650926 0.0057328804 -0.0069796056 -0.00064002175
0003e0 b6 01 16 bc 27 dc da bb 5b c1 ee bb bb 70 d3 bb
       -0.009155681 -0.0066790762 -0.0072862334 -0.0064526475
0003f0 73 b8 ac 3b d7 ce 3d 3c 39 d5 42 bc a0 29 b0 3a
       0.0052710115 0.011584959 -0.011891657 0.001344014

action_model._discrete_distribution.branches.0.bias f4 [2]
000000 00 00 00 00 00 00 00 00
       0.0 0.0

network_body._body_endoder.seq_layers.0.weight f4 [128, 6]
000000 41 52 28 be 62 de 25 3d 00 d0 e2 bb 38 b3 b6 be
       -0.16437627 0.040495284 -0.006921768 -0.35683608
000010 64 48 bf 3c 30 16 a1 3d 80 8f 08 3e 93 af 24 be
       0.023349948 0.0786556 0.13335991 -0.16082601
000020 2b 3a ac be 28 86 1f 3f e5 66 d1 3e 58 e0 e0 bd
       -0.3363813 0.6231408 0.40898815 -0.1098029
000030 a1 b7 b4 3e 47 43 5b be 49 86 8a bf a4 4d ec 3e
       0.35296348 -0.21412383 -1.082223 0.46152985
000040 46 5e 84 3e 69 22 c4 3e 58 05 f2 3e a9 7f 64 be
       0.25853175 0.38307503 0.47269702 -0.22314323
000050 4c 9c 4c bf 22 a8 ba be 24 d3 94 3e 01 92 ad 3e
       -0.7992599 -0.364564 0.29067338 0.33900455
000060 fe 94 f6 3d a6 df 03 3d 18 6e 8c bf fe 3f d4 bd
       0.12040137 0.03219571 -1.0971098 -0.10363768
000070 fd 75 0a bf 8a 97 81 bd 62 ee 17 3f 51 e2 94 3e
       -0.54086286 -0.06327732 0.5934812 0.29078916
000080 f3 28 4c be f7 34 b1 3e ab a1 11 bd a0 2f 64 bf
       -0.19937496 0.3461072 -0.03555457 -0.8913517
000090 30 0a 2a 3e 09 f0 49 3d 06 26 bb 3e 07 b6 05 3f
       0.16605449 0.04930118 0.36552447 0.52230877
0000a0 5d 67 d8 3d a6 7c 10 bf 40 ff ba be 80 a6 07 be
       0.1056659 -0.564402 -0.36522865 -0.13247108
0000b0 a6 b1 be be 32 98 25 bf 16 c1 46 3f a5 1c c5 3e
       -0.3724491 -0.64685357 0.77638376 0.38498417
0000c0 04 61 8f 3e a3 52 0c bf 04 b1 6c 3e 07 88 8e 3e
       0.28003705 -0.54813594 0.23114401 0.27838156
0000d0 59 ea db bd d9 60 45 be 07 a5 17 3f 67 d6 1a 3e
       -0.10738058 -0.19275226 0.59236187 0.1512085
0000e0 de 3a b0 bd 92 c1 d3 3c c7 98 55 3e c6 28 1b bf
       -0.08604978 0.025849137 0.20859061 -0.6060909
0000f0 f1 e0 dc be cd da f2 3c 99 0e 56 3d 43 de 6f bc
       -0.43140367 0.029645348 0.052260015 -0.014640394
000100 27 80 83 3d 97 97 1b bf 0b 5f 8d be 08 04 0a be
       0.064209275 -0.6077818 -0.27611575 -0.134781
000110 e6 0c 3f be e5 86 e6 3e 22 59 42 be e5 b8 92 be
       -0.18657264 0.4502479 -0.18979314 -0.28656688
000120 d9 14 96 bf 8e ed af 3e 1b 3c 1a be 2e 64 52 bf
       -1.1725112 0.34360927 -0.15061991 -0.8218411
000130 b9 66 23 3e 16 a4 e1 3e ee 4f 3c 3e d9 72 43 bd
       0.15957154 0.440705 0.18389866 -0.04771695
000140 c2 72 83 be ef 8f f1 3e ef f2 c3 bd ae e3 ac be
       -0.2567349 0.47180125 -0.0956782 -0.33767456
000150 86 47 c4 3e 07 46 22 3f 09 d9 54 3e 0e 59 32 be
       0.38335818 0.63388103 0.20785917 -0.17416784
000160 7a 53 f1 3e 3d 2d b4 3e 09 97 0d be 04 ec a7 3e
       0.47134 0.35190764 -0.13827147 0.32797253
000170 53 3a fa be 10 31 b6 3d 30 74 37 bd 31 47 16 3f
       -0.48872623 0.08896077 -0.04478854 0.5870238
000180 63 d3 a9 3d 9d b1 d2 bd 2f f9 0e bf 6a 2d 05 be
       0.08292272 -0.10287783 -0.55848974 -0.13005605
000190 e6 34 1d bf de 9e da 3e e8 10 44 3d 9c c3 90 3f
       -0.6140884 0.4269933 0.047867686 1.1309695
0001a0 a2 da 7c 3e 5a 78 43 bf ec 71 93 3c 0e 85 34 bc
       0.24692777 -0.76355517 0.017998658 -0.011018051
0001b0 6c 86 3d bd 59 41 03 bf ec ba 16 bf a7 44 3f 3e
       -0.046270773 -0.5127159 -0.5887897 0.18678533
0001c0 25 65 56 bf d7 eb 25 3f 50 4f 71 3e 09 33 d5 3d
       -0.83748084 0.6481299 0.23565412 0.10410125
0001d0 26 ac 64 3e a1 8e a0 3f 55 a5 b0 be 07 32 2b 3e
       0.22331294 1.2543527 -0.34501138 0.16718303
0001e0 c8 26 21 3f e8 a7 43 be e3 cc 49 3f dd 4e 81 3e
       0.629498 -0.1910702 0.7882826 0.2525548
0001f0 27 d6 cf be d5 b9 ff be 8e 76 80 bd ca e9 86 bf
       -0.40593073 -0.49946466 -0.062726125 -1.0540097
000200 af 3e b9 3e ac 55 b9 3e 15 13 35 be 61 b1 32 bf
       0.36180636 0.36198175 -0.1768306 -0.6980191
000210 4e cb 12 3e 4e 8e 4a 3e 2f 44 28 bf a5 14 5c bc
       0.14335367 0.19780847 -0.6572904 -0.013432656
000220 24 27 9b 3e 44 e0 53 3e 96 39 14 3f bb a0 20 3f
       0.303033 0.2069102 0.5790037 0.62745255
000230 5a 0f 0c be b3 5c 2b bc d4 3d 0f 3e a1 54 3b 3f
       -0.13677731 -0.010459113 0.1398843 0.7317601
000240 bc db 81 be 36 30 13 bf bf 4f da 3e ea 7b 1b bf
       -0.25362957 -0.5749544 0.42638966 -0.6073595
000250 29 de 13 be eb 0f 0e 3e 59 a4 3d bf 18 c3 a4 be
       -0.14440216 0.1387326 -0.740789 -0.32180095
000260 c5 4e ea 3e d1 69 bc 3e e5 6c 0a 3f 8a 4e 1e be
       0.4576322 0.36799482 0.5407241 -0.15459648
000270 25 8e 7e 3e f7 a4 82 bf 43 1f 00 3f 35 a8 9a be
       0.24858911 -1.0206593 0.500477 -0.30206457
000280 c8 90 91 3e 38 ce 3c bf 44 a5 1f be 0f 53 72 be
       0.28430772 -0.73752165 -0.15590388 -0.23664497
000290 de 8c c1 be 3d 7c 22 3f b2 a8 93 be 17 d0 90 3d
       -0.37802786 0.6347082 -0.28839642 0.0707094
0002a0 c5 b0 f5 3e 66 6f a1 be 4a bb 98 3d 05 c1 13 3d
       0.47986427 -0.31530303 0.074575976 0.03607275
0002b0 1b 06 5b be c6 b0 92 bd 07 9b 48 bf a7 7d b0 bd
       -0.21389048 -0.07162623 -0.7836155 -0.08617716
0002c0 fc 1f 90 3e 8d 9b 4e 3e 75 76 09 be b9 b0 cd bc
       0.28149402 0.20176525 -0.13424094 -0.025108682
0002d0 06 00 a7 be 7a b1 d8 be 59 0b 44 bf 39 9e 45 3f
       -0.32617205 -0.42322904 -0.76579815 0.77194554
0002e0 46 50 4b bf d9 c4 34 be 1d 15 45 3e b9 e0 30 3e
       -0.7941936 -0.17653216 0.19246335 0.17273225
0002f0 e3 2a 5a be 7a 19 ae bd 6d 73 5b be 29 49 ad be
       -0.21305422 -0.08500953 -0.2143075 -0.3384488
000300 d3 12 22 3e 44 6b cc be 9c 90 3f 3f de fe ac 3e
       0.15827493 -0.39925587 0.7483003 0.33788198
000310 6f c6 17 bf f7 80 a4 3d 13 3d 73 be 58 74 22 3e
       -0.5928716 0.080324106 -0.23753767 0.15864694
000320 42 36 a6 3c 8c 54 f1 3d 5b ee d5 3e 59 4b 90 3e
       0.020289544 0.11783704 0.41783413 0.28182486
000330 07 61 ac 3d d6 71 f2 be 8e b7 fa bd a9 a7 7c be
       0.08416944 -0.47352475 -0.122420415 -0.24673332
000340 66 fa 5c bd b1 8f 3e 3b 7b f2 4e be 83 2f 02 bf
       -0.053949736 0.0029077346 -0.20209686 -0.5085375
000350 f8 d9 e3 3b c6 5f 7a be 48 db 8a 3e 37 02 20 3f
       0.006953474 -0.24450597 0.27120423 0.6250338
000360 3b 6f a3 3e 36 10 51 be 7d fd 65 3f df 08 82 3e
       0.319208 -0.2041634 0.8983992 0.25397393
000370 b3 5c 02 3e f0 9e 84 bd af b0 ba 3e ca 57 1f bf
       0.12730674 -0.064756274 0.36462924 -0.6224333
000380 3f 79 45 3f bc 22 24 3d f5 bf 14 bf 8b b4 3e 3f
       0.7713813 0.040072188 -0.58105403 0.74494237
000390 35 b8 a1 3e b3 22 7c be 36 25 96 3d 20 6a 7f be
       0.3158585 -0.24622612 0.07331316 -0.24942827
0003a0 1f d3 2d 3f 2f 75 c1 3b 5f bb 62 3e 2a 63 ec 3e
       0.6790027 0.005903862 0.22141789 0.46169406
0003b0 75 85 0f be bb 15 70 be 45 29 25 3e 50 50 dc 3d
       -0.14015754 -0.2344579 0.16129024 0.10757506
0003c0 17 8d 23 3f 44 45 08 bf 8b 7c 8a 3f e6 48 b8 3d
       0.6388716 -0.5323069 1.0819257 0.08998279
0003d0 48 97 15 3f 74 5a 97 3d 9e 7e d0 3f a9 61 bd be
       0.5843396 0.073902994 1.628864 -0.3698857
0003e0 7d 76 31 3f 1a ac ee bc 86 b6 a4 3e 3d 0a f8 3d
       0.69321424 -0.029134799 0.32170504 0.12111328
0003f0 d8 a2 3e be fa a8 12 bf 1c df 68 3e ae 17 7d bd
       -0.18616807 -0.5728909 0.2274136 -0.06179016

network_body._body_endoder.seq_layers.0.bias f4 [128]
000000 00 00 00 00 00 00 00 00 00 00 00 00 00 00 00 00
       0.0 0.0 0.0 0.0
000010 00 00 00 00 00 00 00 00 00 00 00 00 00 00 00 00
       0.0 0.0 0.0 0.0
000020 00 00 00 00 00 00 00 00 00 00 00 00 00 00 00 00
       0.0 0.0 0.0 0.0
000030 00 00 00 00 00 00 00 00 00 00 00 00 00 00 00 00
       0.0 0.0 0.0 0.0
000040 00 00 00 00 00 00 00 00 00 00 00 00 00 00 00 00
       0.0 0.0 0.0 0.0
000050 00 00 00 00 00 00 00 00 00 00 00 00 00 00 00 00
       0.0 0.0 0.0 0.0
000060 00 00 00 00 00 00 00 00 00 00 00 00 00 00 00 00
       0.0 0.0 0.0 0.0
000070 00 00 00 00 00 00 00 00 00 00 00 00 00 00 00 00
       0.0 0.0 0.0 0.0
000080 00 00 00 00 00 00 00 00 00 00 00 00 00 00 00 00
       0.0 0.0 0.0 0.0
000090 00 00 00 00 00 00 00 00 00 00 00 00 00 00 00 00
       0.0 0.0 0.0 0.0
0000a0 00 00 00 00 00 00 00 00 00 00 00 00 00 00 00 00
       0.0 0.0 0.0 0.0
0000b0 00 00 00 00 00 00 00 00 00 00 00 00 00 00 00 00
       0.0 0.0 0.0 0.0
0000c0 00 00 00 00 00 00 00 00 00 00 00 00 00 00 00 00
       0.0 0.0 0.0 0.0
0000d0 00 00 00 00 00 00 00 00 00 00 00 00 00 00 00 00
       0.0 0.0 0.0 0.0
0000e0 00 00 00 00 00 00 00 00 00 00 00 00 00 00 00 00
       0.0 0.0 0.0 0.0
0000f0 00 00 00 00 00 00 00 00 00 00 00 00 00 00 00 00
       0.0 0.0 0.0 0.0
000100 00 00 00 00 00 00 00 00 00 00 00 00 00 00 00 00
       0.0 0.0 0.0 0.0
000110 00 00 00 00 00 00 00 00 00 00 00 00 00 00 00 00
       0.0 0.0 0.0 0.0
000120 00 00 00 00 00 00 00 00 00 00 00 00 00 00 00 00
       0.0 0.0 0.0 0.0
000130 00 00 00 00 00 00 00 00 00 00 00 00 00 00 00 00
       0.0 0.0 0.0 0.0
000140 00 00 00 00 00 00 00 00 00 00 00 00 00 00 00 00
       0.0 0.0 0.0 0.0
000150 00 00 00 00 00 00 00 00 00 00 00 00 00 00 00 00
       0.0 0.0 0.0 0.0
000160 00 00 00 00 00 00 00 00 00 00 00 00 00 00 00 00
       0.0 0.0 0.0 0.0
000170 00 00 00 00 00 00 00 00 00 00 00 00 00 00 00 00
       0.0 0.0 0.0 0.0
000180 00 00 00 00 00 00 00 00 00 00 00 00 00 00 00 00
       0.0 0.0 0.0 0.0
000190 00 00 00 00 00 00 00 00 00 00 00 00 00 00 00 00
       0.0 0.0 0.0 0.0
0001a0 00 00 00 00 00 00 00 00 00 00 00 00 00 00 00 00
       0.0 0.0 0.0 0.0
0001b0 00 00 00 00 00 00 00 00 00 00 00 00 00 00 00 00
       0.0 0.0 0.0 0.0
0001c0 00 00 00 00 00 00 00 00 00 00 00 00 00 00 00 00
       0.0 0.0 0.0 0.0
0001d0 00 00 00 00 00 00 00 00 00 00 00 00 00 00 00 00
       0.0 0.0 0.0 0.0
0001e0 00 00 00 00 00 00 00 00 00 00 00 00 00 00 00 00
       0.0 0.0 0.0 0.0
0001f0 00 00 00 00 00 00 00 00 00 00 00 00 00 00 00 00
       0.0 0.0 0.0 0.0

network_body._body_endoder.seq_layers.2.weight f4 [128, 128]
000000 68 22 3a 3d f9 53 ab bd d5 89 79 3d ad df 71 3c
       0.04544297 -0.08365626 0.060922462 0.014762801
000010 c5 48 0f 3d 4c 76 00 3d 5c 66 23 3d 22 2d 1a 3c
       0.034981508 0.031362817 0.03989254 0.009410175
000020 2b c5 e8 3c a6 e5 f3 bd f5 b3 44 3e ba cf a9 bd
       0.02841433 -0.11909036 0.19209273 -0.08291574
000030 0c 65 fa bd 77 c8 0b be fa 65 ac bd 83 98 9f bd
       -0.122263044 -0.1365069 -0.08417888 -0.07792761
000040 65 8b a4 3c 39 66 89 bb 9b 6f e8 bd e8 9c 88 bd
       0.020086 -0.004193094 -0.11349412 -0.066705525
000050 a7 b4 db bd 1c 9b 69 bd b3 f4 67 bd fa 1f 11 3d
       -0.10727816 -0.05703269 -0.056629848 0.035430886
000060 52 76 79 3d 44 75 31 3d fb 75 fe bb 00 97 1c bd
       0.060903855 0.043324724 -0.007765529 -0.038229942
000070 a9 cd d9 ba 24 f6 17 3d bb 62 4e be 7c a2 f6 3c
       -0.0016617078 0.037099972 -0.2015485 0.030106775
000080 95 6d fd 3c 3a 03 2f bd 48 24 36 be 84 36 81 3d
       0.030936042 -0.042727686 -0.17787278 0.06309226
000090 e3 4f b1 bc a9 ea 67 3b 8a ef 60 be 4f 9d 98 3d
       -0.021644538 0.003538767 -0.21966377 0.07451879
0000a0 fb dc ef bd 73 38 7b 3d ae 24 41 bd 81 54 a5 bd
       -0.117120706 0.06133313 -0.04715412 -0.080727585
0000b0 a0 e7 da 3c 05 05 d1 bd 58 f3 5f 3d 31 75 4b 3d
       0.026721776 -0.102060355 0.05467543 0.04967231
0000c0 97 5e bc bc cc 9c b6 3d 1b a7 63 bd 32 0d b6 3d
       -0.022994323 0.089166254 -0.055579286 0.088892356
0000d0 6c 3d 49 3d 5f e8 c0 bc be 59 a9 bc eb d0 b4 3d
       0.049130842 -0.023548303 -0.020672675 0.088289104
0000e0 eb 38 ae bd 04 35 84 bd a1 b6 55 3d 04 b5 e7 3d
       -0.0850695 -0.064554244 0.05217612 0.11313823
0000f0 89 b6 97 bd 67 43 e4 3d 70 4a c9 3c 0a 35 83 bd
       -0.07407863 0.111456685 0.024571627 -0.06406601
000100 a3 e3 7c bc 26 f6 90 3d 4f e3 d0 bd 27 5d 8f bd
       -0.015435132 0.07078199 -0.10199606 -0.07000189
000110 fb 56 b4 3d bf ba 25 3e 60 01 4d 3d 9b 8d ab 3c
       0.08805653 0.16184519 0.05005014 0.020941546
000120 b4 ce c0 3d 67 df bd bc 92 c4 31 3b d4 42 98 bd
       0.094144255 -0.023177816 0.0027125222 -0.074346215
000130 60 23 b1 bd a9 ff fe bd 8d ca ef 3d 5f 18 de 3d
       -0.08649325 -0.12451107 0.11708555 0.10844492
000140 85 66 80 bd a8 e9 05 be 5e 05 53 bd 0d 7d f3 bc
       -0.06269554 -0.13077414 -0.05151879 -0.029722715
000150 33 7e 06 bd 92 8e c9 3d 4e 53 41 bc 02 82 39 3e
       -0.032835197 0.09841646 -0.011799647 0.18116
000160 e4 35 8c bd 5d ca ab bd d5 44 61 bd 07 75 3f be
       -0.06846216 -0.08388207 -0.054997284 -0.18696986
000170 e5 7a a0 bc 3f 38 df 3d 4b 6d e0 bc a3 64 f4 3c
       -0.01958985 0.108994 -0.027395865 0.029833144
000180 4f d6 a9 bd aa 47 6c bd 81 e5 8e bd 26 9f 51 3d
       -0.08292829 -0.05768553 -0.06977368 0.051177166
000190 2b 8c 09 bd fb d9 57 3e b8 4f 15 3e 06 b1 7c 3d
       -0.03358094 0.21079247 0.14581192 0.06169226
0001a0 11 9a 9b 3d 23 93 a8 bd 35 d5 de 3d 94 88 b7 3c
       0.07597745 -0.08231189 0.1088051 0.022403993
0001b0 04 cb 55 bd a4 0d 24 bc 72 95 9d 3d 3c 15 34 3e
       -0.052195564 -0.010013018 0.0769452 0.17586225
0001c0 00 a6 90 bd 6f 7c 74 bc f5 ba b3 3b 50 74 2b be
       -0.07062912 -0.014922245 0.0054849335 -0.16743588
0001d0 1f 13 3c bb 34 83 04 3d 14 55 a2 bd 1c 23 ba 3d
       -0.002869792 0.032351688 -0.079263836 0.09088728
0001e0 1c a8 15 3d ad 0f 9f 3d 31 ca 81 3d 3d 05 7c 3d
       0.036537275 0.07766662 0.06337393 0.061528433
0001f0 48 c9 37 bd 80 84 8e ba 62 da 31 3d 4c f6 23 bd
       -0.04486969 -0.0010873228 0.043421157 -0.04002981
000200 ef bc be bd 4b 51 ff 3d 94 a8 bc 3c dc 0f 01 be
       -0.0931338 0.12466677 0.023029603 -0.12603706
000210 52 81 46 bc bd 13 e0 bd 9c 42 c1 3d 22 ca 21 3e
       -0.012115793 -0.10941265 0.09436533 0.15799764
000220 65 6c c6 3a ac fb 8e bd a5 31 56 bc af 33 06 3e
       0.0015138505 -0.06981596 -0.01307336 0.13105653
000230 14 d2 52 3d 86 97 0e 3e d5 2c a2 bd ef 2d 5e bd
       0.051469877 0.13924989 -0.07918707 -0.054243024
000240 bf c9 ed 3d af 53 ba 3d 15 c2 9f bc 69 dd 88 bd
       0.11610746 0.09097993 -0.019501725 -0.06682856
000250 f8 be 34 be 8f ec ca 3d 5a 24 69 3d 25 31 3f 3e
       -0.17650974 0.09908401 0.056919433 0.18671091
000260 0b e4 b2 bc 9a 3c 3e be 00 18 c2 3d 43 a3 ab 3d
       -0.021837255 -0.18577805 0.09477234 0.08380749
000270 44 4a 47 3e 20 58 19 3e 89 d4 bc 3c 6f f2 0e bd
       0.19461924 0.14975023 0.023050563 -0.03489917
000280 ed 7a a1 3d 1f 93 19 be fd a6 89 bd 3e b2 6a bd
       0.07884774 -0.14997528 -0.067213036 -0.05729889
000290 02 ec 1d 3e f3 85 25 bd 9d 8e 0e be 35 11 56 3e
       0.15422061 -0.040410947 -0.1392159 0.20905001
0002a0 ca e0 9e bd d8 a7 9c 3c 7c d6 9b 3d 87 6a c8 bc
       -0.07757719 0.019123003 0.07609269 -0.024464859
0002b0 d5 cc e9 3d 53 a6 24 bb f3 c2 fe 3b 2a 50 80 bd
       0.11416022 -0.002512355 0.0077747046 -0.0626529
0002c0 ca c0 bd bc 47 76 3e 3d c4 98 6b bd f6 45 3a bd
       -0.023163218 0.046499517 -0.057518736 -0.045476876
0002d0 57 44 2c 3d 99 de 21 3d 2c 5f 2f 3d 88 b3 ff bd
       0.04205736 0.039518926 0.042815372 -0.12485415
0002e0 0e 76 62 3d 0e 8c 9a 3d 2d 5f 8e 3d e4 5b 22 bd
       0.055288367 0.075462446 0.06951747 -0.039638415
0002f0 3a b6 42 3d e2 0d 26 3e c8 e3 cc 3d b3 6b d6 bd
       0.047537066 0.16216233 0.10004383 -0.10469761
000300 f9 da b3 3d 80 cc 51 3d ed 64 69 bb 88 3e 3d 3d
       0.08782 0.051220417 -0.0035613135 0.046202213
000310 9e 15 85 be 6f 5b 90 3d fc 00 96 3d 3a 00 71 bd
       -0.25993055 0.070486896 0.073244065 -0.058838107
000320 cd 07 52 3c cf 9f 1d bd c3 f2 84 bd c1 e1 c3 bd
       0.012819243 -0.038482483 -0.064916156 -0.095645435
000330 13 0d 29 bd f6 f6 1b be be 2c 55 bd 03 60 44 bd
       -0.041272234 -0.15230927 -0.052044623 -0.047943126
000340 e2 f9 82 bd 58 c3 2f bd e5 de 2e bd 1e 8f 5a bc
       -0.063953176 -0.042910904 -0.042693038 -0.013339786
000350 e3 45 46 3d 9f 0c 06 bd 29 9d 98 3d 4b cb 32 be
       0.048406493 -0.03272688 0.07451851 -0.17460363
000360 e6 fb ea 3c 10 df 00 bd 43 4a 42 bd e7 db 93 bd
       0.028684568 -0.03146273 -0.047434103 -0.072196774
000370 a7 9b 00 be a0 77 ec 3c 5c 35 26 3d 9a 2c f5 3b
       -0.12559377 0.028865635 0.04057823 0.0074821236
000380 02 ca 29 3d f9 41 bc 3c 96 aa 1b bd 82 11 08 bd
       0.041452415 0.022980677 -0.03800448 -0.03321982
000390 a3 d2 83 3d 4f 2b 97 3b ca e9 d3 bd df 44 76 bd
       0.0643666 0.004613317 -0.10347326 -0.060124274
0003a0 51 da 88 3b a6 d2 f9 bd 78 5b 7b 3d 07 13 57 bd
       0.004176416 -0.12198381 0.06136653 -0.05250838
0003b0 b3 ae 6d 3d 0b 34 aa 3d bc 92 30 bd 52 df 06 be
       0.058027934 0.08310708 -0.043108687 -0.13171127
0003c0 c6 fc 9c bd dc 13 4e be ed 91 24 bc 17 5c b3 3c
       -0.076654 -0.20124763 -0.010044557 0.021894498
0003d0 9f 47 ab bd ef ac b1 3c c0 b8 11 bd 34 98 80 3d
       -0.0836327 0.021688906 -0.035576582 0.062790304
0003e0 26 49 69 3d fb 5d a6 bc 4f 68 bb ba ca 1c 8c 3d
       0.056954525 -0.020308485 -0.0014298054 0.068414286
0003f0 00 1d 04 3e bd a1 b6 bd dd 0f 13 be 84 23 21 be
       0.12901688 -0.08917568 -0.1436152 -0.15736204
