results/ppo/Seek/Seek-41782.pt (torch, 446946 bytes, 42 tensors)

network_body._body_endoder.seq_layers.0.weight f4 [128, 6]
000000 3f 53 88 3d 20 c5 61 be c1 31 a1 3e 0c a9 c2 bd
       0.06656503 -0.22047853 0.31483272 -0.095048994
000010 4a 93 6a be 47 6f 9d bd 0b 8a 8f be b6 b7 02 bf
       -0.22907749 -0.0768724 -0.28035006 -0.5106157
000020 eb 02 f2 3e 5d 1e 03 bf 6f b8 ef be d4 7f c6 3e
       0.4726785 -0.51218206 -0.468204 0.387694
000030 56 d5 14 3f ba 1c 1f be 07 71 56 3d c0 0b 1b 3e
       0.58138025 -0.15538302 0.052353885 0.15141201
000040 a0 17 73 3e 34 6d b8 3e 13 70 90 3e 70 56 40 3e
       0.23739481 0.36020815 0.28210506 0.18782973
000050 8f bc fa 3d 8a 3c b0 3e 5f 5d 32 3e cb f1 a7 3e
       0.12242996 0.34421188 0.17418431 0.3280166
000060 c0 1f 5b bf 45 e0 f4 3e d1 c0 85 3e 75 58 d1 3c
       -0.8559532 0.47827354 0.2612367 0.025554875
000070 13 09 5c bf 6b 6a 9c 3e b0 7b 0f bf 44 8c b8 be
       -0.85951346 0.3054994 -0.5604811 -0.36044514
000080 a9 ec 30 be 4d f2 6f be 0b 67 74 be 80 e4 48 bc
       -0.17277779 -0.23432274 -0.23867433 -0.01226151
000090 82 16 14 bf 2d 7f d0 be 9c 46 c4 3e 97 cd d9 bd
       -0.57846844 -0.40722027 0.3833512 -0.10634916
0000a0 6f b0 f1 bd 24 42 31 be 2f 48 ec bd 63 37 98 be
       -0.1180123 -0.17310387 -0.115372054 -0.29729757
0000b0 c6 22 52 3e 3e 79 e4 3e 18 a3 a9 be 76 33 98 be
       0.20521078 0.4462375 -0.33132243 -0.29726762
0000c0 b3 15 c2 bd ec b8 c0 3b 84 f6 53 bf ef 13 eb bc
       -0.09476795 0.0058814194 -0.8279803 -0.028696029
0000d0 39 0a 66 be cf e0 22 3e 10 88 c5 3e 41 0b 36 be
       -0.22464837 0.1590607 0.3858037 -0.1777773
0000e0 bb 1b 36 be 1b 0c ca bc 8e bf 24 be 96 39 71 3c
       -0.17784016 -0.024663975 -0.16088697 0.014723202
0000f0 16 10 12 3d 63 83 18 3e ab db b1 3e fc 22 5f 3f
       0.035659872 0.1489387 0.34737906 0.87162757
000100 e3 7a 02 3d ef 79 64 3f dc 6f a4 3e 06 b6 d2 be
       0.031855475 0.89248556 0.32116592 -0.41154498
000110 e2 8c 8f 3c 7f 06 42 bf 7d 41 19 bc de 2c 3d 3e
       0.017523233 -0.7579116 -0.0093539925 0.18474147
000120 a2 58 14 bc b7 5c 2e 3e ac af d0 3d 35 b5 7d be
       -0.009054335 0.17027555 0.10189757 -0.24776156
000130 48 b3 ab be c0 ce 3a bf df 80 87 bf ab 5d 1b bf
       -0.33535218 -0.72971725 -1.0586203 -0.606898
000140 b2 17 c0 bd 14 92 90 bc 06 c6 6a be 7f 14 8f be
       -0.093795195 -0.01764778 -0.22927102 -0.27945325
000150 b0 ed 25 bf bb 88 61 3d ab a0 d2 be 95 18 85 be
       -0.6481581 0.055062037 -0.41138205 -0.25995317
000160 cd 17 42 3e d0 47 8d 3e 4b 86 03 3e d0 54 bb 3e
       0.18954392 0.2759385 0.12844197 0.36588144
000170 5d ec 41 3d 43 9b 13 3f d6 ef f4 3e 2a 3b 15 bf
       0.047344554 0.57658786 0.4783923 -0.582934
000180 28 21 12 bf 15 a3 28 3d 9d 07 8e be 6f 85 3d 3f
       -0.5708184 0.041171152 -0.27740183 0.7403173
000190 d6 8f 08 bf 86 77 08 be 17 4f fd bd 4a 14 09 3f
       -0.53344476 -0.13326845 -0.12368601 0.53546584
0001a0 2e 8f 23 3f 63 78 97 3e 65 b6 ca bd 7b b5 f9 3d
       0.6389035 0.29584035 -0.0989807 0.12192818
0001b0 b4 ca bf be 8f 2d 32 bf b7 12 28 3f cd 3b 9e 3e
       -0.37459338 -0.69600767 0.65653557 0.30905
0001c0 d4 d2 82 bf 09 04 07 3f ac df 82 bd 6f e9 e8 bd
       -1.022059 0.5274053 -0.06390318 -0.11372649
0001d0 59 6e b4 bc 34 01 ec 3d a5 bd b5 be 6c 91 0e bd
       -0.022025274 0.11523667 -0.3549625 -0.034806654
0001e0 2f b0 08 3f dd 38 f2 be b7 28 28 3f 90 03 a9 3e
       0.53393835 -0.47309008 0.65687126 0.3301053
0001f0 2d 94 c9 be 6a 1c ad be d5 05 63 be eb ea d5 3e
       -0.39370862 -0.3381074 -0.22170193 0.4178079
000200 f0 30 1d bf 20 38 cc 3e db b3 26 be 8e 51 0a bd
       -0.614028 0.3988657 -0.16279547 -0.033769183
000210 3e 0e 85 3e 5e 35 32 bf 13 b2 d0 3e d9 59 bd 3d
       0.25987428 -0.6961268 0.4076086 0.09245653
000220 8a 09 6e 3e d9 ab 1c 3e b8 5d 45 bd 7a e6 f0 bc
       0.23245826 0.1529993 -0.04818508 -0.029406775
000230 dc 92 07 be d5 98 2c be 6c c8 02 be 16 9e 1f bf
       -0.13239616 -0.16855176 -0.12771767 -0.62350595
000240 b7 e7 50 bf a6 74 d8 3e 41 94 9f 3e de fa 23 bf
       -0.8160357 0.42276496 0.31167796 -0.6405467
000250 5f f3 82 3f ed 2e 99 bd cc b2 35 3f dd 86 fa 3d
       1.0230521 -0.074796535 0.7097595 0.122327544
000260 ed 0d 12 3c 23 fe da bd 20 cc 79 3d d0 c6 c4 3d
       0.008914453 -0.10693004 0.060985684 0.09608233
000270 3a 74 0c bd d7 06 0f bf d1 77 a8 3d 2e 61 0d be
       -0.03429053 -0.5586981 0.08225978 -0.13806602
000280 04 db c9 3d 05 03 10 3f 13 2e dc 3e 06 4c 7a 3e
       0.09856227 0.5625461 0.43003902 0.24443063
000290 c4 6e 0c be 88 c1 29 3f 84 79 5d 3e cd bd e0 3e
       -0.13714129 0.6631093 0.21628386 0.43894807
0002a0 70 12 b5 be 34 5c ca be ea fb e0 3d b2 b6 c2 3e
       -0.3536563 -0.3952347 0.10985549 0.3803001
0002b0 cc 6d a4 bd 50 6e cf 3f 7c a4 27 3f a3 7e 6c 3f
       -0.080287546 1.620554 0.6548536 0.9238073
0002c0 ab 95 b8 3e 15 24 6c be 63 1d 19 3c 30 88 e9 bd
       0.36051688 -0.23060639 0.009345385 -0.11402929
0002d0 2b 45 23 3e 23 23 60 3e d9 2c 4b 3e 91 a7 ff be
       0.15944354 0.21888404 0.19841327 -0.4993253
0002e0 18 1f 83 be 22 f4 cd 3c c8 89 08 bf a1 ca 9f be
       -0.2560966 0.025140826 -0.5333524 -0.3120928
0002f0 9a 69 cb bd e7 55 de 3e aa 05 ee be 14 dd e1 bd
       -0.09932251 0.43424913 -0.46488696 -0.110284954
000300 2b d5 99 bc 2a c5 b4 3e 27 5b 2a be df c5 85 be
       -0.018778404 0.35306674 -0.16636334 -0.26127526
000310 b5 e7 a4 bd 54 fb 39 be b7 8e 5d be ec 80 83 be
       -0.08052007 -0.1816228 -0.21636473 -0.25684297
000320 63 3a 01 bf 26 c4 73 3f d9 c4 01 3f f7 c0 aa 3e
       -0.50479716 0.95221174 0.5069099 0.33350345
000330 90 87 47 3e 75 47 96 3e bb 9e d0 bd 1b 68 01 bf
       0.19485307 0.29351392 -0.101865254 -0.5054948
000340 af ce 87 be a8 b2 f5 bc 5a 51 55 3e 13 bc 21 3e
       -0.26524875 -0.029992417 0.20831814 0.15794401
000350 cb 5b 60 3f bf 10 d6 3c db 04 aa be df 70 7b 3e
       0.87640065 0.026131032 -0.3320683 0.24554776
000360 a9 d1 4e bd 13 52 14 3e af 53 0b 3e 97 6e 43 3e
       -0.050492916 0.14484434 0.13606142 0.19085155
000370 cd 31 35 bf 7a 45 37 3d cf 1b 0a bf 45 76 d9 bd
       -0.70779115 0.044743992 -0.5394868 -0.10618261
000380 06 64 98 bf ec c5 c1 3d ae c0 b8 3c 55 c9 c9 3d
       -1.1905525 0.09461579 0.022552814 0.09852854
000390 c9 7a db 3e 39 a9 2c 3e 06 53 96 3e 06 38 0d bf
       0.42867115 0.16861428 0.29360217 -0.5516361
0003a0 24 df f3 be 87 8e d5 3c 69 d5 4d be 9b 28 84 3e
       -0.4763118 0.026068939 -0.20100941 0.2581223
0003b0 b0 0a 12 be c8 22 18 bf 54 5c 49 bf 83 78 a2 be
       -0.1426189 -0.5942807 -0.78656507 -0.31732568
0003c0 17 fc 12 bf 43 0d 7c 3e d7 7c b3 3e 70 4f e2 bc
       -0.5741591 0.24614434 0.35056183 -0.02762577
0003d0 cd 28 92 bd b0 0a 94 bd 92 35 f1 be bc e3 d6 3e
       -0.071366884 -0.07228601 -0.47111183 0.41970623
0003e0 76 41 08 3e c9 35 a0 3e 6a 85 01 bf ee 23 12 bc
       0.13306221 0.31291035 -0.505942 -0.008919699
0003f0 47 19 dc 3d 4c 98 3f 3f 7e 2e 07 bf d6 7e 65 3e
       0.10747009 0.7484176 -0.52805316 0.22411665

network_body._body_endoder.seq_layers.0.bias f4 [128]
000000 b7 cd 6b 3c c1 bf 40 bc e8 4f 0d bc 4e 7e 31 bc
       0.014392308 -0.011764468 -0.008625008 -0.010833336
000010 9c a7 71 bb ce b8 92 3b c4 16 df 3a ed de d4 bb
       -0.0036873585 0.004477597 0.0017020334 -0.0064963014
000020 ae b7 a3 bb d7 a8 69 3a 33 75 e4 3b f1 ff f1 bb
       -0.0049962616 0.0008913404 0.006971979 -0.007385247
000030 5c 4f 42 b9 fa 95 0b 3a 1a 11 23 3b 82 34 ca 3b
       -0.00018530845 0.00053247774 0.002488202 0.00617081
000040 c2 7b d8 bb c2 35 19 3c f5 37 e9 bb ac 5b f0 bb
       -0.00660655 0.009351196 -0.0071172663 -0.007335147
000050 83 42 98 3b 71 7f 06 bc 95 ec 30 3c 56 75 cd bb
       0.0046466007 -0.008209095 0.010798593 -0.006270091
000060 4f eb 46 3b 7a 66 27 bc a1 59 dc bb f8 60 20 bb
       0.0030352657 -0.010217303 -0.006724552 -0.002447186
000070 7a 81 bc 3b 80 1f 41 bb 13 8f 61 3c db 6e dc 3b
       0.0057527395 -0.0029468238 0.013767022 0.006727082
000080 49 ee 9c 3b c9 9d 27 3c 62 96 42 3c 20 8a 6a 3c
       0.004789148 0.01023049 0.011876674 0.014315158
000090 a8 63 e9 3b e3 81 0a 3c 50 9c 62 3c 47 02 5e 3b
       0.0071224757 0.008453819 0.013831213 0.003387587
0000a0 14 13 52 3b 3b 94 f3 3b 92 4c cb bb 99 29 8e 3b
       0.0032054828 0.007433442 -0.0062041963 0.004338455
0000b0 ba 79 ba bb fd 00 9f 3b 14 28 80 3c 76 0f 3d bb
       -0.0056907805 0.0048524127 0.01564411 -0.0028848327
0000c0 05 19 06 3a b4 f8 5f bb 98 07 c8 bb 77 dd 80 3b
       0.00051154225 -0.0034175338 -0.006104421 0.0039326507
0000d0 7f 09 54 3b ce be fb 3b 9d ef c6 3b 96 4c 30 3c
       0.0032354293 0.007682658 0.0060710446 0.010760447
0000e0 14 fa 00 bc d9 2a 61 3c 58 a5 47 bc 97 bb fe 3b
       -0.007872123 0.013743126 -0.012185417 0.0077738273
0000f0 63 1b de ba 61 ba 0e 3b 48 e2 26 3c c2 56 13 3c
       -0.0016945418 0.002177857 0.010185786 0.008992853
000100 73 aa 15 3c e6 31 8a 3c 99 1c 55 bb 78 20 d8 3a
       0.009134877 0.016869497 -0.0032518266 0.0016489169
000110 f0 49 b4 3b d9 c3 9e 3a 95 0f bf 3b db 4c e0 bb
       0.005501978 0.001211281 0.005830715 -0.0068450994
000120 71 d7 c9 3b 04 0b 0c bb 1b f8 7d 3a 46 7b 87 3a
       0.006159716 -0.002136887 0.00096881547 0.0010336421
000130 3b 57 ea bb 57 35 09 bc bf 5c 28 3a b3 4e a1 3b
       -0.007151512 -0.008374534 0.00064225117 0.0049227118
000140 39 ad 33 3c 07 a1 95 3b 45 35 db 3b 78 38 d7 3b
       0.0109665925 0.004566315 0.0066897 0.006568011
000150 a4 a6 08 3c 32 0a 3f 39 02 02 54 bb 05 06 f0 3b
       0.0083405115 0.00018218977 -0.003234983 0.0073249363
000160 15 60 51 3c 21 f0 5d bb eb e1 f6 3b e4 2f 3c 3c
       0.012779255 -0.0033865052 0.0075342557 0.011486027
000170 91 58 e6 bb 51 f5 17 ba 61 69 46 bc e0 af 0c bc
       -0.007029601 -0.0005796748 -0.012110085 -0.008586854
000180 78 51 33 bb 2f 0b fa 3b db c7 e6 3b bf b1 12 3c
       -0.0027361792 0.0076307277 0.0070428676 0.008953511
000190 32 c4 06 3a b0 85 6a 3c 99 5e 86 3b a0 5a 07 bc
       0.000514093 0.0143141 0.0041006324 -0.008261353
0001a0 2d 5c 91 bb 52 fb 80 3b 47 de 2c 3c bd e7 f6 3b
       -0.004436037 0.0039362097 0.010551042 0.0075349496
0001b0 02 83 f6 3b a3 99 a5 3b 90 df 10 3c b0 ad 54 b9
       0.0075229416 0.0050537153 0.008842364 -0.00020282599
0001c0 e1 d4 3b 3c 9c 66 9f 3a c3 c8 8b 3b 31 ab 6a 3b
       0.0114643285 0.0012161317 0.004265876 0.0035807604
0001d0 ea 36 38 3c 24 fe 51 bb 6f 80 24 b9 f5 42 ba bb
       0.011243561 -0.0032042349 -0.00015688104 -0.0056842514
0001e0 bc 4a f9 3b 2f d7 16 3c ce 7f 9b 3a 2c 43 9f bb
       0.007607786 0.009206577 0.001186365 -0.0048603024
0001f0 1b 93 b1 3c cd f9 91 bb 0d f5 41 bc c9 2c ed bb
       0.02167659 -0.0044548274 -0.01183821 -0.007238005

network_body._body_endoder.seq_layers.2.weight f4 [128, 128]
000000 1c a9 e4 bd 32 02 d7 bd 32 c8 88 3d 4e 1a a4 3d
       -0.111650676 -0.104984656 0.06678809 0.0801283
000010 5b 35 d8 3d e0 90 9b bd 9a 58 96 bd 81 ee 1c be
       0.10557052 -0.07595992 -0.07341118 -0.15325357
000020 f2 69 a3 bd 44 b2 e5 bc e5 60 19 bd bb 30 99 bc
       -0.07979192 -0.028039105 -0.03744592 -0.018699994
000030 80 70 19 3e 55 0b c4 3d 02 86 35 be 0b ca 0b be
       0.14984322 0.09572474 -0.17726901 -0.13651292
000040 01 52 66 bd 85 6b a1 bc 24 0c 32 bd 7f b4 b1 3b
       -0.05623055 -0.01970459 -0.04346861 0.005423128
000050 0b 7f 26 3d f3 18 cc bd 59 2d 80 bd 24 b0 87 bd
       0.0406485 -0.09965696 -0.062586494 -0.06625393
000060 09 6c ff bc 78 9d ab bd 63 18 02 be bb 2a a1 ba
       -0.031179445 -0.08379644 -0.12704615 -0.001229606
000070 56 b1 04 3e ce 82 48 3e 7d b2 66 3b 09 0e ac 3d
       0.12958273 0.19581148 0.0035201602 0.084011145
000080 10 4f 95 3d 10 9b 1c bd 1a 9a 83 3c 93 4e 35 bd
       0.072904706 -0.038233817 0.016064692 -0.044264387
000090 65 0c 08 3e 42 72 03 3e 03 03 b6 3d 16 c9 9e bc
       0.13285978 0.12836555 0.08887293 -0.019382995
0000a0 22 6c 8a bc 5c 67 a0 bd c6 34 86 3d 80 0a e9 3a
       -0.016897265 -0.07832214 0.065530345 0.0017779619
0000b0 4d 69 9f bb d5 15 87 3c d6 81 04 3c 84 3a 42 3b
       -0.0048648478 0.016489903 0.008087596 0.0029636929
0000c0 66 c8 fe 3b c5 dd c8 bd 9c 75 f9 bc 33 e9 b6 3c
       0.007775354 -0.09807924 -0.030451588 0.022327995
0000d0 67 5b 23 bd 5c 54 9f bc fd f6 d8 bd 97 ec cf 3d
       -0.03988209 -0.019449405 -0.10593984 0.10152548
0000e0 5f c6 bd 3d c7 49 89 3e be 06 a5 3d 71 50 c0 3d
       0.09266352 0.268141 0.080579266 0.09390343
0000f0 f8 a8 2f 3e d3 d0 0f 3e 66 24 21 3d 6b cb 09 be
       0.171543 0.14044504 0.039341353 -0.13456504
000100 32 ba 8a bd 53 43 8d 3d 83 77 87 3d 79 d9 d8 3d
       -0.06773795 0.06897607 0.06614592 0.105883546
000110 59 af 1c 3d 14 e3 46 3d 45 fc ff 3a b6 29 fc bd
       0.038253162 0.048556402 0.0019530138 -0.12312643
000120 dc 5a b5 bd 73 b9 e0 bd 9d 0a e2 3d 12 37 c3 3a
       -0.08855221 -0.10972872 0.110371806 0.0014893732
000130 fc 5d 8b bc e1 e3 09 bd 18 23 9e bc 00 7c 6d bd
       -0.017012589 -0.033664588 -0.019303843 -0.057979584
000140 03 5b 1d 3d 79 72 4c bd d7 01 e5 bd 46 e3 f1 3d
       0.038416874 -0.049913857 -0.111819915 0.11810927
000150 e5 47 a9 bc cd 81 f6 bd 74 59 c0 bd 34 4f bc bd
       -0.020664165 -0.12036476 -0.09392062 -0.09194794
000160 80 9c d8 bc 9a f0 30 be 04 af 89 b8 d3 c4 cc 3d
       -0.026441813 -0.17279282 -6.565268e-05 0.09998479
000170 5e 4b 46 3d 8c 30 27 bd 52 5f 2d 3e a8 e8 d0 bd
       0.04841172 -0.040817782 0.16930893 -0.10200626
000180 78 e1 e8 bd 82 02 19 be 14 02 dd bc db e6 c5 bd
       -0.1137113 -0.14942363 -0.02697853 -0.09663173
000190 04 4f e6 3d 0d 18 04 bd 12 9c e1 3d dd 1d b3 3d
       0.1124554 -0.0322495 0.11016096 0.0874593
0001a0 33 a1 35 3c 8e 65 11 3e c1 3e 25 3d 75 c1 3f bd
       0.011085796 0.14198896 0.04034305 -0.046815354
0001b0 fc a7 13 be c3 6c 8b bc c3 10 14 3e f4 85 f3 3d
       -0.1441955 -0.017019635 0.14459519 0.11890784
0001c0 b7 48 9f 3c 39 13 94 bd f4 f8 98 bd 96 6f 8e 3d
       0.019443853 -0.07230229 -0.07469359 0.06954877
0001d0 7f 45 92 bd ce 3b 13 bd 2f 3e d8 3d 6e fe 5a 3e
       -0.071421616 -0.035945706 0.105587356 0.2138612
0001e0 2b a8 3c 3d 9f bd 20 3d 06 93 b1 3c 1c 46 21 bd
       0.046058815 0.039243337 0.021676552 -0.039373502
0001f0 33 99 f4 3c 60 af 2c be 62 17 7a bc 97 8e b8 bd
       0.029858207 -0.16863775 -0.015264364 -0.09011572
000200 ec 88 18 be 2f 1b 36 3e 06 e4 3a bc c8 02 e4 bd
       -0.14895982 0.17783807 -0.011406904 -0.11133343
000210 f5 56 c7 bc d7 0a d0 3d 4f ba 20 be e5 e8 a4 3d
       -0.024333457 0.101583175 -0.15696071 0.080522336
000220 3c f8 94 bd 1e 17 33 3d 4e 44 32 3c 7c c5 d0 bb
       -0.072739094 0.04372322 0.010880543 -0.006371198
000230 d8 7e 43 3b d4 e7 06 be c8 aa f1 3b 1c 4b 60 3e
       0.0029830243 -0.13174373 0.007375095 0.21903652
000240 3b e3 7f 3e ab 59 1a 3c 80 26 45 3c 9e 95 ae bd
       0.24989025 0.009420793 0.012033105 -0.08524631
000250 9d a2 88 3c 78 4e d0 bc 60 c8 f3 3c fc b0 6a 3d
       0.016679103 -0.025428042 0.029758632 0.05729769
000260 e2 6e e3 bd 2e 71 1a 3d c3 1c 16 be f2 94 fe bc
       -0.111051336 0.037705593 -0.14659409 -0.031076882
000270 f3 22 80 3c 24 15 f6 3d b0 2d 40 bd 6b ad c7 3d
       0.015641665 0.12015751 -0.04691857 0.09749874
000280 95 6a 03 3d ca b9 9e 3b 99 41 d2 3b f1 d5 fc ba
       0.032084066 0.004843925 0.0064165113 -0.0019289834
000290 7c f1 2d 3e 63 f3 ed 3c a0 37 f0 3d fb 3e b7 bd
       0.1698665 0.02904672 0.117293596 -0.089475594
0002a0 04 b4 62 bd b2 ff b7 bd fd 2e 60 3d 1e 68 a3 3d
       -0.055347458 -0.08984317 0.05473231 0.07978843
0002b0 95 cc e5 bc 52 26 e9 bc 2e 3d 74 bb 1a 38 f9 bc
       -0.028051654 -0.028460655 -0.0037267911 -0.03042226
0002c0 0a 80 13 bd e9 78 3f 3e 4c 32 0f be 64 15 67 bd
       -0.03601078 0.18698467 -0.1398403 -0.056416884
0002d0 c6 0e c1 bd 04 36 31 bd 2d c1 36 3d 1c 8b 3f 3e
       -0.09426646 -0.043264404 0.04461782 0.1870541
0002e0 0d 3e 7c bd 5d 4c c3 3d 92 84 d6 bc 6c cc 16 3e
       -0.061582614 0.095360495 -0.026186261 0.14726418
0002f0 10 75 c9 bc dc 8e 01 be 4c 8c 05 be 7b 1e c7 bd
       -0.024591953 -0.12652153 -0.130418 -0.097226106
000300 12 c0 6e 3d 7c 1a 2d 3e bb 9d a8 bd 32 ec 85 bd
       0.05828864 0.16904634 -0.0823321 -0.06539191
000310 06 d1 eb 3c b3 21 43 3a 7b f2 0d be c2 40 5e 3d
       0.028786194 0.0007443681 -0.1386203 0.054260977
000320 a9 a9 b7 3d 85 5c 0b 3e c7 57 f2 bd c9 fc 53 3d
       0.08967907 0.13609512 -0.118331484 0.051754747
000330 04 b8 a8 bb 48 6c 55 3d 84 19 27 bd 2c 06 0e 3e
       -0.0051488895 0.05210522 -0.040795818 0.13869542
000340 28 a0 c4 3c ab d6 f8 3c 13 65 db 3d 72 2b 4a 3e
       0.02400215 0.0303758 0.10712638 0.19743136
000350 ed e6 5f 3d 44 8f db bc 84 d0 ca 3d df ba 90 3d
       0.054663587 -0.026801713 0.099030524 0.07066893
000360 af da 8b 3c 03 9c ef 3d 76 fb fa 3d b9 e0 3a bd
       0.01707205 0.11699679 0.122549936 -0.04562447
000370 03 72 ed bd 68 5f 90 3d 9f 12 d6 bd ef 07 b0 bc
       -0.11594012 0.07049447 -0.104527704 -0.021488158
000380 6e 89 a9 bb 75 20 b6 3d 35 c9 bf bd fa e4 9f 3c
       -0.0051738536 0.088929094 -0.09364549 0.019518364
000390 f1 c7 08 3e c4 75 a9 bd 63 d5 0b bd 4e 49 c8 3d
       0.13357522 -0.08274415 -0.03413905 0.09779607
0003a0 47 7d d3 3c 99 28 33 3d df 97 89 be 05 5d d8 3d
       0.025816573 0.04373989 -0.2687368 0.10564617
0003b0 84 f4 0d bd ff 8d db 3d ea 62 02 bd 86 44 2e 3e
       -0.034657016 0.10720443 -0.031832613 0.17018327
0003c0 18 ca 86 bc 44 fb f3 bc f7 db 55 bd b8 2d 37 bd
       -0.016453788 -0.029782899 -0.052211728 -0.044721335
0003d0 fc 07 45 3e a8 7b 7b bc 61 67 24 bd af 7a 0f 3d
       0.19241327 -0.015349306 -0.040137652 0.03502911
0003e0 c3 81 42 3d fd 30 21 be a2 fd aa bc e3 48 6e 3d
       0.04748703 -0.15741344 -0.020872895 0.05817498
0003f0 0a ca 05 3e d2 2f 08 bd 7a 71 fb bc fb ea 79 bd
       0.13065353 -0.03324873 -0.030693758 -0.06101511

network_body._body_endoder.seq_layers.2.bias f4 [128]
000000 5b a3 1d bc 22 00 9b 3b 69 2d a0 bb ef 6e 3f bc
       -0.0096214665 0.0047302404 -0.004888226 -0.0116841635
000010 b0 e8 30 bc 1f 9e 00 bc 69 3b d5 bb 4f 63 91 bb
       -0.0107976645 -0.007850199 -0.0065073264 -0.0044368873
000020 57 4b dc ba 2a 64 e9 3b 8b a9 42 bb 9a 60 4b bb
       -0.0016807121 0.007122536 -0.0029703106 -0.003103292
000030 40 c7 74 bc 07 2e a4 bb d2 ee f4 3b a9 5c f8 3b
       -0.014940083 -0.0050103697 0.0074747587 0.0075794053
000040 71 cc 07 3c 8f 3b 29 bc 70 9e b6 3b eb 39 cf 3b
       0.008288489 -0.010329141 0.0055730864 0.006324043
000050 4b 9c d1 3b 4c 3b 91 bb 86 cb ef 3b d8 23 e6 bb
       0.0063968054 -0.0044321176 0.007317963 -0.007023316
000060 82 1a 59 3b 5a 14 17 bb de 69 16 3c 5f c1 04 bc
       0.0033127372 -0.0023052902 0.009180514 -0.008102744
000070 da 96 24 bc 5d b5 18 bc ca 76 b2 bb 7a 0e 13 bc
       -0.010045731 -0.009320584 -0.0054462897 -0.008975619
000080 9a 7a 29 3c c3 5a 3c bc 90 51 fa bb 69 91 1d 3a
       0.010344172 -0.011496249 -0.0076391175 0.00060107425
000090 89 77 ac 3b f8 0c d4 bb bf 4c d2 3b 5e fe c7 bb
       0.005263273 -0.0064712726 0.0064178403 -0.006103321
0000a0 d7 c3 8f bb 90 63 ec bb 5f 10 98 3b fb 23 41 3c
       -0.0043873596 -0.007214017 0.0046406235 0.011788364
0000b0 5c 35 ba 3b 95 0b f3 bb e3 8b 31 3c 70 ce 8c bb
       0.0056826305 -0.007417152 0.010836574 -0.00429707
0000c0 12 6b 53 bc 1b 45 01 bc aa 7e 5b 3b 73 21 f3 bb
       -0.0129039455 -0.007890011 0.0033492246 -0.007419759
0000d0 3e c3 01 bc 16 80 12 3c 32 e0 a6 3b 88 bd 9e 3b
       -0.0079200845 0.008941671 0.005092644 0.004844371
0000e0 b9 ae ea 3b e5 56 e0 3b 2e 18 e3 ba 92 44 0b bc
       0.007161942 0.006846296 -0.0017325932 -0.008500235
0000f0 c9 62 02 bc a5 4d 04 bc 6b 72 8a bb dd 73 43 bc
       -0.0079581225 -0.0080751525 -0.0042250655 -0.011929479
000100 67 23 fa 3b 64 f8 2a bc e2 0b 04 3c a9 46 1d bb
       0.007633615 -0.0104351975 0.008059474 -0.0023998416
000110 9e 74 11 3c 9e 69 64 3b e5 a4 8b ba 6a ca 04 3c
       0.008877901 0.0034852992 -0.0010654001 0.0081049
000120 d1 cd eb 3b 19 8a f4 bb 41 8b e7 3b 55 67 98 bb
       0.007196166 -0.0074627516 0.007066161 -0.00465099
000130 8d 7d 21 3c 0a e9 d3 3b 51 ea 16 bc e6 99 0d bc
       0.009856594 0.0064669894 -0.009211139 -0.008642649
000140 bc b5 cc bb df 4e 2a bc 74 eb ea 3b f7 25 17 bc
       -0.0062472504 -0.010394781 0.0071691815 -0.00922536
000150 e9 62 0d bc dd d6 22 bc ac a2 20 3c 6c b0 44 3c
       -0.008629539 -0.009938923 0.009804409 0.012004953
000160 7d 30 bd 38 3c 3c 5e 3c 91 d9 da bb 55 b4 8a 3a
       9.021254e-05 0.013564166 -0.006678768 0.0010582308
000170 ad 74 a9 bb 11 27 fa bb 14 6a df ba b6 1b 1d bb
       -0.0051713795 -0.0076340516 -0.0017045164 -0.0023972816
000180 3d 64 35 3a e6 a6 3d 3a a5 58 f5 3b 43 ef 25 bc
       0.0006919539 0.00072346476 0.007487374 -0.010127845
000190 0f 66 8d 3b 86 d7 6e 3b 06 c8 a8 bb be 19 ee bb
       0.004315145 0.003644438 -0.005150798 -0.0072662523
0001a0 62 70 0e 3c 6a 1e dc 3b 78 79 74 3a fc e0 85 3b
       0.008693786 0.006717493 0.00093259616 0.004085658
0001b0 7c 6d 5a bb d4 85 91 3b 80 1b bd bb b8 b6 99 3c
       -0.0033329418 0.0044410024 -0.0057711005 0.018763885
0001c0 62 65 e5 bb 3d 46 90 3b 43 18 f0 bb e1 11 6a 3c
       -0.007000611 0.0044029043 -0.007327111 0.014286489
0001d0 f0 e0 b1 ba 89 05 ed bb 94 b3 37 3c 65 a6 90 bb
       -0.0013571065 -0.007233326 0.011212248 -0.004414367
0001e0 99 45 64 bb c0 00 2c 3c 18 6b c0 bb 34 71 3e 3c
       -0.0034831522 0.010498226 -0.0058721416 0.011623669
0001f0 dc ff f8 bb 64 aa 90 3b 7e 96 16 bc 77 9d b3 3b
       -0.00759886 0.0044148434 -0.009191154 0.0054814178

action_model._continuous_distribution.log_sigma f4 [1, 2]
000000 79 26 9f bc 99 d1 4e ba
       -0.019427525 -0.0007889509

action_model._continuous_distribution.mu.weight f4 [2, 128]
000000 62 ae 8b bb 50 d1 b0 3b 31 60 1b bc 8e 06 29 bd
       -0.0042627314 0.0053960457 -0.009483383 -0.041266017
000010 31 d0 8f bc 48 37 7f bc a4 27 07 bc 20 a1 93 bc
       -0.017555328 -0.015577145 -0.008249197 -0.018021166
000020 e6 30 92 3b ef db c7 3c 49 c8 20 bc 61 96 a3 bc
       0.0044613956 0.024396865 -0.009813377 -0.019969167
000030 7f 66 da ba be 69 e3 ba 0d 9b cf 3c 66 36 90 bb
       -0.0016662626 -0.0017350239 0.025342489 -0.004401016
000040 aa 24 46 3c ab 3b 0e bd 16 ac 77 3c 10 65 5d 3c
       0.012093702 -0.034724873 0.015116712 0.013512865
000050 03 7a 76 3a 51 93 45 bc 19 d3 9a 3c 72 e8 13 bd
       0.00094023364 -0.012059049 0.018899487 -0.03611035
000060 b4 f6 6b 3c 29 06 9d 3b 1a 34 d0 ba 56 f9 8f bc
       0.01440208 0.004791994 -0.0015884668 -0.017574947
000070 23 4f 46 bd 67 d7 36 bc 15 db 17 bd 1b 84 62 bc
       -0.048415314 -0.011159754 -0.037074167 -0.013825442
000080 e2 3f 0d bc 93 2c b3 bc 2d 1c 40 bd cb 58 ce bb
       -0.008621188 -0.02187184 -0.04690187 -0.006297206
000090 af 63 88 3c dd 31 77 b9 a2 0f c3 3c b4 16 a5 bb
       0.016649095 -0.00023574331 0.023811165 -0.005038107
0000a0 0e 0a 7f bc a0 0d 03 bc c7 83 3c 3c 8b 80 88 3c
       -0.015566362 -0.007998854 0.011506028 0.016662857
0000b0 99 09 28 3c 7b ba 8f bc 71 40 78 3c 24 18 6d bc
       0.0102561945 -0.017544976 0.015152083 -0.014471088
0000c0 aa 78 45 bb cb 43 c2 bc 72 63 86 bc 71 53 ec bc
       -0.0030131736 -0.023713967 -0.016404841 -0.028848382
0000d0 ae 3c c2 bb 8e 8d a6 3c 27 64 25 3b ac 88 8b 3c
       -0.0059276437 0.02033117 0.0025236697 0.017032944
0000e0 52 10 a8 3c 72 4a 78 3c f5 84 d5 39 56 b1 29 bc
       0.020515595 0.015154468 0.00040725587 -0.010357222
0000f0 c9 44 17 bc c5 d6 59 bc c4 08 f4 bb 99 19 03 bd
       -0.009232708 -0.013295834 -0.007447334 -0.032006834
000100 04 c0 1c 3d 1c 37 23 bd 0f a4 7c 3c 20 8a 1f bc
       0.038269058 -0.03984748 0.015419974 -0.009737521
000110 d6 db ae 3c 0f ea a0 bc 2d ed a9 bb ed 67 41 3d
       0.02134506 -0.019642858 -0.0051857443 0.047218252
000120 13 38 b0 3b 29 f4 87 bb 08 8a ae 3c 70 25 57 bd
       0.0053777783 -0.004148979 0.021306053 -0.052525938
000130 bd 89 f1 3c e3 53 96 3c 7c 25 51 bc 58 d6 5f bc
       0.029484624 0.018350547 -0.012765285 -0.013661943
000140 bf 7e 07 bd 48 50 cd bc 94 de 64 3c ba 6b 8c bc
       -0.03307986 -0.025062695 0.013969082 -0.017141212
000150 4d 4a 9b bc b6 c8 8b 3a d4 85 ca 3c 4d 15 b1 3c
       -0.018956328 0.0010664675 0.024722017 0.021616602
000160 b9 c3 15 3b 27 8f d9 3c a3 96 36 bc ff 05 96 bb
       0.0022852255 0.026557518 -0.011144313 -0.0045783515
000170 98 a7 c4 ba 11 7f c6 bc ba e5 db bc be 89 5f bc
       -0.001500356 -0.024230512 -0.02684294 -0.01364368
000180 de 91 4c bc 60 fe c5 3a 2d cd c5 3c 3f 14 0c bd
       -0.012485949 0.0015105717 0.024145687 -0.034198996
000190 62 b1 04 3b d2 f2 65 3b f7 ef 28 bd 21 44 42 bc
       0.002024733 0.003508736 -0.041244473 -0.0118570635
0001a0 62 e8 2a 3d 3f 4f 86 3c 41 4a 12 bc cf fe 15 39
       0.041725524 0.01639521 -0.008928836 0.00014304671
0001b0 9b 27 be bc 0c 4f 82 3c f2 0f 69 bc c3 b2 30 3c
       -0.023212245 0.015906833 -0.014224993 0.010784808
0001c0 62 ad 9c bb 70 81 10 3c aa 70 65 bc 1d 63 5c bc
       -0.004781411 0.008819923 -0.014003912 -0.013451365
0001d0 aa 17 f6 bb 1a f9 22 bc 16 0f b2 bc 55 ef df bb
       -0.007510145 -0.009947086 -0.02173571 -0.0068339505
0001e0 64 c6 c0 38 99 ac 1e 3d 6b f2 ba bc 8b 32 25 bb
       9.1922266e-05 0.03873882 -0.022820672 -0.0025207128
0001f0 d7 f6 12 bd f6 05 30 3c 4d 2b 35 bc cc e5 01 3d
       -0.035879936 0.010743609 -0.011057687 0.031713292
000200 4b 18 ac 3b d3 c9 e3 3c 7c 35 d7 3c 1d cb 3d ba
       0.0052519194 0.027806198 0.02627062 -0.0007240044
000210 3f e1 12 bc 6a 0d a3 bc 46 c3 bd bc e3 85 dc 3b
       -0.008964836 -0.019903857 -0.023164403 0.0067298277
000220 9d 09 bc 3c db 8b 0e 3d 72 50 06 bd 96 1a da bc
       0.022953803 0.034801345 -0.032791562 -0.026624005
000230 81 95 00 3d 10 85 93 3b ad 33 8d bb 28 ea ca 3c
       0.031392578 0.0045019463 -0.0043091387 0.024769858
000240 6c 0f a5 3c e6 69 87 bb 14 d7 ed bb fc e7 6c 3b
       0.020148955 -0.004132497 -0.0072583053 0.0036149016
000250 14 dc 35 3d 97 b8 99 bb 96 dd 77 bc 3f 43 fa 3b
       0.044399336 -0.0046911943 -0.015128514 0.007637411
000260 51 9c ac b8 e0 e4 04 3d ac f0 9a bc 18 ab a5 3a
       -8.230715e-05 0.032444835 -0.01891359 0.0012639491
000270 0b cb 7f bc 8c bd 35 3c d6 7f 5b 3c 76 9a f2 ba
       -0.015612374 0.011092555 0.013397178 -0.0018509168
000280 46 99 24 bd 5e d7 d7 3b c2 c1 db 38 c3 45 b2 3b
       -0.040185235 0.006586953 0.00010478824 0.005440445
000290 4f 3b 3a bc 4c 25 85 bc d8 7e 1b 3c 6e bd e5 bb
       -0.011366679 -0.016253136 0.009490691 -0.007011107
0002a0 e6 29 11 3c 7f 81 c8 3c 38 da 18 3c 37 8e 3c bd
       0.008860087 0.024475811 0.009329371 -0.046034064
0002b0 a4 2b 91 3c da 02 bf bb 2c 26 6f bd 0b d3 65 3c
       0.017721005 -0.0058291974 -0.058386013 0.014027367
0002c0 39 46 41 3c 29 cd 94 3b 20 58 2c bd 3d 1e 55 bc
       0.011796528 0.0045410586 -0.04207623 -0.013007698
0002d0 99 f6 6e bb 97 54 a4 3b 19 82 8c 3c 05 d2 ef 3b
       -0.0036462902 0.0050149667 0.01715188 0.0073187375
0002e0 7a 10 29 3c 74 bd 68 b8 4e 87 8e bc a2 a7 a5 ba
       0.01031887 -5.5489552e-05 -0.017398503 -0.001263846
0002f0 75 c5 e7 bb 5c 0b ec 3b 22 0f 09 bd 0e 92 85 bc
       -0.0070730993 0.0072035026 -0.033461697 -0.016304996
000300 09 6f cb 3b 31 0c 5a bb 67 62 2b 3c 71 93 15 3c
       0.006208305 -0.0033271427 0.010460473 0.009129391
000310 9e 1b a6 3b 6d 0c 5d bd 2a e6 dc 39 be a2 73 bc
       0.00506921 -0.05396693 0.00042133156 -0.014870344
000320 5b 27 e5 bc 2d c1 2e 3b ae 7b 22 bc 98 ad 85 3c
       -0.027972868 0.0026665435 -0.009917183 0.016318128
000330 52 35 de 3c a3 9f b4 bb d6 ed 28 3c 53 ec 63 bc
       0.027125034 -0.0055121942 0.010310611 -0.013911325
000340 9a 13 1c bc f1 9a 2e 3c ef cf 0b 3d 48 60 2e bb
       -0.009526158 0.010657058 0.034133848 -0.002660768
000350 a0 5d 86 3c 2a 07 24 bc ab c9 3e bc 47 04 ed bc
       0.016402066 -0.010011474 -0.011644761 -0.028932704
000360 23 0b cd bc be 6d f3 bc 17 92 03 bd 3f c4 62 bc
       -0.025029724 -0.029715415 -0.032121744 -0.013840734
000370 26 0b 48 3c 52 10 0c 3b 28 02 b7 3c 23 0c 2d bc
       0.012209689 0.0021372032 0.022339895 -0.010561976
000380 9c 1b ec bc a0 50 af bc 01 44 d0 bc df 75 3f bc
       -0.028821759 -0.02140075 -0.025423052 -0.0116858175
000390 98 c9 b7 bc df f3 d9 3b b7 83 f4 39 85 e2 50 3b
       -0.022434995 0.006651386 0.00046637442 0.0031873297
0003a0 16 c0 f4 bc fc 5f 23 bb 64 e0 cd bc 07 b0 c3 3c
       -0.02987675 -0.0024929037 -0.025131412 0.023887647
0003b0 ae 35 cb 3b 84 10 38 3c ca f5 90 3c 53 aa fe bc
       0.0062014675 0.011234406 0.017695326 -0.031087076
0003c0 6a 65 16 bb c6 66 1f bc 40 19 03 bc 30 43 1a 3d
       -0.002294863 -0.009729093 -0.008001626 0.03766173
0003d0 33 98 15 3d 7c 4e 6a bc 18 bd 18 bd 9e fa 21 3d
       0.0365221 -0.014300939 -0.03728971 0.039545648
0003e0 2c 6e 6b 3c 8e eb 04 bc 5c 76 47 bc b5 ce 68 3c
       0.014369529 -0.008112801 -0.012174215 0.014209439
0003f0 62 bf f4 bb 88 32 ad bc 9a 0c 8e 3b ce 35 02 3d
       -0.0074691037 -0.02114226 0.0043349983 0.031789593

action_model._continuous_distribution.mu.bias f4 [2]
000000 fc d4 00 3c 12 7a 0a 3b
       0.007863279 0.0021129888

action_model._discrete_distribution.branches.0.weight f4 [2, 128]
000000 05 f2 7e 3b a1 71 3e 3c cf 79 ed ba ff 1a 8d 3b
       0.003890158 0.011623771 -0.0018117967 0.0043061967
000010 65 d7 d8 3a b4 a2 62 bc 08 4f 2b 3b 95 57 1d 3c
       0.0016543685 -0.013832737 0.0026139636 0.009603401
000020 1d 0c a0 bc 5d 7f 72 bb a0 43 5d bb 3f 7b 0b 3b
       -0.019537026 -0.0037002184 -0.0033762231 0.0021283177
000030 35 67 60 bc 4d b8 cb ba 99 9d de 3b 02 40 17 bb
       -0.0136964815 -0.0015542597 0.0067936894 -0.0023078923
000040 78 99 ca bb eb 76 4b 3c 58 8a 51 bc 00 b3 41 bc
       -0.0061828457 0.012418489 -0.012789331 -0.011822462
000050 b8 12 b3 38 e1 09 8d 3c c5 dd cd bb ee ed 41 bb
       8.538872e-05 0.017216625 -0.0062825405 -0.002959128
000060 b6 cd 42 3c f7 16 7b 39 8c 4d 39 3c 90 b0 cb 3b
       0.011889866 0.0002394578 0.0113099925 0.0062161162
000070 8b 21 29 3c b8 c9 b5 bb d1 46 f5 3b a5 00 0c 3b
       0.010322939 -0.0055477284 0.0074852486 0.002136269
000080 a2 e6 1f bb 8a da 17 3c 3b 03 ea ba 80 db 0c bc
       -0.0024398942 0.009268412 -0.0017853746 -0.008597255
000090 a9 ee 1d ba ec 1a 14 bc f7 85 1f 3c d7 58 cd 3b
       -0.0006024638 -0.009039622 0.00973653 0.006266694
0000a0 ae 68 1a bc e7 78 b9 bb 6d 10 4b 38 ed 54 54 3c
       -0.009424372 -0.0056601646 4.841427e-05 0.012959701
0000b0 fe 86 20 bb a7 c7 95 3b 2d 95 87 3c 93 e0 b0 bc
       -0.0024494524 0.0045709196 0.016550625 -0.02159146
0000c0 18 c6 b8 bb 77 90 0b bc 07 95 a1 bc 7e 43 bc bb
       -0.005638849 -0.00851833 -0.019724382 -0.0057453504
0000d0 8b 99 c0 3b f3 93 18 3c 60 a2 56 3c 82 f3 84 3c
       0.0058776787 0.009312618 0.013100237 0.016229395
0000e0 eb cb 18 bb 9a 51 6b bb b7 0a a7 3b 31 d0 19 ba
       -0.0023314904 -0.0035906793 0.005097713 -0.000586751
0000f0 a2 1b 17 3b c6 19 2d 38 a2 1a f1 3a e0 a1 36 3c
       0.0023057242 4.1270418e-05 0.0018394778 0.011146992
000100 ee b0 da 3b 56 63 b8 3b eb de 21 bc 49 77 ec bb
       0.0066739237 0.005627076 -0.009879808 -0.0072163683
000110 f5 24 b1 bc 63 3a e3 bb c4 ab 69 ba 10 9b c1 3b
       -0.021624068 -0.0069344505 -0.00089138397 0.0059083775
000120 89 c7 11 3b d2 85 57 3c 6e 41 01 3a 33 27 ac 3c
       0.0022244176 0.013154464 0.0004930709 0.021014785
000130 cc 28 95 bc 59 e3 fd 3b ec 2d 12 bb a9 f9 de 3b
       -0.01820793 0.007748049 -0.0022305204 0.006804664
000140 45 93 f8 3b 0a b7 99 3c 9e 65 0e bc 9c 2c 8b bb
       0.0075859153 0.018764038 -0.00869122 -0.004247261
000150 3e ba 5b 3c fa 7b e5 3b ea f2 14 3a 85 f9 2b b9
       0.013411103 0.0070033045 0.0005681949 -0.00016400784
000160 9d 7e ee 3b fc f1 5b bc 55 85 8f 3a a7 b0 fc 38
       0.007278277 -0.013424393 0.001094977 0.000120492004
000170 21 6c 27 bc 9d 14 40 bc 1f 62 cb bc 73 f1 16 bc
       -0.010218651 -0.011723665 -0.024827061 -0.009212839
000180 41 0a bf 3b 77 19 90 bc 6e 72 82 bc cb bc b4 bb
       0.00583008 -0.017590268 -0.015923705 -0.00551567
000190 78 ff 19 3b e6 ed 49 bb f8 43 66 bc 81 96 86 bb
       0.0023498219 -0.0030811965 -0.014054291 -0.004107297
0001a0 ee ae 85 bc 74 4c 42 38 40 49 e1 3c 94 e1 c5 bb
       -0.016318765 4.6324407e-05 0.027500749 -0.006038854
0001b0 1e b1 5d 3c 3e 55 ed 3b 6d b5 02 bc ee b4 5b 3c
       0.013530998 0.0072428277 -0.007977826 0.013409836
0001c0 ac b3 a6 3b 03 ff 64 ba f4 02 80 3b ea 7c 53 3c
       0.0050873365 -0.00087355095 0.003906602 0.0129082
0001d0 54 58 d4 38 30 4e a4 bb 42 11 a1 bb d0 70 19 bc
       0.000101254 -0.0050142035 -0.0049153874 -0.0093652755
0001e0 41 8d 5c bb 14 1d cc 3a a4 14 4b b7 aa 63 aa 3b
       -0.003365353 0.0015572631 -1.2104549e-05 0.005199869
0001f0 70 29 96 3b 44 a5 4f 3c 97 2b 98 bb c0 1d 2e 39
       0.0045825765 0.01267368 -0.004643868 0.00016605016
000200 1d 4d 83 bb 6b 34 af 3c 54 c0 80 bc 1a 0c b0 bc
       -0.0040069954 0.0213873 -0.01571671 -0.021490145
000210 1d 0b 83 bc f6 c2 41 bc 9a e0 f6 3b 83 fb 07 bc
       -0.01599651 -0.0118262675 0.007534099 -0.008299711
000220 e0 41 48 bc 33 61 a9 3b f7 06 c4 3b 90 ea 15 bc
       -0.012222737 0.0051690578 0.0059822756 -0.009150162
000230 2d ca 77 3c fe 40 0e 3b 6c 7a 10 3c 07 a3 d9 bb
       0.015123886 0.0021706219 0.00881825 -0.006641749
000240 d8 35 15 bb 1d ad 50 bc 4e dc 14 3a 62 4c 03 3c
       -0.002276769 -0.012736586 0.000567858 0.008013817
000250 bf f6 20 bc e1 b4 5d bc 05 b7 1e 3c 45 61 8b 3c
       -0.009824454 -0.013531894 0.00968719 0.017014155
000260 2f 2c 69 bb 4a 3d e8 b8 2b 6c 56 bc 57 14 77 3b
       -0.0035579314 -0.00011074038 -0.013087313 0.0037701332
000270 be 23 b3 bc 20 3e b3 3b 91 b6 b1 bb 16 7e 71 bb
       -0.02186763 0.0054700524 -0.005423375 -0.0036848835
000280 61 44 80 3b 4f 61 a4 bb f4 10 01 3c 80 e4 01 3c
       0.0039144014 -0.005016483 0.007877577 0.007928014
000290 0a 66 95 bb 07 75 f0 bb 4e 52 b8 3b a3 ba 86 bc
       -0.004559283 -0.0073381695 0.005625046 -0.016446417
0002a0 70 c5 69 b9 41 4a 12 bc 3b e7 59 bc 8b c9 c1 3b
       -0.00022294163 -0.008928836 -0.013299759 0.0059139184
0002b0 e4 f4 1f 3c a5 0c e9 3a f7 4e 29 bc 78 31 95 3a
       0.009762976 0.0017780258 -0.010333768 0.0011382541
0002c0 f2 d4 23 bc 4d e2 24 3c fc 6b 28 bc e9 b3 84 3b
       -0.009999501 0.01006372 -0.010279652 0.0040497673
0002d0 55 de 65 3c 69 05 5f 3c 51 c8 64 ba b7 a1 06 3a
       0.014030059 0.01361213 -0.0008727359 0.0005135792
0002e0 cb 52 a9 3b dc e7 25 3c a7 6f 91 3b 89 c3 f4 3b
       0.0051673404 0.01012608 0.004438359 0.0074695987
0002f0 71 ab 38 bc 81 62 d5 bb 4a c8 94 3c fb a3 8d ba
       -0.011271344 -0.0065119867 0.018161912 -0.0010806316
000300 04 50 be 3b 7f f1 8e 3b 30 21 b5 3a 64 5f 65 bb
       0.0058078784 0.0043622847 0.0013819095 -0.0034999484
000310 38 e0 b9 3b e3 25 3f bc 6e dd ed 3c c5 af ac 3b
       0.005672481 -0.011666748 0.02903625 0.005269977
000320 ef a2 72 bc ca 62 ab bb b7 05 0d bc 52 eb e8 3b
       -0.014809354 -0.0052302824 -0.00860732 0.0071081305
000330 21 8b 1d 3b 82 d7 9e bb 5a 9c 93 3b 2d e5 af bb
       0.0024039226 -0.004847468 0.0045047225 -0.005367896
000340 59 8f 42 bb d1 9d a3 bb 6f 1f 81 3c 6b 86 78 bc
       -0.0029687493 -0.0049931784 0.015762059 -0.0151687665
000350 ae 7f 4e bc 08 8e 0f bc 80 5a 3a 3c d1 02 80 3b
       -0.012603683 -0.00876189 0.011374116 0.0039065857
000360 e8 b5 41 bb 0a 16 65 bb ba 8b 78 3b cc 0f 47 bc
       -0.0029557887 -0.0034955763 0.003792508 -0.012149762
000370 1f 03 89 3c 1c 83 93 bb 82 7c 8d 3c 4b 6d c6 3b
       0.016725121 -0.0045017134 0.017271284 0.006055509
000380 9c 1d 15 bc 19 c5 e8 bb 38 79 bd 3b 76 a1 13 bc
       -0.009101298 -0.007103574 0.0057822727 -0.009010663
000390 db 4a b8 bb 17 9a 91 bb 19 d7 07 bc 4a d8 c1 3b
       -0.005624158 -0.004443418 -0.008291029 0.0059156762
0003a0 c8 5a b2 3b 0e ef fb bb 15 b6 a9 bc f5 e8 b3 3c
       0.005442951 -0.0076884096 -0.020716706 0.021961669
0003b0 4a 63 8f bc ba 43 da 3a 89 69 1e 3c 2e 4b cf 38
       -0.0175034 0.0016652264 0.009668716 9.8845325e-05
0003c0 59 f3 37 bc 1b 32 a4 bb ef 80 7b ba 35 4a 01 3c
       -0.011227452 -0.005010856 -0.0009594103 0.0078912275
0003d0 08 30 1e bc 65 60 a9 3c b1 63 20 3c 30 39 27 3b
       -0.009655006 0.020675847 0.009789393 0.0025516264
0003e0 cc 33 01 bc fe 5c 83 3c 2f 7b 00 3c 19 c9 37 bc
       -0.0078858845 0.016035553 0.007841869 -0.011217379
0003f0 68 37 01 bc a9 57 1e 3c 33 96 f2 ba 4c 66 53 bb
       -0.007886745 0.0096644545 -0.0018507898 -0.0032257019

action_model._discrete_distribution.branches.0.bias f4 [2]
000000 df ae 84 bb de ae 84 3b
       -0.0040491666 0.004049166

exp_avg f4 [128, 6]
000000 8f 78 19 3a 93 a8 cd 31 78 43 a0 b4 4b 05 a6 39
       0.00058544514 5.98545e-09 -2.9851412e-07 0.0003166593
000010 43 76 ed b4 e9 d6 02 b8 23 75 85 37 b5 f1 12 b0
       -4.4230737e-07 -3.1194566e-05 1.5909382e-05 -5.3457977e-10
000020 07 db 75 36 22 19 e1 36 ed 2c 01 b2 48 c8 2e b5
       3.6635336e-06 6.7084484e-06 -7.519003e-09 -6.51115e-07
000030 46 a4 69 3a 1f 6e a0 30 ac b9 41 38 fa 9c 64 39
       0.0008912723 1.167283e-09 4.6187706e-05 0.00021802253
000040 ab 3b 96 b4 5f 5f b7 b7 13 29 89 38 30 33 60 b0
       -2.798309e-07 -2.185971e-05 6.54032e-05 -8.1563467e-10
000050 2c d0 cd b7 eb 3a 99 38 5e f3 f3 b3 a4 49 f0 b6
       -2.4534842e-05 7.306583e-05 -1.13598375e-07 -7.1611303e-06
000060 7c cc 4f b7 ee f6 9a 31 d5 72 34 36 a4 96 fe b8
       -1.2385772e-05 4.5100625e-09 2.6888931e-06 -0.00012139723
000070 c0 1b 04 34 22 e6 45 37 dc 46 c0 36 b6 d1 99 b0
       1.2303553e-07 1.1795697e-05 5.730295e-06 -1.1191819e-09
000080 fc 17 c6 b5 99 d5 be 37 8d 8b ad b2 db 1e 15 b6
       -1.475913e-06 2.274923e-05 -2.0203311e-08 -2.222069e-06
000090 4a 16 1c b5 73 33 12 b0 8f 13 86 35 e3 70 50 b7
       -5.8146964e-07 -5.3187604e-10 9.98947e-07 -1.242405e-05
0000a0 a8 67 09 33 17 a1 9f 35 59 be 9c 39 ad e0 79 32
       3.1992073e-08 1.1893306e-06 0.0002989646 1.4544793e-08
0000b0 dc d2 d6 b7 e4 84 34 b8 cd 05 2a 34 48 56 68 36
       -2.5608977e-05 -4.303911e-05 1.5834594e-07 3.4620916e-06
0000c0 41 e4 53 b8 4c fc 8f b1 87 72 60 36 04 26 80 b8
       -5.05189e-05 -4.1905306e-09 3.3445265e-06 -6.1105966e-05
0000d0 d3 40 83 b1 ff 86 ca 36 93 59 63 ba d2 d5 39 b2
       -3.8199715e-09 6.0357847e-06 -0.00086727104 -1.0817034e-08
0000e0 dd 43 ea 37 3f 11 ee b9 37 d3 2d 35 c5 6f 3c 38
       2.7926575e-05 -0.00045407747 6.475488e-07 4.4926786e-05
0000f0 91 05 85 3a ec 93 c1 32 53 6f 92 b8 5b e0 8f 3a
       0.0010148754 2.2535424e-08 -6.982558e-05 0.0010976897
000100 b3 d7 8f b5 12 fc e1 b8 38 fe c4 37 7a a6 90 b0
       -1.0717107e-06 -0.00010775788 2.34834e-05 -1.0524694e-09
000110 23 63 7c 36 4c bf b8 37 db 90 35 b3 29 ac 0f b6
       3.7608631e-06 2.2023589e-05 -4.2274092e-08 -2.140887e-06
000120 60 3b 95 38 d7 e3 58 31 9f 38 40 b6 ab 65 a8 b7
       7.115933e-05 3.1561649e-09 -2.8643187e-06 -2.0074503e-05
000130 c5 f2 f4 32 8b eb f9 35 31 1c f1 b6 ad 08 04 31
       2.8515737e-08 1.8620498e-06 -7.1856416e-06 1.921346e-09
000140 52 ba a8 36 db 0b 8f b8 2f 85 92 33 33 4d df 36
       5.0284807e-06 -6.8209796e-05 6.822881e-08 6.654905e-06
000150 f4 83 91 36 87 da 2e 30 54 3d 5a 32 c2 60 82 b5
       4.336698e-06 6.361138e-10 1.27032145e-08 -9.713915e-07
000160 09 42 58 31 34 a1 bb 33 3f 14 4e ba 21 55 f8 b1
       3.1469674e-09 8.737189e-08 -0.0007861293 -7.227428e-09
000170 82 9f a0 b8 26 33 65 39 8d bf 3d b4 bf 40 ac b7
       -7.659105e-05 0.00021858196 -1.7671682e-07 -2.0534148e-05
000180 01 19 96 38 11 13 37 32 fc 89 00 b8 bf b9 bc 38
       7.157215e-05 1.0656337e-08 -3.0646086e-05 8.9991365e-05
000190 71 72 d1 b1 6f 33 19 b7 e2 a7 63 38 dc 8e 2c 32
       -6.095711e-09 -9.131486e-06 5.427737e-05 1.00442e-08
0001a0 57 ba a9 b8 c9 b1 0e 3a 25 3a 18 b5 3e e0 5f b8
       -8.0932565e-05 0.0005443362 -5.6709024e-07 -5.3376185e-05
0001b0 32 10 50 b7 ff c7 b9 31 49 a6 75 b7 f3 fa a0 b8
       -1.2401537e-05 5.4069456e-09 -1.4641854e-05 -7.6761375e-05
0001c0 b3 eb ea 33 dd c4 f5 36 24 37 b6 38 a5 55 d1 b0
       1.09393476e-07 7.324487e-06 8.688707e-05 -1.5231093e-09
0001d0 76 3d 0a 38 39 59 6c b9 30 83 46 34 31 76 b7 37
       3.2959004e-05 -0.00022539952 1.8487913e-07 2.1870337e-05
0001e0 e2 ef 4d 3a e3 58 47 32 c9 57 ca 37 e2 b6 97 39
       0.0007855875 1.1603535e-08 2.4121155e-05 0.00028937223
0001f0 3d 0b b8 b4 37 8f f1 b7 fa 2e ab 36 28 42 32 b1
       -3.4280848e-07 -2.8796128e-05 5.101666e-06 -2.5940015e-09
000200 7c e2 09 37 9a b0 65 38 45 b1 f1 b3 84 b2 ab b6
       8.218569e-06 5.4762328e-05 -1.1254682e-07 -5.116979e-06
000210 bc 14 0c 39 db a0 0c 32 35 85 99 b8 38 a4 d0 39
       0.00013359165 8.185647e-09 -7.32042e-05 0.00039795204
000220 10 d7 d2 b4 4b a7 23 b8 d3 55 ef b7 77 56 9f 30
       -3.9272027e-07 -3.9018032e-05 -2.8530985e-05 1.1593347e-09
000230 8d 38 d5 36 b8 18 0e b9 5b a5 1e 34 da 68 5c 37
       6.354478e-06 -0.00013551384 1.4775053e-07 1.31374345e-05
000240 a9 6e 02 36 37 6b d3 2f 90 1d c7 b5 62 3f ff 37
       1.9435922e-06 3.8456857e-10 -1.4835259e-06 3.0427884e-05
000250 60 bf d7 b2 c9 2b 47 b6 0b 03 ab b9 00 39 97 b2
       -2.5116321e-08 -2.9678797e-06 -0.0003261793 -1.7604634e-08
000260 e3 3d 94 38 4a d4 b0 b9 6c 4c e6 34 62 8b 0b 38
       7.068717e-05 -0.00033727504 4.2896443e-07 3.3269993e-05
000270 a8 49 01 37 a3 87 37 af da 88 9c 36 31 6e 6a b8
       7.706149e-06 -1.6691941e-10 4.665094e-06 -5.589257e-05
000280 ff f9 5b 33 55 6c b6 36 8c ac cc b8 06 62 12 31
       5.121728e-08 5.436634e-06 -9.7596174e-05 2.1301516e-09
000290 18 ae 73 b8 b0 33 ac 39 67 79 78 b4 82 fb 05 b8
       -5.8097852e-05 0.00032844907 -2.3140966e-07 -3.1943906e-05
0002a0 ff 9d 98 b6 c9 74 d5 31 35 a2 a5 b7 58 16 7b 38
       -4.548346e-06 6.212393e-09 -1.9745066e-05 5.9863873e-05
0002b0 30 92 86 30 e9 67 ca b6 c7 71 eb 39 8f 2f ec b1
       9.791332e-10 -6.032166e-06 0.00044907464 -6.8739108e-09
0002c0 dd 42 34 38 4b 51 91 38 d8 01 fe b3 49 fa e9 b6
       4.2977616e-05 6.929281e-05 -1.1828132e-07 -6.973078e-06
0002d0 07 f4 40 39 4b 74 3f af b7 b4 f1 37 73 c0 a9 38
       0.00018401454 -1.7412664e-10 2.881359e-05 8.0943944e-05
0002e0 45 0f b7 b3 4e 35 04 b7 f3 25 e8 36 3c f5 7f 31
       -8.524379e-08 -7.880224e-06 6.9185567e-06 3.7246783e-09
0002f0 ce dd 96 b7 cf 8b 88 39 a4 9e 01 b4 b7 68 d6 b7
       -1.798468e-05 0.00026044107 -1.2071774e-07 -2.555955e-05
000300 31 66 a5 b8 3e 5c 5a b1 ba e0 0e 37 0e f5 8a b8
       -7.886848e-05 -3.1775609e-09 8.516183e-06 -6.625998e-05
000310 2f 0c 2a 33 45 b1 db 36 24 4b 58 39 e4 37 fe 31
       3.959229e-08 6.5473455e-06 0.00020627357 7.398727e-09
000320 59 c9 b0 b8 17 6c 73 3a de 73 54 b5 45 28 be b8
       -8.429838e-05 0.0009285821 -7.9144763e-07 -9.067407e-05
000330 54 1e 99 b6 9b 9d b5 b0 9d 0d f7 37 6e 51 78 b6
       -4.563286e-06 -1.3214277e-09 2.9451034e-05 -3.7002278e-06
000340 51 1b 02 33 7b 7c d2 34 0f 3d 92 3a 33 07 6b 32
       3.0292828e-08 3.920612e-07 0.0011157113 1.3680437e-08
000350 d9 a2 64 38 f8 80 b3 39 ad 0f fc b4 25 f5 0e b8
       5.45111e-05 0.0003423763 -4.6950063e-07 -3.4083747e-05
000360 77 73 92 37 43 c7 25 30 73 2a 47 b8 12 2f df 39
       1.7458324e-05 6.030982e-10 -4.748483e-05 0.00042568945
000370 93 df d9 b4 57 69 2e b8 ee a3 bb b6 fb d7 01 b2
       -4.058207e-07 -4.1582938e-05 -5.592118e-06 -7.5578965e-09
000380 73 11 dd 37 3d c5 be b7 e1 ea 3f b4 4a 60 29 36
       2.6353378e-05 -2.2741611e-05 -1.787371e-07 2.523901e-06
000390 76 d4 3c 3a 0b 3c a8 b0 92 21 1c 39 50 f1 90 39
       0.000720329 -1.2240674e-09 0.00014889825 0.00027645612
0003a0 08 0e 88 b4 15 75 e2 b7 80 22 a9 b8 15 eb 84 b0
       -2.5342183e-07 -2.699582e-05 -8.064974e-05 -9.671078e-10
0003b0 d2 8f 1d b5 47 40 97 b7 52 28 e0 32 ef 25 f4 35
       -5.8696344e-07 -1.8030534e-05 2.6095368e-08 1.8190457e-06
0003c0 7e 92 b1 b6 60 5f d7 b0 16 f7 24 36 a1 73 44 38
       -5.292065e-06 -1.5670416e-09 2.4581727e-06 4.683773e-05
0003d0 9d ce 6a b2 2f 04 9b b6 3d d2 cb b6 08 14 e9 b0
       -1.3667571e-08 -4.619847e-06 -6.0743464e-06 -1.6958674e-09
0003e0 57 69 a4 b6 32 8b 52 39 32 eb 50 b4 45 95 a3 b7
       -4.899844e-06 0.00020079015 -1.9457073e-07 -1.9500623e-05
0003f0 2c 6b 2c ba 17 21 35 b2 4f f2 e4 36 03 0f ad b9
       -0.0006577249 -1.054311e-08 6.823138e-06 -0.00033008316
