results/ppo/Seek/Seek-16591.pt (torch, 446946 bytes, 42 tensors)

network_body._body_endoder.seq_layers.0.weight f4 [128, 6]
0	0xbe57b72c	-0.21065968
1	0xbe743a1d	-0.23850293
2	0xbf504b07	-0.8136448
3	0x3f1108a6	0.5665382
4	0xbec7dc92	-0.3903547
5	0xbf5cfe57	-0.8632559
6	0x3f2a6e63	0.66574687
7	0xbe4fcf60	-0.20293951
8	0x3dcbb887	0.09947305
9	0xbcc2e160	-0.023789108
10	0xbec56470	-0.3855319
11	0x3d90aaa8	0.070638
12	0xbf0a8b6b	-0.54118985
13	0x3dc0dc7b	0.09417053
14	0xbe97c5e7	-0.29643175
15	0x3f39e158	0.7260947
16	0xbe784331	-0.24244381
17	0x3e826290	0.25465822
18	0x3ef92e57	0.48668167
19	0xbe7de884	-0.24795729
20	0x3ea2e251	0.3181329
21	0x3f1a9f0d	0.6039894
22	0x3f17916f	0.5920629
23	0xbe44437a	-0.19166365
24	0xbd14374f	-0.03618556
25	0xbefa95fd	-0.48942557
26	0xbf211ede	-0.62937725
27	0xbebba5b3	-0.36649856
28	0x3f149ad0	0.58048725
29	0x3efe1526	0.4962551
30	0xbe1f6e1f	-0.15569352
31	0x3e50c993	0.20389394
32	0x3e10a090	0.1412375
33	0xbf01ed85	-0.5075305
34	0x3f21845f	0.6309261
35	0xbdf4b293	-0.11948123
36	0xbe8a482c	-0.27008188
37	0xbd1b039f	-0.03784525
38	0xbeaba7a6	-0.33526343
39	0xbf7ef4d5	-0.99592334
40	0xbe9d80b3	-0.30762252
41	0xbe0ad911	-0.13559367
42	0x3ebef1d3	0.37293872
43	0xbe3f616a	-0.18689504
44	0xbed1e46a	-0.4099458
45	0xbe31bb82	-0.17356685
46	0xbf0d5402	-0.5520631
47	0x3df41625	0.11918286
48	0xbf03b6c4	-0.51450753
49	0x3e5c3a0d	0.2150652
50	0xbeb9dcf7	-0.36301395
51	0xbcb1fe08	-0.021727577
52	0x3e12d55e	0.14339206
53	0x3eb52e35	0.35386816
54	0xbf3a84e4	-0.72859025
55	0xbe969e26	-0.29417533
56	0xbe32f26c	-0.17475289
57	0xbe9fa160	-0.31177807
58	0xbd9a6227	-0.07538252
59	0x3e0b1069	0.13580479
60	0x3df21f31	0.118223555
61	0xbe966f45	-0.29381767
62	0xbe5ffe1e	-0.21874282
63	0x3db7b117	0.08969324
64	0x3e2067df	0.15664624
65	0x3ec98adc	0.39363754
66	0xbe6aed30	-0.22942042
67	0xbe8b1a7d	-0.27168646
68	0x3edcdee2	0.43138796
69	0x3ee0dec2	0.4391995
70	0xb9c1f179	-0.0003699174
71	0x3f9b636f	1.213972
72	0x3e6d6565	0.2318321
73	0x3e9b9a25	0.3039104
74	0x3e097dec	0.13426942
75	0x3bcc7023	0.0062389537
76	0x3f013aab	0.50480145
77	0x3f2fa179	0.6860576
78	0xbf1630e5	-0.5866836
79	0x3e100b1b	0.14066736
80	0x3d3ac635	0.04559918
81	0x3d24fdbf	0.040281054
82	0x3e1d00db	0.15332358
83	0xbf01a916	-0.5064863
84	0xbf113745	-0.5672496
85	0xbf735b77	-0.9506144
86	0xbea60ede	-0.32433218
87	0x3ec31bd9	0.38107184
88	0xbcb47759	-0.022029566
89	0x3d39bb9f	0.045344945
90	0x3ebfb315	0.37441316
91	0xbc58f315	-0.013241549
92	0xbf280000	-0.65625
93	0x3de3aa43	0.11116459
94	0x3ca0a251	0.019608648
95	0xbe6813a6	-0.22663745
96	0x3ece39d4	0.40278494
97	0x3e61b14c	0.2204029
98	0x3e8de36b	0.2771257
99	0x3d4d5450	0.050129235
100	0x3f23494e	0.6378373
101	0x3f081aa8	0.53165674
102	0x3ad925fc	0.0016567106
103	0xbe853766	-0.26018828
104	0xbdf0bf55	-0.11755244
105	0x3e41d560	0.18929052
106	0x3e91c6f3	0.284721
107	0xbeb19068	-0.34680486
108	0x3d826739	0.063673444
109	0xbe29466a	-0.16530767
110	0xbdbee31f	-0.09320664
111	0x3e308e9b	0.172419
112	0xbeaff766	-0.34368438
113	0x3f7580d9	0.9589973
114	0xbd1a2b05	-0.037638683
115	0xbe46546f	-0.19368146
116	0x3f6fb552	0.9363605
117	0xbd9d38a1	-0.07676817
118	0x3eab9b6e	0.3351702
119	0xbd15eb30	-0.036601245
120	0xbf6cec2a	-0.9254786
121	0xbd5ba923	-0.0536281
122	0x3f528f9f	0.822504
123	0xbde67bc9	-0.11254079
124	0xbf09eb89	-0.53875023
125	0x3f0185a7	0.5059456
126	0xbe27a9f9	-0.16373433
127	0xbf3924c3	-0.7232172
128	0xbf4d8753	-0.80284613
129	0x3f044a41	0.516758
130	0x3ed2db9d	0.41183177
131	0x3e874646	0.26420802
132	0xbe636ae4	-0.22208744
133	0x3e5464ef	0.20741628
134	0xbe913ab7	-0.28365108
135	0xbe91b5de	-0.28459066
136	0x3f217efd	0.63084394
137	0xbdecd062	-0.11563183
138	0x3dae994c	0.08525333
139	0xbeef7cc2	-0.4677487
140	0xbd85f1b1	-0.065402396
141	0xbe9a0445	-0.30081382
142	0x3edd8da2	0.4327212
143	0x3deebb1d	0.11656783
144	0x3dc33833	0.095322035
145	0xbf018ad9	-0.5060249
146	0x3ee603ff	0.44924924
147	0xbeda4db7	-0.42637417
148	0x3d81ca4d	0.06337414
149	0xbde0eb5a	-0.1098239
150	0x3f233eff	0.63768
151	0xbdae8c67	-0.08522873
152	0x3e16cbee	0.1472623
153	0x3f67b046	0.90503347
154	0x3f01bcec	0.50678897
155	0x3ec4ae2e	0.3841414
156	0x3fa1a256	1.2627666
157	0x3e3911e4	0.18073231
158	0xbec0ce83	-0.37657556
159	0xbddbdf1b	-0.10735913
160	0x3d5e1835	0.054222304
161	0xbf4214b1	-0.7581282
162	0x3e50c35e	0.20387027
163	0x3e8421f5	0.25807157
164	0x3ed74a3c	0.42048824
165	0x3ea37cac	0.31931055
166	0x3f0fe7d4	0.56213117
167	0x3ea91694	0.33025038
168	0x3edaa263	0.42702016
169	0x3ea08f7b	0.31359467
170	0xbcebc108	-0.028778568
171	0x3eb69d9a	0.35667115
172	0x3de10b6f	0.10988509
173	0xbea05b44	-0.3131963
174	0x3f669a54	0.90079236
175	0x3dd4bfab	0.1038812
176	0xbf3d927e	-0.74051654
177	0x3e9a7ae7	0.30171892
178	0x3e9efc55	0.3105189
179	0xbeb65d95	-0.35618272
180	0x3eb672fa	0.35634595
181	0xbdefd8b9	-0.117112584
182	0xbea75758	-0.32683825
183	0xbe9dd1c2	-0.30824095
184	0xbf2a604b	-0.6655318
185	0x3e6c9ec6	0.23107442
186	0x3df1978b	0.11796483
187	0x3e7e1859	0.24813975
188	0x3eaa8157	0.33301803
189	0xbf4174c3	-0.7556879
190	0x3e58b95f	0.21164463
191	0x3e4abc8a	0.19798484
192	0x3e88c828	0.26715207
193	0x3dcc565c	0.09977409
194	0xbe58d83a	-0.21176234
195	0xbefd3ada	-0.49458963
196	0xbe876fd2	-0.264525
197	0x3c9def00	0.019279003
198	0x3e9a1e6b	0.30101332
199	0xbf372c21	-0.7155171
200	0xbf4f3f23	-0.80955714
201	0x3ef29949	0.47382572
202	0xbe57fed7	-0.21093307
203	0x3f1e0852	0.61731446
204	0x3f1e10b3	0.6174423
205	0x3dac5052	0.084137574
206	0xbedf6e47	-0.43638822
207	0xbefe2cb4	-0.4964348
208	0x3d3693b1	0.044574443
209	0xbf0cc332	-0.54985344
210	0x3f03f7b8	0.51549864
211	0x3ef62106	0.4807207
212	0x3e65a155	0.22424825
213	0xbf4e2cb4	-0.8053696
214	0xbdaf3e58	-0.08556813
215	0x3d837989	0.06419665
216	0xbe883d7a	-0.26609403
217	0xbda9df89	-0.08294589
218	0xbdb0d1a3	-0.08633735
219	0xbe9d65fb	-0.30741867
220	0xbe280192	-0.16406849
221	0xbe016e5d	-0.12639757
222	0x3ea719fa	0.32637006
223	0xbd749131	-0.059708778
224	0xbe7be5a9	-0.24599327
225	0xbe883a86	-0.2660715
226	0xbe524654	-0.2053464
227	0x3e1ff73b	0.15621655
228	0x3e79c2ff	0.24390791
229	0xbc439d17	-0.011939309
230	0x3cf86ece	0.030326273
231	0x3e4a7a79	0.19773282
232	0x3e4c280f	0.19937156
233	0xbe8798e4	-0.26483834
234	0x3f48a605	0.78378326
235	0xbf17c7d9	-0.5928932
236	0x3c19772b	0.009366791
237	0x3f25a30f	0.6470193
238	0x3f1e69c2	0.61880124
239	0xbd5dea4b	-0.054178517
240	0xbe8eea21	-0.27913
241	0x3e444bc8	0.19169533
242	0xbee54151	-0.44776395
243	0xbd906866	-0.070511624
244	0xbef60b7c	-0.48055637
245	0x3eec58b7	0.46161434
246	0x3e39d854	0.18148929
247	0x3ebd6dbd	0.36997786
248	0x3eefd8c1	0.46845058
249	0x3e8ef132	0.27918392
250	0x3ec7cb1f	0.39022157
251	0x3d6cf636	0.057851993
252	0x3e93304a	0.2874778
253	0xbe9702db	-0.29494366
254	0x3f708c49	0.9396406
255	0x3f5a094c	0.85170436

network_body._body_endoder.seq_layers.0.bias f4 [128]
0	0xb8e65784	-0.00010983556
1	0xba9d2f2a	-0.0011992205
2	0xbaa331ab	-0.0012450715
3	0xbb3c4d87	-0.0028732733
4	0x3af2a2d1	0.0018511658
5	0x3983f462	0.00025168346
6	0xba0f7c13	-0.00054735056
7	0xb95c5858	-0.00021013746
8	0x3afbef3a	0.0019221075
9	0xbb22caee	-0.0024840194
10	0x3a9ebfd3	0.0012111611
11	0x3b0f0bbe	0.0021827067
12	0x3b1c2682	0.0023826663
13	0xb94c8baa	-0.00019506985
14	0x3ac88485	0.0015298283
15	0x3a9f88af	0.0012171472
16	0xbb3dcbb4	-0.0028960528
17	0x3a010b07	0.00049226027
18	0xbab0f76f	-0.0013501475
19	0x3a2982db	0.00064663374
20	0x3b70a899	0.0036721586
21	0xb9c8bb43	-0.00038286494
22	0xba23f4b6	-0.00062544213
23	0x39efa8d3	0.00045711416
24	0xb99375aa	-0.00028125691
25	0x3b122f24	0.002230593
26	0x3a84d0ce	0.001013303
27	0xb78e7b5a	-1.698516e-05
28	0xbb934a68	-0.004494954
29	0x3aa21a44	0.0012367447
30	0x3b4db7af	0.0031390002
31	0x3b3b1f3c	0.0028552553
32	0xb7631930	-1.3536119e-05
33	0xb912106b	-0.00013929761
34	0xb88b4396	-6.640625e-05
35	0x3a9fc3a9	0.0012189049
36	0x3959c68f	0.00020768702
37	0x3a54aefa	0.0008113232
38	0xbab89686	-0.0014082945
39	0xb93d8c7b	-0.00018076778
40	0xbac73007	-0.0015196808
41	0x3b27c99f	0.0025602353
42	0xbabab4ac	-0.0014244518
43	0xbb42b934	-0.002971244
44	0x3a8e3326	0.0010848984
45	0x3a510993	0.0007974144
46	0x3b1bf88f	0.0023799276
47	0x3ac73106	0.0015197105
48	0xb952bb96	-0.00020097042
49	0x3a0683b5	0.000513132
50	0xb9f7647e	-0.00047186384
51	0xb8c57042	-9.414602e-05
52	0x38e7d2b9	0.000110541885
53	0xbac3bb5b	-0.0014933156
54	0xbb454bcd	-0.0030104995
55	0x3a9f55f9	0.0012156359
56	0x3a11640c	0.0005546219
57	0xbb54f9ae	-0.0032497454
58	0xba4f3b44	-0.00079052546
59	0x3a88f76e	0.0010449716
60	0xbae6b336	-0.0017601016
61	0xb9b5b91d	-0.0003466093
62	0x3ac719d8	0.0015190197
63	0xbb515de7	-0.003194684
64	0xb9802fd2	-0.0002444969
65	0xba73eac8	-0.00093046995
66	0xba2c6c24	-0.00065773935
67	0xbadeaaa4	-0.0016988111
68	0xb9ee948b	-0.0004550557
69	0xbb3d2d00	-0.0028865933
70	0xbb2cd2d6	-0.0026370785
71	0xbabcfdc7	-0.0014418893
72	0xba388724	-0.00070391805
73	0xbade02a2	-0.001693804
74	0x3a6c6647	0.0009017926
75	0xba9cef70	-0.0011973213
76	0x3a914950	0.0011084471
77	0x3b2102f8	0.002456842
78	0xb9f4991a	-0.00046653376
79	0x39a5b92a	0.0003160921
80	0xb9d3f52c	-0.00040427723
81	0xba2c0334	-0.00065617566
82	0x393f5ba2	0.00018249315
83	0x39e2ea04	0.00043280434
84	0xba8ca06f	-0.0010728965
85	0xba988a8d	-0.0011637971
86	0xba827a1a	-0.0009954602
87	0xb8d854fb	-0.000103155115
88	0x39d0d97a	0.00039834884
89	0xb9be4edb	-0.00036298376
90	0x3b02daa9	0.0019966757
91	0x3a287517	0.0006426139
92	0x394eddea	0.0001972836
93	0xbaa1be8d	-0.0012340114
94	0xba3a0d95	-0.0007097361
95	0xba50494f	-0.0007945494
96	0xba88b6c4	-0.0010430445
97	0x3952c32f	0.00020099872
98	0xb96ae640	-0.00022401754
99	0xb988a409	-0.00026062157
100	0xb9a684b6	-0.00031760865
101	0x398d1341	0.0002690796
102	0x3a512522	0.00079782505
103	0x3b0c1fac	0.0021381183
104	0xbad175c5	-0.0015980533
105	0xbb1a1c26	-0.0023515313
106	0xbb17ff2d	-0.0023192868
107	0xb907f0ca	-0.00012964304
108	0xbb1405c7	-0.0022586451
109	0xbb0b1015	-0.0021219302
110	0xbab9e712	-0.0014183244
111	0xb9ad727f	-0.00033082438
112	0x3b9a8e4e	0.004716671
113	0xba199541	-0.00058587274
114	0xbab79aa6	-0.0014007881
115	0x3a3eb256	0.0007274499
116	0x3aca2733	0.0015423059
117	0xbad8b548	-0.0016533518
118	0xb94c3a21	-0.00019476611
119	0x3aef00a0	0.0018234439
120	0xba85f0f7	-0.0010218908
121	0xbad34a76	-0.0016120214
122	0x398c538c	0.00026765128
123	0xbb5f0d3e	-0.0034034993
124	0xbabd3fe6	-0.0014438599
125	0xba9b98c8	-0.0011871094
126	0x3a25e6c0	0.0006328635
127	0xb9c3f114	-0.00037372916

network_body._body_endoder.seq_layers.2.weight f4 [128, 128]
0	0x3d23aab6	0.039957725
1	0x3c6b52f3	0.014363038
2	0x3d088739	0.033332083
3	0x3c8e548b	0.017374298
4	0x3c8c8df7	0.017157538
5	0xbe08929d	-0.13337179
6	0xbca314cf	-0.019907383
7	0xbbe8b092	-0.007101127
8	0x3de55906	0.111986205
9	0x3ce89504	0.028391369
10	0x3e35f293	0.17768316
11	0x3dd272ba	0.102757886
12	0xbd036264	-0.032076254
13	0xbe58eae3	-0.21183352
14	0xbd187ef5	-0.03723045
15	0xbd70b492	-0.058765955
16	0x3df96270	0.121769786
17	0x3df2c832	0.118545905
18	0x3d801f7d	0.06256006
19	0xbb4b769e	-0.0031046043
20	0xbd8e1236	-0.06937067
21	0xbc26c26f	-0.0101781925
22	0x3e21d5be	0.15804192
23	0x3d2fe89a	0.042946436
24	0x3c2d2080	0.010566831
25	0xbc7908d4	-0.015199859
26	0x3dcd6295	0.10028569
27	0x3ca049d1	0.019566448
28	0xbe4468e0	-0.19180632
29	0x3d72b976	0.0592589
30	0xbd0bebb3	-0.034160327
31	0xbd30e381	-0.043185715
32	0xbdb2fb2f	-0.08739316
33	0xbcada925	-0.021198818
34	0xbdcf1728	-0.101118386
35	0x3c9537e2	0.018215124
36	0x3d4272ba	0.047472693
37	0x3d881a63	0.06645658
38	0x3bb1cf7c	0.0054263454
39	0x3ca1f406	0.01976968
40	0x3bedca8c	0.0072568115
41	0xbde19af1	-0.11015881
42	0xbdbd425b	-0.09241172
43	0x3d34ea89	0.044168983
44	0xbdfbd412	-0.122963086
45	0x3d9d077f	0.076674454
46	0xbd455111	-0.048173014
47	0xbccc008b	-0.024902603
48	0x3d0f518b	0.034989875
49	0xbd8e4fb5	-0.06948797
50	0xbc96226d	-0.018326962
51	0xbddb5c0f	-0.10710918
52	0xbbfedd2f	-0.007777832
53	0xbd403f59	-0.046935413
54	0xbd0f0c63	-0.034923922
55	0xbc36364d	-0.011121345
56	0xbe19b4f2	-0.15010431
57	0xbd726ad4	-0.05918391
58	0xbe21198c	-0.15732402
59	0x3d8bef41	0.068327434
60	0x3e11159b	0.14168398
61	0x3e0eabfa	0.13932791
62	0x3dc8af4b	0.097990595
63	0xbe2ccb63	-0.16874461
64	0xbd926b52	-0.07149376
65	0x3e2cf88a	0.16891685
66	0xbe17de68	-0.14830935
67	0xbdc5fbf4	-0.09667197
68	0xbe3160de	-0.17322108
69	0xbd1f7eef	-0.038939413
70	0x3da4a888	0.08039957
71	0x3db66193	0.089053296
72	0xbc440550	-0.011964157
73	0xbce1f1c1	-0.027581098
74	0x3cba16a6	0.022715878
75	0xbcacd302	-0.02109671
76	0x3d9299fa	0.07158275
77	0x38b55ea6	8.648382e-05
78	0x3e173581	0.14766504
79	0xbcc4f648	-0.024043217
80	0xbbe73b53	-0.0070566325
81	0x3dfcac06	0.12337498
82	0x3d857c28	0.065178216
83	0x3d83f887	0.06443887
84	0xbe2e55d5	-0.1702493
85	0x3d87e7e1	0.06636024
86	0xbcda323b	-0.02663528
87	0xbc14478a	-0.009050259
88	0xbdd4726d	-0.103733875
89	0xbdc700d6	-0.09716956
90	0x3dd3a264	0.10333708
91	0x3e08a0f1	0.13342644
92	0x3dca5884	0.09880164
93	0x3d877716	0.06614511
94	0x3c0f41f8	0.0087437555
95	0xbdd54f76	-0.104155466
96	0x3d028cd1	0.031872574
97	0x3dd618ac	0.104539245
98	0xbd86a7ba	-0.0657496
99	0x3c232409	0.009957322
100	0x3d13e607	0.036108043
101	0x3e04315c	0.12909454
102	0x3e267f93	0.16259603
103	0x3e19c763	0.15017466
104	0x3d8e3359	0.069433875
105	0x3d175031	0.03694171
106	0xbdafb624	-0.085796624
107	0xbe1c7061	-0.15277244
108	0x3cbce381	0.023057701
109	0x3d11321c	0.03544818
110	0xbd6c78af	-0.05773228
111	0x3d2d37a4	0.04228939
112	0xbd832e3a	-0.064053014
113	0xbe04db1d	-0.1297421
114	0xbda282b6	-0.079350874
115	0xbdb81e0e	-0.089901075
116	0xbc818913	-0.015812432
117	0xbdedd82b	-0.116134964
118	0x3c2e7a1e	0.010649232
119	0x3cfdce7c	0.030982248
120	0x3d0ad150	0.033891022
121	0x3e2ce9ea	0.16886106
122	0x3ce0e15f	0.027451215
123	0x3d324358	0.043521255
124	0x3d17518e	0.03694301
125	0x3dbc4bf9	0.09194178
126	0xbe276dd9	-0.16350497
127	0x3cab91a7	0.020943476
128	0xbc17d61c	-0.009267356
129	0x3c88d565	0.016703317
130	0x3e275b56	0.16343436
131	0xbc5c6d40	-0.013453782
132	0xba286517	-0.0006423755
133	0x3a441c03	0.0007480981
134	0x3e3f1a69	0.18662418
135	0x3de5fc3e	0.11229752
136	0xbd9723ab	-0.0737985
137	0x3e122e5c	0.14275497
138	0xbe21bc8f	-0.15794586
139	0xbd84ca76	-0.06483929
140	0x3d10ebbb	0.03538106
141	0xbca46462	-0.020067398
142	0x3d225fef	0.03964227
143	0xbcebd640	-0.028788686
144	0x3cdf8d3e	0.02728903
145	0xbcdeee95	-0.027213374
146	0x3e1dc8f1	0.15408684
147	0xbd36f79b	-0.04466973
148	0x3df96299	0.12177009
149	0xbdbbed14	-0.091760784
150	0xbd06b9f5	-0.032892186
151	0xbd3bc94f	-0.04584628
152	0xbd899598	-0.06717986
153	0x3daa8221	0.08325601
154	0xbd8978b4	-0.067124754
155	0xbdc786df	-0.097425215
156	0x3e1f3647	0.15548049
157	0xbd1e7ad1	-0.038691346
158	0xbb9e9281	-0.004839242
159	0x3dd43c25	0.10363034
160	0x3e06bf6c	0.13158959
161	0xbd9f8cf0	-0.077905536
162	0xbd2d5f02	-0.042326935
163	0xbd043547	-0.03227737
164	0x3d884995	0.0665466
165	0x3c80700c	0.015678428
166	0xbdaa9060	-0.083283186
167	0xbccc8331	-0.0249649
168	0x3d93eab8	0.072225034
169	0xbd4bb7ae	-0.049735717
170	0x3df9a342	0.12189342
171	0x3dee8dcc	0.11648139
172	0x3d20fdde	0.039304607
173	0xbdd0dc37	-0.10198253
174	0xbd108a65	-0.035288233
175	0xbde96330	-0.11395872
176	0x3d14be73	0.03631444
177	0xbe1a339b	-0.15058748
178	0x3da58175	0.080813326
179	0x3e242b59	0.16032161
180	0x3e1f76c7	0.15572654
181	0xbc95caaa	-0.018285114
182	0xbdb7153c	-0.08939597
183	0x3e009e9b	0.12560503
184	0x3dc421b6	0.09576742
185	0x3dafbe36	0.08581202
186	0xbdd5c42f	-0.1043781
187	0x3db3ae1d	0.08773444
188	0x3d9f6445	0.07782797
189	0xbdd08897	-0.101823024
190	0xbbcd49f8	-0.0062649213
191	0xbdd3534e	-0.103186235
192	0xbdb8255b	-0.089915
193	0xbda1f225	-0.079075135
194	0xbdc0a8db	-0.094072066
195	0xbe075b7c	-0.13218492
196	0xbc209294	-0.009800572
197	0xbd182a3a	-0.037149645
198	0x3da67d03	0.08129313
199	0xbd0299f9	-0.03188512
200	0xbdf27f4f	-0.118406884
201	0xbdc5a26d	-0.09650121
202	0xbdc6dfa8	-0.09710628
203	0xbbd0b9bb	-0.006369797
204	0xbde2844f	-0.11060392
205	0xbc883673	-0.016627526
206	0x3e62e801	0.22158815
207	0x3d0afa66	0.033930205
208	0xbd1ddc57	-0.03854021
209	0xbe1871b3	-0.14887123
210	0xbd646462	-0.055759795
211	0xb9d60824	-0.00040823326
212	0x3d4d52bf	0.05012774
213	0x3dbf0ec2	0.09328987
214	0x3d547228	0.05186668
215	0x3dfc010c	0.12304887
216	0x3d110608	0.035406142
217	0x3def95c8	0.116984904
218	0xbd916813	-0.07099929
219	0x3e03b4c1	0.12861921
220	0x3d1a0967	0.037606623
221	0x3d58fbb0	0.052974403
222	0x3e151f25	0.14562662
223	0x3dc401fd	0.09570692
224	0xbdb853cd	-0.09000359
225	0x3dba4fdc	0.09097263
226	0xbda5ded1	-0.080991395
227	0x3d5aec7a	0.053448178
228	0x3e002214	0.12513
229	0x3b2b91c5	0.0026179415
230	0xbcbd5800	-0.02311325
231	0x3e566ea3	0.20940642
232	0x3d4d53bb	0.05012868
233	0xbde6cc39	-0.11269421
234	0xbcf2cebb	-0.029639592
235	0xbe0855ff	-0.13314055
236	0xbdab8f40	-0.08376932
237	0xbd5c00e7	-0.053711798
238	0xbdd23f6e	-0.102660045
239	0xbd8a033d	-0.06738899
240	0xbdcf561c	-0.10123846
241	0xbe041d82	-0.12901881
242	0x3b86153a	0.004091886
243	0xbbdcd1cb	-0.0067388765
244	0xbdccf1d8	-0.100070655
245	0x3dd7a573	0.10529604
246	0x3d00be42	0.031431444
247	0x3e351134	0.17682344
248	0x3d359c5b	0.044338565
249	0xbc9d3b0a	-0.019193191
250	0xbde0b493	-0.10971942
251	0x3deb0fb3	0.11477604
252	0x3d97615b	0.07391616
253	0x3dc24568	0.094858944
254	0xbb83d0ea	-0.004022707
255	0x3c808b82	0.015691523

network_body._body_endoder.seq_layers.2.bias f4 [128]
0	0x39190e95	0.00014596649
1	0xba9dc7d7	-0.0012037706
2	0xb9f51fb5	-0.00046753665
3	0x3a893db3	0.0010470658
4	0x39e1f84e	0.00043100346
5	0x3ab9d10b	0.001417668
6	0x3a3a5787	0.00071083795
7	0x39e990a4	0.0004454899
8	0xb9dc5354	-0.00042023754
9	0xb6fe0cf8	-7.5712996e-06
10	0x3b031380	0.0020000637
11	0xb9841d7a	-0.00025198964
12	0xbb5f7981	-0.0034099522
13	0xba86a609	-0.0010272871
14	0xba31cb4c	-0.0006782308
15	0xb9e263d8	-0.00043180468
16	0x3a84139c	0.0010076645
17	0xba99db28	-0.0011738287
18	0xba41874b	-0.0007382526
19	0xb9e79ed7	-0.00044178098
20	0x3a09947f	0.0005248263
21	0xba943ee4	-0.0011310247
22	0xba15e41b	-0.0005717889
23	0xb91e1b36	-0.00015078191
24	0x39daf83f	0.00041765158
25	0x3a7a614d	0.0009551242
26	0x399d0c6c	0.0002995463
27	0x39e462d2	0.00043561176
28	0x3ac46491	0.0014983584
29	0xba37feeb	-0.0007018882
30	0xba24ba18	-0.00062838336
31	0x3abe8542	0.0014535564
32	0xbaa56ae0	-0.0012620352
33	0xb86a4396	-5.5852892e-05
34	0x3a657592	0.0008753176
35	0xbb089f2d	-0.002084683
36	0xb7786fb8	-1.4807963e-05
37	0xba77c3e3	-0.00094514916
38	0x3835a48e	4.3307016e-05
39	0xba1847f8	-0.0005809064
40	0xb9d33ba1	-0.00040289483
41	0x3b5b5658	0.0033468213
42	0x3a616782	0.0008598493
43	0x3a5c992d	0.0008415159
44	0x3aa63873	0.0012681618
45	0xbb44463c	-0.002994909
46	0x39bdec6c	0.00036225037
47	0x3b0a856c	0.0021136655
48	0xba55ce06	-0.0008156005
49	0xbad76ca3	-0.0016435575
50	0x39d423aa	0.00040462363
51	0xba8872a8	-0.0010410147
52	0x39f24a4d	0.00046213195
53	0x3adf5024	0.0017037434
54	0x3a358b4b	0.00069253583
55	0xbac49be9	-0.0015000078
56	0xba3ef1f4	-0.00072839786
57	0x3a9ae93c	0.0011818777
58	0xb95f9996	-0.00021324152
59	0x3a2d97ab	0.00066220266
60	0xba1af53c	-0.00059111766
61	0x3abb95f5	0.0014311658
62	0xbb3a5b03	-0.0028435595
63	0x3a05f261	0.00051096646
64	0x3ab42111	0.0013742765
65	0x3b20b9ac	0.0024524732
66	0xbad4cff5	-0.0016236292
67	0xbacffbff	-0.0015867947
68	0xb948fb2a	-0.00019167052
69	0xb88e1984	-6.77584e-05
70	0x38c28657	9.2756636e-05
71	0x39c0fadf	0.00036808007
72	0x3a4ff088	0.0007932265
73	0xbb13ea6f	-0.0022570153
74	0xb994900e	-0.0002833609
75	0xbad07f4d	-0.0015907079
76	0x3a81fc1e	0.0009917056
77	0xb9045fca	-0.00012624185
78	0xba857787	-0.0010182717
79	0x3ac17e2a	0.0014762331
80	0x3a8567e9	0.0010178062
81	0xbafd41a2	-0.0019321928
82	0x3b0d7f41	0.0021590742
83	0x38eac526	0.00011194711
84	0xbaeffd4f	-0.0018309745
85	0xba8486ad	-0.0010110937
86	0xbad5c3bc	-0.0016308944
87	0x3a95db0a	0.0011433077
88	0x3a823537	0.0009934072
89	0xbaf656c6	-0.0018794171
90	0xbb5cdb5a	-0.003370008
91	0xba6f9a13	-0.00091400853
92	0xbb122df7	-0.002230523
93	0x3adc42f1	0.0016804618
94	0x3a3c2f17	0.0007178648
95	0xba9abb5b	-0.0011805104
96	0x39b2135d	0.00033965232
97	0xba2c01a6	-0.0006561525
98	0xba7931c3	-0.0009506011
99	0xba63efbe	-0.0008695087
100	0x3af51650	0.0018698666
101	0x3b2916aa	0.0025800862
102	0x3a3e4410	0.0007258067
103	0xb95b00d2	-0.00020885773
104	0xba1d8671	-0.0006009108
105	0x3adbcbcc	0.001676911
106	0x3987c7d2	0.00025898084
107	0xba321b13	-0.00067941955
108	0xbadaf762	-0.0016705806
109	0x3a074604	0.00051602744
110	0x3b26d68f	0.0025457477
111	0xba4104ba	-0.000736307
112	0xb908ad64	-0.00013034564
113	0x38ba4d60	8.883583e-05
114	0xb90db346	-0.00013513592
115	0xbb1fe5dc	-0.0024398481
116	0xbaf6eeb7	-0.0018839453
117	0xb9c249cd	-0.0003705755
118	0xbadc0d79	-0.0016788683
119	0xb7d0b8a2	-2.4881509e-05
120	0xbab2edb0	-0.0013651159
121	0xba0707f7	-0.0005151028
122	0xbaffe038	-0.0019521778
123	0xbb48a64a	-0.0030616694
124	0xb99e5abf	-0.0003020372
125	0x3b0a0e20	0.0021065548
126	0xba8b5598	-0.0010630367
127	0x3af373f7	0.0018573989

action_model._continuous_distribution.log_sigma f4 [1, 2]
0	0x39f1282d	0.00045997035
1	0x3ba03478	0.0048890673

action_model._continuous_distribution.mu.weight f4 [2, 128]
0	0x3c5ae1e5	0.0133595215
1	0xbb5bd6ae	-0.0033544707
2	0x3b9fe0c6	0.00487909
3	0x3c1889a1	0.009310157
4	0x3cb4c0eb	0.022064647
5	0x3ca32000	0.01991272
6	0xba893a49	-0.0010469641
7	0xbb85f178	-0.004087623
8	0xbbbe2d91	-0.005803772
9	0x3bbc9afd	0.0057557807
10	0x3cd89d1c	0.026442103
11	0x3d088e1c	0.03333865
12	0x3b012d87	0.0019710974
13	0xbcc2373d	-0.02370798
14	0xbcd8e3ab	-0.026475748
15	0x3bbb0192	0.0057069743
16	0x3b002350	0.0019552298
17	0xbd02d821	-0.031944398
18	0xbc4f295e	-0.01264414
19	0xbb7e150c	-0.003876987
20	0xbc065d2d	-0.008200926
21	0x3c69b4ff	0.014264344
22	0x3c078c62	0.008273216
23	0x3b3bc02f	0.0028648486
24	0x3c812e00	0.015769005
25	0x3aa8740b	0.0012851966
26	0x3b599ec3	0.0033206202
27	0x3c8667d9	0.01640694
28	0x3cacbcec	0.021086179
29	0xbd0a8ce5	-0.033825774
30	0xbb5d903a	-0.003380789
31	0x3bf19045	0.0073719346
32	0xbc457281	-0.012051226
33	0xbc5fc284	-0.013657216
34	0xbaae6f7c	-0.0013308371
35	0xbb748bf2	-0.003731486
36	0xbb569726	-0.00327439
37	0xba962159	-0.001145403
38	0xbb9a1616	-0.00470234
39	0x3b2c35ad	0.002627711
40	0x3c1ddd5e	0.009635298
41	0x3cf82a89	0.03029372
42	0x3b2d6086	0.0026455238
43	0xbc056319	-0.0081413025
44	0x3c63ac0f	0.013896002
45	0xbc833898	-0.016018197
46	0xbc3ff631	-0.011716411
47	0x3b80d4e8	0.0039316304
48	0xbb59a3de	-0.0033209245
49	0xbd421b4a	-0.047389306
50	0x3c744788	0.0149096325
51	0x3bbd67bd	0.005780189
52	0x3b609f3b	0.0034274596
53	0x3c860aaa	0.016362507
54	0x3c1c61c1	0.009544791
55	0x3ce2c0cb	0.027679821
56	0x3c63d67a	0.013906116
57	0x3bb7ea99	0.005612683
58	0xbc8c1a67	-0.017102433
59	0x3c641cad	0.013922852
60	0xbd2388fc	-0.03992556
61	0x3d1fc95a	0.039010383
62	0xbc1537b6	-0.009107521
63	0x3c95724a	0.018242974
64	0xbc305a41	-0.010763706
65	0x3d2691f6	0.040666543
66	0xbcc1e0a1	-0.023666682
67	0xbc24d352	-0.010060148
68	0x3d091f18	0.03347692
69	0x3ca2291b	0.019794991
70	0x3b73c19f	0.0037194265
71	0x3c878be3	0.016546195
72	0x39d4b9f6	0.00040574343
73	0xbcd739f7	-0.026272757
74	0x3ca36a55	0.019948164
75	0xbd430780	-0.047614574
76	0x3b084e06	0.0020798459
77	0xbcca894c	-0.024723671
78	0x3c0e07d3	0.008668858
79	0x3c3e4ba9	0.0116147185
80	0xbcadd308	-0.021218792
81	0xbc9944b2	-0.018709514
82	0x3cb47c16	0.022031825
83	0xbbd1aff0	-0.006399147
84	0xbc143f3a	-0.0090482775
85	0xbc198c66	-0.0093718525
86	0xbd13fc3f	-0.036129232
87	0x3b969850	0.004595794
88	0x3b8a46ae	0.0042198515
89	0xbc387c85	-0.0112601565
90	0xbc405f48	-0.011741467
91	0xb6b5a9d0	-5.413989e-06
92	0xbcb39e02	-0.02192593
93	0xbd32abfa	-0.04362104
94	0xbc6a8f98	-0.014316462
95	0x3c0f1416	0.008732816
96	0xbb84edcd	-0.0040566684
97	0xbbe27606	-0.006911042
98	0x3b619896	0.0034423224
99	0xbc996843	-0.018726474
100	0x3c3c5f28	0.011497296
101	0x3d183a2c	0.037164852
102	0x3c8a0306	0.016847145
103	0x3ccad91f	0.024761735
104	0x3b9c1159	0.00476281
105	0x3c8846e3	0.016635364
106	0x3c7e35ed	0.015515787
107	0xbbe8b3b1	-0.007101499
108	0xbb815137	-0.003946449
109	0x3c8e008a	0.017334241
110	0xbada0bb0	-0.0016635563
111	0xbcaab83e	-0.020839807
112	0x3bd097a3	0.0063657328
113	0xbd0835c2	-0.033254392
114	0x3ccee267	0.025254441
115	0xbc859969	-0.016308503
116	0xbc64ecc3	-0.013972464
117	0xbc0c949b	-0.008580352
118	0x3c9b3f33	0.018951034
119	0xba6a7cd6	-0.00089449936
120	0xbca57351	-0.020196589
121	0xba37eea6	-0.00070164574
122	0xbc5baafc	-0.013407465
123	0x3b7e3bfb	0.0038793075
124	0xbc443e36	-0.011977723
125	0x3c98686e	0.018604483
126	0xbbc5b05c	-0.0060329866
127	0x3ccdfeeb	0.025145968
128	0xbc9254bd	-0.017862672
129	0x3ca74224	0.02041728
130	0xbc31b1cf	-0.0108456155
131	0x3c9bd47a	0.019022215
132	0xbc3cba81	-0.011519075
133	0xbb40a1e1	-0.0029393362
134	0xbcd3d4a7	-0.025858236
135	0x3ca3663c	0.01994621
136	0xbc12c2db	-0.00895759
137	0xbba415bf	-0.005007475
138	0x3bbf283a	0.005833653
139	0xbd5e8979	-0.054330323
140	0xbc5803e1	-0.013184519
141	0xbc8bd9f7	-0.017071707
142	0xbbc8b291	-0.0061248024
143	0xbcd86490	-0.02641514
144	0x3b574be7	0.0032851638
145	0xbb579a24	-0.0032898271
146	0xbc9db3aa	-0.01925071
147	0xbc763176	-0.015026441
148	0x3cc87108	0.02446796
149	0x3b1ddb01	0.0024086835
150	0xbcaa1730	-0.02076301
151	0xbce042c0	-0.027375579
152	0x3a7b9be8	0.0009598122
153	0x3bca1bff	0.006167888
154	0x3b770e8b	0.0037697877
155	0xbca5e9b3	-0.020253038
156	0xbc376f4d	-0.01119597
157	0xbcc74b93	-0.024328029
158	0xbcb56fcc	-0.022148035
159	0x3b615037	0.0034380087
160	0xbc5f09ff	-0.013613223
161	0xbb9c5351	-0.0047706743
162	0x3b888b62	0.0041670064
163	0xbb4f015a	-0.00315865
164	0xbcb9efef	-0.022697417
165	0xbc17f8bc	-0.0092756115
166	0x3c46d3e4	0.01213548
167	0x3ccfdcbb	0.025373807
168	0x3b07ef79	0.0020742102
169	0x3ca675b0	0.02031979
170	0x3c60d1a9	0.013721862
171	0x3c9a7354	0.01885382
172	0xbc2930e9	-0.0103266025
173	0xbcbeea53	-0.023305094
174	0x3d052682	0.032507427
175	0x3ba237a7	0.004950482
176	0xbbffa36e	-0.0078014648
177	0xbc47c530	-0.012193009
178	0x3c8c2b09	0.017110365
179	0xbcc7db64	-0.024396606
180	0x3c3a9a0a	0.011389265
181	0x3c8fcb3d	0.017552966
182	0xbc33927c	-0.010960218
183	0xbc833393	-0.016015803
184	0x3a3dc4d2	0.00072391063
185	0x3c64ed54	0.013972599
186	0x3d13b732	0.03606338
187	0xb8df188d	-0.000106380416
188	0x3c705502	0.014668705
189	0xbcc0125c	-0.023446254
190	0xbb51fe4b	-0.003204244
191	0xbc2470ab	-0.010036628
192	0x3b9b0ccd	0.0047317506
193	0x3c5e7bec	0.01357935
194	0xbce85124	-0.028359003
195	0x3acf5ac5	0.0015819898
196	0xbbf6cc41	-0.007531673
197	0xbb5d4002	-0.0033760075
198	0xbc3704ab	-0.0111705465
199	0xbc5b8c3e	-0.013400136
200	0x3cc0d8a2	0.023540799
201	0xbc200a9c	-0.0097681545
202	0x3b1c6fb3	0.002387029
203	0xbcc5c837	-0.024143321
204	0xbc287a9b	-0.010283138
205	0x3bbdeec9	0.0057962877
206	0xbb299987	-0.0025878863
207	0x3c903d1d	0.017607266
208	0x3b9285a1	0.004471496
209	0xbc9796c3	-0.018504506
210	0xbb914cf3	-0.004434222
211	0x3c9258f6	0.017864686
212	0xbca6c906	-0.020359527
213	0x3c5ec8e0	0.013597697
214	0xbcfbc2b9	-0.0307325
215	0x3bd9226a	0.006626417
216	0x3cfe5192	0.031044755
217	0xbb59380d	-0.003314498
218	0x3d33bf2a	0.04388348
219	0x3c8d1b52	0.017224941
220	0xbc519732	-0.012792395
221	0x3cae2837	0.02125941
222	0x3cb65d82	0.022261385
223	0xbca564c8	-0.020189658
224	0x3cd22112	0.025650535
225	0xbcfcf81f	-0.030880032
226	0xbccc2f4e	-0.0249249
227	0x3ce3684b	0.027759692
228	0x3c87c61f	0.016573964
229	0x3c52512d	0.012836737
230	0xbc4c3223	-0.012463125
231	0xbcce4461	-0.02517909
232	0x3d0d49a4	0.034494057
233	0xbce8ca7e	-0.028416868
234	0x3cde4ae7	0.027135326
235	0xbc0ea18c	-0.008705508
236	0xbb8d2781	-0.0043076877
237	0x3c236a18	0.009974025
238	0x3c646d17	0.013942025
239	0xbce445b9	-0.027865278
240	0xbc599fc0	-0.013282716
241	0xbb31dc32	-0.0027139303
242	0xbc983c90	-0.018583566
243	0xbb95603c	-0.004558591
244	0x3ba46626	0.00501706
245	0xbca54450	-0.020174176
246	0xbba2a8d9	-0.004963976
247	0x3c112439	0.008858734
248	0x3c701c91	0.014655248
249	0xbd254ee9	-0.040358458
250	0xbc12990a	-0.00894762
251	0xbc337f08	-0.01095558
252	0x3cc7a53d	0.024370784
253	0x3c6b8ddb	0.014377083
254	0xbd004ffc	-0.03132628
255	0x3c985986	0.018597376

action_model._continuous_distribution.mu.bias f4 [2]
0	0x3aaf868b	0.0013391537
1	0x39b93788	0.00035327324

action_model._discrete_distribution.branches.0.weight f4 [2, 128]
0	0xbc4e5072	-0.012592422
1	0xbc29e004	-0.010368351
2	0x3c69c97c	0.014269229
3	0x3b95b3f1	0.00456857
4	0x3ac25ddc	0.0014828998
5	0x390567ef	0.00012722587
6	0x3bc577bc	0.0060262363
7	0xbb7e7df0	-0.0038832389
8	0x3aaf5541	0.0013376848
9	0x3b85f84a	0.0040884363
10	0x3c51a509	0.012795695
11	0xbc17e3bb	-0.009270604
12	0x3b90fd0c	0.004424697
13	0x3c5ffe8a	0.013671527
14	0x3baf53cb	0.005350565
15	0x3a4f8e3f	0.00079176197
16	0xbafd3874	-0.0019319193
17	0x3b8c66a4	0.0042846967
18	0x3be1208f	0.0068703364
19	0xbba38aa0	-0.0049908906
20	0x3c28812b	0.010284702
21	0xb8bee29e	-9.102117e-05
22	0x3b6c11d6	0.0036021373
23	0xbc506a42	-0.012720646
24	0x3c5cf718	0.013486646
25	0xbbbd9768	-0.0057858713
26	0xbbf3baba	-0.007438031
27	0x3b37d179	0.002804844
28	0x3bde3d19	0.0067821858
29	0xbcce3277	-0.025170548
30	0x3a32b614	0.0006817293
31	0x3bcfcd73	0.00634163
32	0x3b4562be	0.003011867
33	0x3c284424	0.010270152
34	0xbb24bd62	-0.0025137295
35	0x3aab47ae	0.0013067627
36	0x3bf71c5a	0.0075412216
37	0xbbed225a	-0.007236761
38	0x3ba92b20	0.0051626116
39	0xbbecf4d1	-0.007231333
40	0xbc7beac6	-0.015375799
41	0x3bc60f2c	0.006044289
42	0xbc14a215	-0.0090718465
43	0x3b80519f	0.00391598
44	0xbbdd67d5	-0.0067567625
45	0xbc215c92	-0.009848731
46	0xbb763010	-0.0037565269
47	0x3b51d7df	0.0032019538
48	0xbc6b7093	-0.0143701015
49	0x3a43d812	0.00074708567
50	0x3b4f6b55	0.0031649668
51	0x3ad07ef1	0.0015906972
52	0x3b013a91	0.0019718746
53	0x3bd514d1	0.0065027256
54	0xbcad62d6	-0.021165293
55	0xbaf2d78d	-0.0018527374
56	0xbbff476e	-0.0077904975
57	0xba95ff06	-0.0011443801
58	0x3a186c63	0.0005814491
59	0x3b9e6a9e	0.004834487
60	0x3c19c9dd	0.009386507
61	0xbb9a1a38	-0.0047028325
62	0x3b304340	0.0026895553
63	0x3b632d1d	0.003466434
64	0xbc12e6dc	-0.008966174
65	0xbc10b38a	-0.008831868
66	0xbce1bc1c	-0.027555518
67	0xbbc5ccfb	-0.0060363985
68	0xbb2a857d	-0.0026019507
69	0xbbc51893	-0.0060148924
70	0x39fe2189	0.0004847164
71	0xbb74aace	-0.0037333253
72	0xbc190bea	-0.009341219
73	0xbb5e1525	-0.0033887115
74	0xbbeb1a19	-0.007174742
75	0x3b86d3d2	0.0041146064
76	0x382cf864	4.1239327e-05
77	0x3bffc6ac	0.007805666
78	0x3baeb542	0.005331666
79	0x3c9dfbac	0.019285046
80	0x3caefc85	0.021360645
81	0xbb09c7e9	-0.0021023697
82	0xbc745689	-0.01491321
83	0x3afb5153	0.0019174017
84	0xbb01fce8	-0.0019834582
85	0xbbcee04c	-0.0063133594
86	0x38499eac	4.806991e-05
87	0x3c70533a	0.01466828
88	0xbc40affe	-0.01176071
89	0xbab0f85c	-0.0013501751
90	0x3c2f8f21	0.010715277
91	0x3c264bd0	0.010149911
92	0x3b6f6c77	0.0036533156
93	0xbbea1166	-0.0071431873
94	0x3be2cc9f	0.0069213654
95	0x3a5df768	0.00084673474
96	0x3bff5718	0.007792365
97	0x3bde6e44	0.006788047
98	0x3b9d984f	0.0048094164
99	0xbc929c38	-0.017896757
100	0xbc66310c	-0.01404978
101	0xbaa456f5	-0.0012538122
102	0x3c39f5af	0.011350079
103	0xbb4942db	-0.0030710015
104	0xbc630b0f	-0.013857617
105	0xbadb7f80	-0.0016746372
106	0x3bfc3f18	0.007697951
107	0x3b2914ad	0.0025799677
108	0xbc8d10b3	-0.017219877
109	0x3b58ba48	0.0033070017
110	0x3c073f26	0.008254802
111	0xbbafc399	-0.005363893
112	0xbc3e5ca9	-0.011618772
113	0xbc4397f5	-0.011938085
114	0xbc476d54	-0.012172062
115	0xbb817015	-0.003950129
116	0x3b101b38	0.002198888
117	0x3b11256b	0.0022147547
118	0x3a14054f	0.0005646543
119	0xbb40016f	-0.002929773
120	0x3c05f9bf	0.00817722
121	0x3b08b882	0.0020861928
122	0xbb20b58a	-0.0024522268
123	0x3bdf6ca9	0.006818373
124	0xbc14af76	-0.009075036
125	0x3a2c4f80	0.0006573126
126	0x3bea8895	0.007157395
127	0x3c699611	0.01425697
128	0x3b67290f	0.0035272276
129	0xbc65f555	-0.0140355425
130	0x3be529f1	0.006993525
131	0xbc60b9cd	-0.013716173
132	0xbc21e9c1	-0.009882391
133	0x3b74eba3	0.0037371896
134	0xbbca7d6c	-0.0061795022
135	0x3c76cdc8	0.0150637105
136	0xbc426651	-0.011865214
137	0x3bf19492	0.0073724473
138	0x39487645	0.00019117545
139	0x3b8ac690	0.0042350963
140	0x3b4685da	0.0030292184
141	0xbc4eeb49	-0.012629339
142	0xbc167151	-0.00918229
143	0x3c4ef745	0.012632196
144	0xbc018086	-0.0079041775
145	0x3b51371c	0.0031923717
146	0x3bf05681	0.007334531
147	0xbc2036f6	-0.009778729
148	0x3aa8b5f7	0.0012871613
149	0xbc2b4adb	-0.010454859
150	0x3a4d5524	0.00078328163
151	0xbb3f71de	-0.0029212157
152	0x3b45cb06	0.0030180826
153	0xbc6711ac	-0.014103334
154	0xbc19b7a3	-0.009382161
155	0x3b67047f	0.0035250483
156	0xbc2e6732	-0.010644721
157	0x3c139474	0.009007562
158	0x3b71c388	0.0036890227
159	0xbb9ac185	-0.0047227764
160	0x3c822176	0.015885096
161	0xbc1b2837	-0.009470037
162	0x3c1c6a46	0.009546822
163	0x3c1aea9b	0.009455348
164	0xbb775955	-0.0037742455
165	0xbafc6f5a	-0.001925926
166	0x3c6906b3	0.014222789
167	0xbb74438d	-0.0037271709
168	0x3b37aba8	0.00280259
169	0xbbc6f101	-0.0060712104
170	0x3b4802cc	0.0030519245
171	0xbab9a18a	-0.0014162522
172	0x3cbf34dc	0.023340635
173	0xbbacd47c	-0.0052743535
174	0xbc79e155	-0.015251477
175	0xbc72ba39	-0.014814907
176	0x39204e8f	0.00015288054
177	0x3c652df6	0.013988009
178	0x3b421228	0.0029612873
179	0x3b79b433	0.0038101792
180	0x3c388a13	0.011263388
181	0xbc5dfadd	-0.01354858
182	0x3aa89420	0.0012861528
183	0xbbcd6894	-0.00626857
184	0xbc22672c	-0.009912293
185	0xba0de4d7	-0.0005412823
186	0x39d0e09d	0.00039840201
187	0xbb6224b7	-0.0034506747
188	0xba1828a7	-0.00058043975
189	0xbc72ab14	-0.014811296
190	0x3a2bd959	0.00065555196
191	0x3c115244	0.008869711
192	0x3a2a59ac	0.00064983475
193	0x3bdcfd15	0.006744037
194	0x3bbf82b5	0.005844439
195	0x39161cef	0.00014315893
196	0xbc15ca2b	-0.009142439
197	0xbc26d191	-0.0101818
198	0x3af4a224	0.0018664044
199	0xbcb55dcf	-0.022139458
200	0xbcacc83a	-0.02109157
201	0xbb1a2e1f	-0.0023526025
202	0x3a5d05aa	0.0008431325
203	0x3ae0c382	0.001714811
204	0xbbf5e818	-0.0075044744
205	0x3c70a609	0.014688023
206	0xbb05147a	-0.0020306394
207	0xbc0aa8e3	-0.008463117
208	0xbb14f10e	-0.0022726688
209	0xbaaa35be	-0.0012985987
210	0x3bea3b9f	0.0071482207
211	0xbbeaad8f	-0.007161803
212	0x3be50fde	0.006990417
213	0xbc707b3b	-0.014677818
214	0x3c6c7760	0.014432758
215	0xbb3208ad	-0.0027165816
216	0xb94b198a	-0.00019369103
217	0x3be9c600	0.007134199
218	0xbbca097e	-0.0061656823
219	0x3c82adf1	0.015952082
220	0xbb046867	-0.002020383
221	0xbcdd93df	-0.02704805
222	0xbc93f998	-0.018063352
223	0xbc5e6c96	-0.013575694
224	0xbb910bd6	-0.00442646
225	0x3b14db00	0.0022713542
226	0x3c4ee48b	0.012627731
227	0xba3a0310	-0.0007095793
228	0xbc0b5067	-0.008503056
229	0x3c3b365c	0.0114265345
230	0xbac51b6d	-0.0015038081
231	0x3be8824d	0.007095611
232	0x3b2b070e	0.0026096734
233	0x3c097608	0.008389957
234	0xbca049d0	-0.019566447
235	0xbbbcaabf	-0.005757659
236	0xbc1bb272	-0.009502994
237	0x3c21f91a	0.009886051
238	0xbbd4402a	-0.0064773755
239	0xbbd8b424	-0.0066132713
240	0x3b7fd6a4	0.0039037848
241	0x3c3d8509	0.011567363
242	0xbc398a1e	-0.011324434
243	0xbc37b5c3	-0.011212769
244	0xbb155022	-0.0022783359
245	0x3b0cf5f6	0.0021508909
246	0x3b3f7174	0.002921191
247	0x3b12cb98	0.0022399183
248	0x3bb0e39f	0.0053982283
249	0xbbeb5872	-0.0071821744
250	0x3bf6ff5f	0.007537767
251	0xbc976e21	-0.01848513
252	0xbb52b112	-0.0032149
253	0x3c10be6f	0.008834465
254	0x39c47171	0.00037468554
255	0x3b73b413	0.003718619

action_model._discrete_distribution.branches.0.bias f4 [2]
0	0x3a6f17ac	0.0009120654
1	0xba6f17ad	-0.00091206544

exp_avg f4 [128, 6]
0	0x389cb18b	7.4717296e-05
1	0x00000000	0.0
2	0xb993f036	-0.00028216996
3	0xb8b7c4fc	-8.762811e-05
4	0x00000000	0.0
5	0xb8ca4b37	-9.6461205e-05
6	0x3920e396	0.00015343571
7	0x00000000	0.0
8	0xb83ce289	-4.503367e-05
9	0xb94c9ad6	-0.00019512637
10	0x00000000	0.0
11	0xb8c94ab6	-9.598343e-05
12	0xb9642f40	-0.00021761376
13	0x00000000	0.0
14	0xb914e2de	-0.00014198894
15	0xb90ef18e	-0.00013632161
16	0x00000000	0.0
17	0xb7dde64a	-2.645249e-05
18	0x38d98dc5	0.00010373773
19	0x00000000	0.0
20	0xb84adb7d	-4.8364967e-05
21	0xb6961ba9	-4.4735684e-06
22	0x00000000	0.0
23	0xb897e687	-7.24318e-05
24	0x396c305b	0.00022524728
25	0x00000000	0.0
26	0x36e5c00e	6.84709e-06
27	0x3934e621	0.00017251867
28	0x00000000	0.0
29	0xb8c64ccc	-9.45568e-05
30	0xb82ce6f7	-4.12231e-05
31	0x00000000	0.0
32	0x38a80daf	8.013413e-05
33	0xb6d6c0f1	-6.4001583e-06
34	0x00000000	0.0
35	0x38b8f0be	8.8186454e-05
36	0x3916639a	0.00014342219
37	0x00000000	0.0
38	0x3920bc0a	0.00015328839
39	0x37a2444f	1.9343714e-05
40	0x00000000	0.0
41	0xb91e9162	-0.00015122214
42	0x39549813	0.00020274548
43	0x00000000	0.0
44	0xb845db3d	-4.717264e-05
45	0xb79bf514	-1.8591563e-05
46	0x00000000	0.0
47	0xb9ccd78c	-0.00039070507
48	0x389224dc	6.968688e-05
49	0x00000000	0.0
50	0xb7c0b17a	-2.2970828e-05
51	0xb7e999e6	-2.7847429e-05
52	0x00000000	0.0
53	0x39536c1c	0.00020162802
54	0xb90e170f	-0.00013550765
55	0x00000000	0.0
56	0x38dc2da8	0.000104989216
57	0xb8b7dc16	-8.767114e-05
58	0x00000000	0.0
59	0xb701d250	-7.737966e-06
60	0xb9132600	-0.00014033169
61	0x00000000	0.0
62	0xb8894bb4	-6.54677e-05
63	0x38963b8d	7.1636496e-05
64	0x00000000	0.0
65	0x3882a72f	6.2300234e-05
66	0xb9cd8154	-0.00039197004
67	0x00000000	0.0
68	0xb990ba2e	-0.00027604535
69	0xb9cf937d	-0.00039592004
70	0x00000000	0.0
71	0x3971b4fa	0.0002305097
72	0x38b58ae7	8.656625e-05
73	0x00000000	0.0
74	0xb70dce57	-8.452297e-06
75	0x389aef50	7.387868e-05
76	0x00000000	0.0
77	0xb9143080	-0.00014132448
78	0x37e469f3	2.7229054e-05
79	0x00000000	0.0
80	0x363958ab	2.761876e-06
81	0xb8fb01dd	-0.0001196896
82	0x00000000	0.0
83	0xb7c29913	-2.3197883e-05
84	0x390cfcd0	0.0001344562
85	0x00000000	0.0
86	0x38a73d8c	7.9746445e-05
87	0x38823dbb	6.210381e-05
88	0x00000000	0.0
89	0xb7596774	-1.2958295e-05
90	0xb8457883	-4.7080695e-05
91	0x00000000	0.0
92	0x39659e1c	0.00021898042
93	0x38c51cb0	9.3990355e-05
94	0x00000000	0.0
95	0x3907ed3b	0.00012962979
96	0x389e59f6	7.5507836e-05
97	0x00000000	0.0
98	0xb8a058ad	-7.645912e-05
99	0xb76b2ec6	-1.4017982e-05
100	0x00000000	0.0
101	0x37daac55	2.6067873e-05
102	0xb90facc0	-0.00013701897
103	0x00000000	0.0
104	0x39d08aee	0.00039776362
105	0x39ce25ed	0.0003931964
106	0x00000000	0.0
107	0x399a1175	0.00029386175
108	0xb8af17cb	-8.349082e-05
109	0x00000000	0.0
110	0xb7e1a57e	-2.6899153e-05
111	0xb8e2071f	-0.00010777846
112	0x00000000	0.0
113	0x38b2c3a5	8.524143e-05
114	0x37cc54df	2.4358216e-05
115	0x00000000	0.0
116	0x38b5b4e3	8.664445e-05
117	0x3843ba69	4.666523e-05
118	0x00000000	0.0
119	0xb7a465b2	-1.9597679e-05
120	0x384960e2	4.8012364e-05
121	0x00000000	0.0
122	0xb87bed30	-6.006396e-05
123	0x377d5f5e	1.51021795e-05
124	0x00000000	0.0
125	0x39123a59	0.00013945381
126	0x394dc9d0	0.00019625505
127	0x00000000	0.0
128	0x370a54ec	8.245213e-06
129	0xb84b37cb	-4.8450933e-05
130	0x00000000	0.0
131	0xb8b3c5ac	-8.5722044e-05
132	0x38eb3ed9	0.000112173795
133	0x00000000	0.0
134	0xb9cfe228	-0.00039650616
135	0xb976448c	-0.00023485924
136	0x00000000	0.0
137	0xb90d61d1	-0.00013483247
138	0x3900216c	0.00012219482
139	0x00000000	0.0
140	0xb8b4a529	-8.613832e-05
141	0xb805ec99	-3.193002e-05
142	0x00000000	0.0
143	0xb923749b	-0.0001558833
144	0x380c0057	3.3378918e-05
145	0x00000000	0.0
146	0x386e5092	5.681866e-05
147	0x38a55c43	7.884998e-05
148	0x00000000	0.0
149	0x3709714f	8.192218e-06
150	0x3712abbe	8.742265e-06
151	0x00000000	0.0
152	0xb81a68be	-3.681401e-05
153	0xb8ba82e7	-8.8935536e-05
154	0x00000000	0.0
155	0xb83510c5	-4.316938e-05
156	0x38c94bc6	9.598541e-05
157	0x00000000	0.0
158	0xb96d2bd8	-0.00022618414
159	0xb82fd48f	-4.1921212e-05
160	0x00000000	0.0
161	0xb90b583b	-0.00013288941
162	0xb86213ea	-5.3901145e-05
163	0x00000000	0.0
164	0x388c37ab	6.686089e-05
165	0x38ee7551	0.00011370576
166	0x00000000	0.0
167	0x37fec527	3.0370966e-05
168	0x38c86f4a	9.5574724e-05
169	0x00000000	0.0
170	0x37e60f17	2.7425163e-05
171	0xb8965acd	-7.16947e-05
172	0x00000000	0.0
173	0xb8ebc936	-0.00011243152
174	0x38443578	4.6779838e-05
175	0x00000000	0.0
176	0x39827d2a	0.00024888787
177	0x37c10c0c	2.3013003e-05
178	0x00000000	0.0
179	0x38cb1f13	9.685582e-05
180	0xb809b263	-3.282948e-05
181	0x00000000	0.0
182	0x3957c3ce	0.00020576941
183	0x399201bb	0.0002784858
184	0x00000000	0.0
185	0x3864a842	5.451614e-05
186	0xb970c8ff	-0.0002296306
187	0x00000000	0.0
188	0x3816b1b5	3.592829e-05
189	0x39ada91f	0.00033123136
190	0x00000000	0.0
191	0x39a58149	0.00031567577
192	0x393fdcbe	0.00018297412
193	0x00000000	0.0
194	0xb81f645d	-3.8002025e-05
195	0xb8836849	-6.2659914e-05
196	0x00000000	0.0
197	0xb8d49e84	-0.000101384736
198	0xb93902f0	-0.00017644069
199	0x00000000	0.0
200	0x383db0ea	4.5225876e-05
201	0x37fae1e1	2.9907505e-05
202	0x00000000	0.0
203	0xb8406753	-4.5872595e-05
204	0xb8f519aa	-0.00011687291
205	0x00000000	0.0
206	0x393cbb53	0.00017998861
207	0x3864294a	5.439789e-05
208	0x00000000	0.0
209	0xb86f34fc	-5.7031386e-05
210	0xb9233782	-0.0001556557
211	0x00000000	0.0
212	0x3818adfc	3.640166e-05
213	0x36a6452b	4.9552377e-06
214	0x00000000	0.0
215	0x38a0c98e	7.666937e-05
216	0x38ea325c	0.0001116737
217	0x00000000	0.0
218	0xb924a03f	-0.00015699955
219	0x389d116b	7.489588e-05
220	0x00000000	0.0
221	0xb917ae51	-0.0001446542
222	0xb91950d7	-0.00014621332
223	0x00000000	0.0
224	0x398cb142	0.00026834948
225	0x392e7fda	0.00016641562
226	0x00000000	0.0
227	0x386fb505	5.7150628e-05
228	0x398cddbd	0.0002686809
229	0x00000000	0.0
230	0xb945e8e3	-0.00018874141
231	0xb96295c7	-0.00021608836
232	0x00000000	0.0
233	0xb972a6bd	-0.00023141033
234	0xb876d4ab	-5.8849033e-05
235	0x00000000	0.0
236	0x38dd2091	0.00010544167
237	0xb83b93b6	-4.472184e-05
238	0x00000000	0.0
239	0x38b1ef1f	8.4845575e-05
240	0x38b2609c	8.505696e-05
241	0x00000000	0.0
242	0xb8e9b8cc	-0.00011144727
243	0x37d577cb	2.5447362e-05
244	0x00000000	0.0
245	0xb79c78d2	-1.865291e-05
246	0xb8ae2cae	-8.305289e-05
247	0x00000000	0.0
248	0xb941f28c	-0.0001849627
249	0x366be9af	3.515375e-06
250	0x00000000	0.0
251	0x3948f46f	0.00019164545
252	0xb8ec2a9a	-0.00011261292
253	0x00000000	0.0
254	0x37abbecf	2.047364e-05
255	0x37f09e61	2.868398e-05

exp_avg_sq f4 [128, 6]
0	0x3237473d	1.06682e-08
1	0x00000000	0.0
2	0x32d62d85	2.4933579e-08
3	0x31fb9f94	7.3232034e-09
4	0x00000000	0.0
5	0x3241fe9a	1.1291968e-08
6	0x31c646f0	5.770623e-09
7	0x00000000	0.0
8	0x3200427f	7.4657e-09
9	0x319dc921	4.592167e-09
10	0x00000000	0.0
11	0x3194b688	4.3281183e-09
12	0x31b7404a	5.33331e-09
13	0x00000000	0.0
14	0x3182537d	3.7929895e-09
15	0x30f13e80	1.7552821e-09
16	0x00000000	0.0
17	0x31843de8	3.8487435e-09
18	0x3176835e	3.5872385e-09
19	0x00000000	0.0
20	0x312b2208	2.490312e-09
21	0x3115b7ea	2.1786897e-09
22	0x00000000	0.0
23	0x30c439f2	1.4277346e-09
24	0x336245fc	5.2683376e-08
25	0x00000000	0.0
26	0x3363094f	5.2861022e-08
27	0x331f2093	3.70497e-08
28	0x00000000	0.0
29	0x334aa39e	4.71806e-08
30	0x322ff9e3	1.0243158e-08
31	0x00000000	0.0
32	0x329ad609	1.8025291e-08
33	0x3255234a	1.2406256e-08
34	0x00000000	0.0
35	0x328c70ad	1.6349384e-08
36	0x32a146c3	1.8775046e-08
37	0x00000000	0.0
38	0x3306cd54	3.138605e-08
39	0x32b6d243	2.1283205e-08
40	0x00000000	0.0
41	0x3295e1de	1.7448595e-08
42	0x3299d05f	1.79063e-08
43	0x00000000	0.0
44	0x32e3b75f	2.6509666e-08
45	0x323833e9	1.0722013e-08
46	0x00000000	0.0
47	0x329c8ed4	1.8225741e-08
48	0x33358cc4	4.2270372e-08
49	0x00000000	0.0
50	0x32f31733	2.8299473e-08
51	0x320a3c0f	8.046313e-09
52	0x00000000	0.0
53	0x32c14303	2.249863e-08
54	0x324b7ef4	1.1845021e-08
55	0x00000000	0.0
56	0x31efa02e	6.974026e-09
57	0x321879ec	8.875286e-09
58	0x00000000	0.0
59	0x31d05f8a	6.0644583e-09
60	0x32e5e180	2.6761654e-08
61	0x00000000	0.0
62	0x329e8eb5	1.8458516e-08
63	0x321071c1	8.407768e-09
64	0x00000000	0.0
65	0x31eef991	6.955084e-09
66	0x33988da7	7.103818e-08
67	0x00000000	0.0
68	0x32e8ebc4	2.7115568e-08
69	0x32908235	1.6823018e-08
70	0x00000000	0.0
71	0x32ab46cf	1.993922e-08
72	0x32548b3c	1.2371682e-08
73	0x00000000	0.0
74	0x31e59be6	6.6825008e-09
75	0x312f052a	2.5468787e-09
76	0x00000000	0.0
77	0x316aa8a1	3.4147336e-09
78	0x31cc474d	5.9452874e-09
79	0x00000000	0.0
80	0x32295f87	9.858815e-09
81	0x31914bed	4.228687e-09
82	0x00000000	0.0
83	0x31d8931b	6.3031513e-09
84	0x32812b0f	1.5037157e-08
85	0x00000000	0.0
86	0x32215fee	9.393245e-09
87	0x312ab726	2.4842364e-09
88	0x00000000	0.0
89	0x31adb67e	5.0557096e-09
90	0x324c5884	1.1894489e-08
91	0x00000000	0.0
92	0x3256f068	1.25111015e-08
93	0x314d2782	2.9853884e-09
94	0x00000000	0.0
95	0x320039ad	7.4636946e-09
96	0x30aeecf1	1.2727509e-09
97	0x00000000	0.0
98	0x30ff5cf9	1.8580116e-09
99	0x302b44de	6.2307304e-10
100	0x00000000	0.0
101	0x30ae2fe1	1.2673774e-09
102	0x3357da1e	5.0256965e-08
103	0x00000000	0.0
104	0x33855665	6.20901e-08
105	0x32c10c38	2.2473714e-08
106	0x00000000	0.0
107	0x33488468	4.668655e-08
108	0x320ed312	8.31348e-09
109	0x00000000	0.0
110	0x312f7c8c	2.5536648e-09
111	0x310dc22d	2.0628577e-09
112	0x00000000	0.0
113	0x31808a74	3.7410306e-09
114	0x31eea953	6.9459616e-09
115	0x00000000	0.0
116	0x318a9f87	4.0344648e-09
117	0x3169d9b2	3.4029708e-09
118	0x00000000	0.0
119	0x3181cc40	3.7776147e-09
120	0x31e82358	6.756107e-09
121	0x00000000	0.0
122	0x31d3d56f	6.165173e-09
123	0x3170264a	3.4946361e-09
124	0x00000000	0.0
125	0x31bd7c93	5.5147864e-09
126	0x32b5fe86	2.1186917e-08
127	0x00000000	0.0
128	0x32db74eb	2.5548124e-08
129	0x3222ea0a	9.482855e-09
130	0x00000000	0.0
131	0x32bada63	2.175256e-08
132	0x33298754	3.947146e-08
133	0x00000000	0.0
134	0x33cea90c	9.623372e-08
135	0x3312fad3	3.4221397e-08
136	0x00000000	0.0
137	0x3379e21d	5.818048e-08
138	0x329a9be5	1.7998852e-08
139	0x00000000	0.0
140	0x32dcf1d4	2.5721342e-08
141	0x329b78bc	1.8099279e-08
142	0x00000000	0.0
143	0x32216794	9.394984e-09
144	0x329a2c04	1.7947976e-08
145	0x00000000	0.0
146	0x320a90f9	8.06562e-09
147	0x31cdd958	5.9909944e-09
148	0x00000000	0.0
149	0x31834df9	3.8214663e-09
150	0x313a5ccf	2.7119318e-09
151	0x00000000	0.0
152	0x3186641a	3.9112935e-09
153	0x312c8a5f	2.510795e-09
154	0x00000000	0.0
155	0x311c447d	2.2739919e-09
156	0x32d40b9e	2.4685331e-08
157	0x00000000	0.0
158	0x32ee59ae	2.7747628e-08
159	0x32b32901	2.0856989e-08
160	0x00000000	0.0
161	0x32a34763	1.900816e-08
162	0x316f7187	3.484361e-09
163	0x00000000	0.0
164	0x31408157	2.8013198e-09
165	0x3138e436	2.6905247e-09
166	0x00000000	0.0
167	0x311fd0a5	2.3256146e-09
168	0x319bb591	4.5317354e-09
169	0x00000000	0.0
170	0x310c043e	2.0375093e-09
171	0x3104d735	1.933086e-09
172	0x00000000	0.0
173	0x31447cd8	2.859272e-09
174	0x332b002c	3.9814196e-08
175	0x00000000	0.0
176	0x3360147d	5.2172698e-08
177	0x3317c214	3.533394e-08
178	0x00000000	0.0
179	0x332f9129	4.0877385e-08
180	0x3259d849	1.268024e-08
181	0x00000000	0.0
182	0x3204367e	7.695801e-09
183	0x31b84f90	5.36415e-09
184	0x00000000	0.0
185	0x322709d9	9.7229185e-09
186	0x324ad12c	1.1805508e-08
187	0x00000000	0.0
188	0x32cf495f	2.4131337e-08
189	0x32bae061	2.1755286e-08
190	0x00000000	0.0
191	0x3253f928	1.2338468e-08
192	0x3204aeb8	7.723138e-09
193	0x00000000	0.0
194	0x3242632f	1.1314838e-08
195	0x31ba0005	5.4133147e-09
196	0x00000000	0.0
197	0x31afddee	5.118401e-09
198	0x326a0f3c	1.36240565e-08
199	0x00000000	0.0
200	0x329560d9	1.7389924e-08
201	0x325ae7c7	1.274197e-08
202	0x00000000	0.0
203	0x31f8cc0b	7.240947e-09
204	0x327c9900	1.4703119e-08
205	0x00000000	0.0
206	0x32acaa36	2.0100838e-08
207	0x31aa3f54	4.9548508e-09
208	0x00000000	0.0
209	0x322d0223	1.0070411e-08
210	0x31b76567	5.337529e-09
211	0x00000000	0.0
212	0x31d6dd33	6.253367e-09
213	0x31c37aa7	5.689191e-09
214	0x00000000	0.0
215	0x3181e6ea	3.780646e-09
216	0x31baba1b	5.43447e-09
217	0x00000000	0.0
218	0x3201c873	7.554365e-09
219	0x31d130e0	6.088257e-09
220	0x00000000	0.0
221	0x31c07fc6	5.6024616e-09
222	0x327e94cb	1.48185775e-08
223	0x00000000	0.0
224	0x32947117	1.7280895e-08
225	0x32132ba6	8.566451e-09
226	0x00000000	0.0
227	0x31cbbd88	5.929625e-09
228	0x328d3862	1.64402e-08
229	0x00000000	0.0
230	0x32a63eb9	1.9353466e-08
231	0x3216d3b7	8.7792875e-09
232	0x00000000	0.0
233	0x3272e3e3	1.4138069e-08
234	0x3225c6e8	9.64949e-09
235	0x00000000	0.0
236	0x3216a27f	8.7680965e-09
237	0x311d0cdb	2.2853814e-09
238	0x00000000	0.0
239	0x31a52386	4.8061706e-09
240	0x323d0dbb	1.100437e-08
241	0x00000000	0.0
242	0x32ecc36b	2.7562882e-08
243	0x32394878	1.0784895e-08
244	0x00000000	0.0
245	0x31d8e1f1	6.312114e-09
246	0x3312b97d	3.4161975e-08
247	0x00000000	0.0
248	0x32af115f	2.038058e-08
249	0x3237dd6d	1.0702348e-08
250	0x00000000	0.0
251	0x32078441	7.888105e-09
252	0x30da96fa	1.5904498e-09
253	0x00000000	0.0
254	0x3126e814	2.42881e-09
255	0x30c72392	1.4489265e-09
